ESPCN_ONNX.onnx (onnx, 108507 bytes, 8 tensors)

conv1.weight f4 [64, 3, 5, 5]
000000 71 e6 fa 3c 5b be 92 bc cd 7f 1a 3d a8 e1 22 3d
       0.030627461 -0.017913034 0.037719537 0.039765984
000010 db 25 86 3d 9b 2f 1e bd 1c 4b a7 3c c6 dc a9 3d
       0.06550189 -0.03861962 0.020421557 0.08294062
000020 af a7 02 bd 6f d6 66 3c 4a 4d 8d 3a 76 ac c3 3c
       -0.031898197 0.014089211 0.001078048 0.023885947
000030 74 63 fe 3d 38 66 f6 bc 22 14 4b 3d 39 77 93 ba
       0.12421313 -0.030078039 0.049579747 -0.0011250741
000040 4d 97 89 bd a0 46 46 bd f8 33 19 bb 4d 28 90 3d
       -0.067183115 -0.048407197 -0.0023376923 0.07038937
000050 8f 61 86 3d 42 05 fa bc bd 20 57 3c 4e 07 01 3d
       0.065615766 -0.030520085 0.013130364 0.031501107
000060 b4 14 0c 3d e7 15 11 3d 0a 97 4e bd 03 d0 a9 bc
       0.03419943 0.03542128 -0.05043701 -0.02072907
000070 bf 54 62 3d 91 11 40 3d 94 68 bd ba ff b9 91 3c
       0.0552566 0.046891753 -0.0014450722 0.017788885
000080 6c 52 7e 3d 80 45 8b bd c9 75 23 3d ee 75 df bb
       0.062090322 -0.068003654 0.03990725 -0.0068194782
000090 8f ea 6b 3d f5 c1 25 3e 3f a9 21 bd 2d 06 04 3d
       0.05759674 0.1618727 -0.039468046 0.032232452
0000a0 83 66 22 3d 24 83 0e bd 81 9e b6 3b 50 ce aa 3c
       0.039648544 -0.034793034 0.0055730944 0.02085033
0000b0 83 8d 91 3d 18 38 82 3d 05 91 ac bc e2 b7 bb bc
       0.07107069 0.06358355 -0.021065244 -0.02291483
0000c0 9d 7c 88 3c 79 a5 4d bc c1 da 5a 3d b9 52 31 bd
       0.016660983 -0.012551659 0.053431276 -0.04329178
0000d0 5c 42 e1 bc ba 72 20 bc b2 72 90 3c bb f9 bb bc
       -0.027497463 -0.009792978 0.017632816 -0.02294623
0000e0 5b d5 c4 3c 92 94 76 3d 50 a6 b3 bd 67 a7 03 3c
       0.024027517 0.06020028 -0.08771956 0.008035517
0000f0 11 f5 95 bc f5 ce 8a 3d 3a 0c e7 3d ab c4 72 bd
       -0.018305333 0.06777755 0.11281629 -0.05926959
000100 a4 55 d6 3c 48 e7 48 3d ac 30 e4 3b bf c5 4d bc
       0.026163884 0.049048692 0.00696381 -0.012559353
000110 38 6e 1d 3d fa ed 1f 3d f5 9b be 3d 26 b8 e2 3c
       0.03843519 0.03904531 0.0930709 0.0276757
000120 f6 6d 33 3c 2d c6 d9 3c 1d d9 0a 3d 66 43 80 3d
       0.01095151 0.026583755 0.03389846 0.06262855
000130 e7 da 12 3d c3 e7 46 bb 47 ca 69 bd b1 a3 25 3d
       0.035853293 -0.0030350543 -0.057077672 0.04043931
000140 0f 2d 5c 3d 05 f5 8f bd bb 8c 13 bc c6 12 92 bd
       0.05375391 -0.07029156 -0.009005721 -0.07132487
000150 2b 8c 7e 3c 8e cd 10 3d 3e 45 b1 bc 71 c7 26 3e
       0.015536348 0.035352282 -0.021639463 0.16287018
000160 14 91 a0 3d f2 5d 6b 3c 5f c6 ad 3d 2b d3 19 3d
       0.078401715 0.01436566 0.08485102 0.0375549
000170 c6 c2 3a 3b 3e da 13 bd f8 e9 58 3d 93 1b 9f 3d
       0.0028497442 -0.036096804 0.052957505 0.07768931
000180 2f 68 79 3d 8c 83 d8 3c 8f 72 16 3d af 71 08 3d
       0.060890373 0.026429914 0.036730345 0.033311542
000190 5c 52 65 3d d3 01 35 3d 37 db ea 3c 92 a4 85 bc
       0.055986747 0.044191193 0.028668983 -0.016313825
0001a0 70 8a 5b 3d f2 89 8e 3c e4 7f c7 bc 16 b1 14 bd
       0.05359882 0.017399762 -0.024352975 -0.036301695
0001b0 13 af 84 bd 92 0a e0 3c 01 f5 84 39 f1 fd 21 3b
       -0.06478705 0.02734879 0.00025359544 0.0024718011
0001c0 6b 5d 02 3e 79 06 32 3d 47 71 ca bb 04 0d 82 3c
       0.12730949 0.043463204 -0.0061780545 0.015875347
0001d0 47 4d 8b bc 95 e0 5c 3d 86 fb d4 bc c3 37 90 3c
       -0.017004622 0.053925116 -0.025998842 0.017604714
0001e0 ff a0 f5 3d 09 43 46 3c 3e c6 ce bb 59 af 6f 3a
       0.11993598 0.012100943 -0.0063102534 0.00091432553
0001f0 a1 95 f8 3c d9 dd 10 3d 1e be 30 3d c3 e0 87 3d
       0.030344786 0.03536782 0.04315006 0.06634667
000200 e8 51 ab 3c c6 98 50 3d 83 8f 29 3d b0 ba d1 bc
       0.02091308 0.050926946 0.04139663 -0.025601715
000210 26 df 26 3d 3f 3c 9a bc eb 88 69 3d 47 30 87 3c
       0.040740155 -0.018827556 0.05701534 0.016502513
000220 7c ef a8 3c 74 38 46 3e d8 f1 fc bb 8b c6 09 3b
       0.020622008 0.19357473 -0.0077192597 0.0021022882
000230 fa 7d f0 3c 0b d5 9e bd 15 06 fa ba 5e af 1d bc
       0.029356945 -0.077554785 -0.0019075299 -0.00962433
000240 a0 dd e6 3c 16 be 0d 3d c7 2d a6 3a c7 f3 05 bd
       0.02818185 0.03460511 0.0012678438 -0.032703187
000250 20 45 51 bd 47 5e 42 3c 20 21 b0 bc ca 04 b1 bb
       -0.051091313 0.011863298 -0.02150017 -0.005402182
000260 3b e4 7d bc fe 60 bd 3a 9b 38 61 3c a8 37 89 bc
       -0.015496309 0.0014448462 0.013746406 -0.016750172
000270 52 b9 4b 3c 6c 5a a7 3d ae a8 2e bd 47 7f ca bb
       0.0124343205 0.081715435 -0.042641334 -0.0061797234
000280 cb 33 8e 39 cd 07 4a 3d 9e 1e 88 3d 6e 8b 24 bc
       0.0002712294 0.049323846 0.06646465 -0.010043008
000290 07 79 ae 3c 08 b4 f4 3c b4 fb 64 ba ff 81 84 3c
       0.021297945 0.029871002 -0.00087350165 0.016175268
0002a0 46 74 ad 3d 75 af ad 3c 76 22 f6 3c ff 3a 93 3c
       0.08469443 0.021201828 0.03004573 0.017972467
0002b0 b1 54 35 3c 84 92 e3 bb 4e 5d da ba fc 36 28 3c
       0.011067555 -0.0069449563 -0.0016659887 0.010267016
0002c0 45 3d 73 bd 56 76 5b bc e0 d9 0e bc 68 a9 c1 3a
       -0.059384603 -0.013394913 -0.008718938 0.0014775218
0002d0 32 f9 35 bd b9 17 0d 3d fc f9 2b 3d 76 ad 9a bc
       -0.044427104 0.03444645 0.04198645 -0.01888154
0002e0 ce 12 c7 bb fa f4 38 3d 75 38 b1 3d 32 1c 48 3d
       -0.0060752397 0.045155503 0.086533464 0.048855014
0002f0 69 59 28 bc 91 e0 9c bc 3c 45 0d 3c 51 8d b7 bc
       -0.010275223 -0.01915005 0.008622464 -0.022406252
000300 0c ce f6 bc 6b 2b 93 3d 27 74 39 3d c6 e6 33 39
       -0.030127548 0.07186016 0.045276787 0.0001715674
000310 18 ba a6 3a b4 0f aa 3c 7d 59 07 3d 40 66 3b bd
       0.0012720255 0.020759441 0.033044327 -0.04575181
000320 b3 b1 98 3b a6 a9 42 bc f7 f8 17 3d 07 67 7e 3c
       0.0046598553 -0.011881268 0.037102666 0.015527493
000330 92 6b 14 3d 46 e0 e3 bc 2e e1 e4 bb c6 aa 49 3d
       0.0362354 -0.027816903 -0.0069848513 0.049235128
000340 45 62 97 3c 33 2c 00 3d 46 b7 e2 3c 32 b7 35 3d
       0.018479476 0.03129215 0.027675282 0.04436416
000350 44 8c 77 3d 29 68 34 3c 36 bd 01 3d 8f ea b0 3c
       0.060436502 0.011011162 0.031674586 0.021596221
000360 f4 ef f3 bc 67 a9 b9 3b 71 ae 18 3d 63 c4 c1 3c
       -0.029777505 0.0056659463 0.037275735 0.023653215
000370 68 dc 02 3c 34 fd de 3c f8 18 68 bc 64 26 f9 3b
       0.007987119 0.027220346 -0.014166109 0.0076034535
000380 34 b6 2c bd 9f 23 97 3d a6 d7 35 3d 07 b4 dd bc
       -0.04216595 0.07379841 0.04439511 -0.027063383
000390 b1 93 91 3c fa 2d 99 bc 60 99 4e 3d e4 48 8e bc
       0.01777062 -0.018698681 0.05043924 -0.017368741
0003a0 c8 c3 ca 3c 8c 75 65 3c ec e6 09 bc cc 1f a9 3c
       0.024751559 0.014005076 -0.0084168725 0.020645045
0003b0 1f 40 ef 3d c9 1e 07 3e 4e 72 3e bd 9c de 2c bd
       0.11682152 0.13195337 -0.04649573 -0.042204484
0003c0 5f 23 1a bc e8 fe c7 3c c5 dc 04 bd fa fb b7 bd
       -0.009407847 0.024413541 -0.032437105 -0.089836076
0003d0 70 18 25 3d d3 78 d0 3c b1 db f5 3c 96 e8 79 bc
       0.04030651 0.025448238 0.030011984 -0.015253207
0003e0 7b ba 94 3c 87 b0 67 bb 3b cd 17 3d d0 9a 28 3d
       0.018155327 -0.0035353021 0.037060957 0.041163266
0003f0 ac d9 3e bc 1a d3 c1 3c d2 3b 2b 3d 0a bc 33 bc
       -0.011648577 0.023660231 0.041805096 -0.010970125

conv1.bias f4 [64]
000000 54 56 a5 bc 39 2b 1d bc a4 de 20 bd 15 e9 eb bc
       -0.020182766 -0.009592825 -0.039274827 -0.028797666
000010 d1 4f ff bb 93 cb bb bb 07 bf bc bc bf ea 04 bd
       -0.0077914973 -0.005731055 -0.023040308 -0.032450434
000020 e7 87 d1 bb bf 11 f0 bc 41 08 dc bb 82 3a d8 bb
       -0.0063943746 -0.029305337 -0.006714851 -0.0065987715
000030 66 30 e5 bc 3b 1e b2 bc 3e be e4 bc 04 09 08 3e
       -0.02797718 -0.02174293 -0.027922746 0.13284689
000040 a0 26 36 bd ba fd 77 3b 39 2d b5 ba 21 3f f4 3c
       -0.04447043 0.0037840442 -0.0013822682 0.029815258
000050 df f6 ab bc af 46 ef bc 9f 72 d8 bb 1c be 1e bc
       -0.02099174 -0.02920851 -0.006605461 -0.00968888
000060 47 9b 42 3b 1a c1 35 bd a5 76 1c bd 1b b8 3d bd
       0.0029694603 -0.04437361 -0.038199086 -0.046318155
000070 56 c7 1a 3c df 34 2a bd 16 b4 82 bc 27 6b 4d 3c
       0.009446939 -0.041554328 -0.015955012 0.012537754
000080 64 bd ca bc 89 95 f0 3d 7d 73 b4 3c bf 1f 04 3c
       -0.024748512 0.117472716 0.022027725 0.0080642095
000090 b4 c7 02 bd 79 36 ce 3c 3d 3e 23 bd 24 9f 82 3d
       -0.031928733 0.025172459 -0.039854277 0.0637801
0000a0 63 a6 78 bc a5 23 1b 3d 34 17 02 bd fd 0b 22 3d
       -0.015176388 0.03787579 -0.03176041 0.039562214
0000b0 93 b7 1d bd 35 2d ed bc 5e 92 ca bc 06 79 8c bc
       -0.03850515 -0.02895222 -0.024727996 -0.017147552
0000c0 b0 18 a5 3b c5 1e 05 bb 83 f0 ae ba 6c f4 67 bc
       0.0050383434 -0.002031253 -0.0013346825 -0.014157396
0000d0 d9 25 13 bd 26 26 be b9 94 38 3d bd 30 80 55 bd
       -0.035924766 -0.00036268047 -0.046196535 -0.052124202
0000e0 12 77 f2 bc 6c d0 b0 bc 8d 4d 23 bd fe 77 62 3b
       -0.029597793 -0.021583758 -0.03986888 0.0034556384
0000f0 1f 46 d8 bc c1 84 b5 bc 9a 64 52 3d 1a d7 88 bc
       -0.026400624 -0.022158029 0.051365472 -0.01670413

conv2.weight f4 [32, 64, 3, 3]
000000 42 13 3c bc c0 18 48 3d 68 43 f2 3c d2 3c c9 bc
       -0.011479201 0.04885173 0.029573157 -0.024565134
000010 f2 ec c0 3d e3 1f 5f 3d f4 b4 58 3c e6 dd 5f 3d
       0.09420194 0.05447377 0.013226736 0.05465498
000020 de 87 8e 3c 9a 69 18 bd d3 36 59 bc f6 55 4c bc
       0.01739877 -0.037210084 -0.0132577 -0.012471667
000030 27 96 89 3c d9 68 6d 3d 2a 84 f2 3c 0e 8a 60 bc
       0.016795231 0.05796132 0.029604036 -0.01370479
000040 71 3d 38 3d 67 85 dd 3b 70 9e 98 bb b1 50 b1 bb
       0.04498047 0.0067602876 -0.004657559 -0.0054112305
000050 77 ee d0 3b b5 35 cb 3c eb 76 0f 3d 74 27 ea 3b
       0.0063760835 0.024805883 0.03502552 0.0071458165
000060 a2 5e 85 3d 6e e5 74 3c ee fa 11 bc 3b 5a c7 39
       0.065121904 0.014947278 -0.008909924 0.00038023465
000070 63 26 fb bc ba 2b a5 bc 3d 70 17 3c f2 0a 7f 3d
       -0.030657953 -0.020162452 0.009243068 0.062266298
000080 6e fe cb 3c e1 c4 50 3d cf 3c d2 3c 82 dc 2d bd
       0.024901595 0.05096901 0.025663761 -0.04244662
000090 f6 a3 14 bc 2a ae 00 3d bb 38 f9 3b 73 2f bb 3c
       -0.009072294 0.031416096 0.0076056398 0.022849774
0000a0 18 34 86 3d eb 69 46 3c 50 e6 6a 3d ce 0d 52 3d
       0.06552905 0.012110214 0.05734855 0.051282696
0000b0 3b 54 07 3c 84 e9 f6 ba f3 d8 24 3c cc 17 23 bd
       0.008259828 -0.0018837904 0.01006149 -0.039817616
0000c0 1b 4a 57 3c 54 c2 38 3d 99 b1 82 3d 0d fa ed 3a
       0.013140227 0.0451072 0.0638153 0.0018156186
0000d0 46 68 ad 3c 79 33 cf bc 0d 66 f8 3c 30 f8 91 3b
       0.021167886 -0.025293099 0.0303221 0.004454635
0000e0 bc 7f 03 3d a7 c9 ad 3c a2 9c 3c 3d 72 a1 02 3d
       0.03210424 0.02121432 0.046047814 0.031892247
0000f0 82 7f 08 3d ff 98 02 3d 5d 98 65 3c c6 d9 de 3c
       0.033324726 0.03188419 0.014013377 0.027203452
000100 03 da 06 3d ab 49 19 bd 20 1b 5c 3d 0f e8 40 3b
       0.032922756 -0.03742377 0.053736806 0.0029435193
000110 d4 06 a8 3c c5 9b 2e 3b 99 8f 11 3d ff 79 22 3c
       0.020511068 0.002664314 0.035537336 0.009916781
000120 9f d9 8f 3c 91 82 ca 3d bd 0d 1b bd 1c 3e ee 3c
       0.017559825 0.09888185 -0.0378549 0.02908235
000130 83 17 b2 3d 7d e7 c2 3b d0 2b 3c bd bc ad 07 3d
       0.08695891 0.0059480057 -0.04594022 0.03312467
000140 e3 50 fa 3b 75 16 49 3d 3a 51 b6 b9 5e 01 53 ba
       0.007639037 0.049093682 -0.00034774264 -0.0008049215
000150 a3 69 26 3d a4 f5 65 3b c1 57 03 3b 1f ee 19 bd
       0.040628087 0.003508904 0.002004132 -0.037580606
000160 f2 74 21 bc 1a e7 05 3c 63 95 46 bc f6 76 70 3d
       -0.009854542 0.008172775 -0.0121205775 0.0587072
000170 42 37 ca 3c 47 89 ac 3c 72 50 8a 3d 0f a2 e7 3c
       0.024684552 0.021061553 0.06753625 0.028275518
000180 83 86 52 3d 47 54 5d 3c 89 89 53 3d 18 dd bf bc
       0.05139781 0.013508863 0.051644836 -0.023420855
000190 8f 19 98 bc cc b0 ec 3c 41 ba 10 3d cd ed eb 3d
       -0.018566875 0.028892897 0.035333876 0.11519966
0001a0 c2 ae 30 3d ab ec 24 bc 54 d6 0c 3d 6f f0 16 bc
       0.043135412 -0.010066192 0.034384087 -0.009212597
0001b0 60 ef f9 3b 03 b4 b6 3c ae 1b 1d 3d 34 f0 00 3c
       0.0076274127 0.022302633 0.038356476 0.007869769
0001c0 db 65 d2 3d f7 23 58 3c 3e df c0 3b 53 46 30 3d
       0.10273334 0.013192168 0.0058859875 0.043035816
0001d0 f9 15 bc 3c 0a f5 8b bb b6 9b 16 3c 03 6c 22 bc
       0.022959696 -0.0042711543 0.009192398 -0.009913447
0001e0 80 b7 e2 b9 5c e2 70 3d 88 3a 39 3d 4e c9 3c bc
       -0.00043242797 0.058809623 0.045221835 -0.011522604
0001f0 2a 38 0c 3c 20 64 12 3d 27 77 0e 3d 55 e1 0e bc
       0.008558312 0.035740018 0.0347816 -0.0087207155
000200 0a de da bb 75 ea 18 3d 43 c0 10 3d bf 2d b9 3b
       -0.006679301 0.03733297 0.035339605 0.0056512053
000210 36 f6 91 3c 41 f0 e6 3c 8c 85 44 3d e4 50 cc 3d
       0.017817598 0.028190734 0.047978923 0.09976366
000220 40 04 c8 3d 97 1a 96 3d 49 74 10 3d 1b b5 5c 3d
       0.097664356 0.0732929 0.03526715 0.053883653
000230 be 38 34 3d 79 bf c3 bd 76 4e 1c bd 86 1a 5d bd
       0.043999426 -0.09558005 -0.038160764 -0.053980373
000240 bb 48 12 bd 98 b2 d3 3c d2 60 e9 3c d1 0b 4b 3b
       -0.035713892 0.025841996 0.02848855 0.0030982385
000250 86 5e 29 3d 09 93 72 3c d7 90 e5 bc 03 ba 01 3a
       0.04134991 0.014805564 -0.028023167 0.00049486774
000260 75 dd 89 3c 65 04 80 3d 91 43 33 3d fb bd 6d 3c
       0.016829232 0.06250838 0.04376561 0.014510627
000270 07 a9 a6 3c 43 2d 28 3d 19 5a 60 3d 76 1d b2 3c
       0.02034427 0.04105879 0.054773424 0.021742564
000280 ae 4b 70 3d cc 58 3f 3c 17 0f 45 bb 93 ec 83 bb
       0.058665924 0.011678886 -0.0030068809 -0.0040260046
000290 8a 1c 3a 3b 8e cf a0 3b 66 3c c0 3c 62 10 ba 3c
       0.0028398358 0.004907555 0.0234663 0.02271289
0002a0 75 24 45 3b c0 4f 9b 3c 21 a3 b9 3c cc 3c 11 bc
       0.0030081545 0.018958926 0.022660794 -0.008864593
0002b0 53 8b c2 3c ad 82 10 3b 96 68 98 3d 54 87 97 3d
       0.023748076 0.0022050545 0.07441823 0.07398859
0002c0 a2 5e 8f 3d 0c fd 74 3b 46 ab b2 3c 87 51 e7 bc
       0.07000472 0.0037382273 0.021810185 -0.028237117
0002d0 a7 f7 8f 3b 08 64 2c 3c 52 07 97 bc 8e 14 7b 3d
       0.004393536 0.010521896 -0.018436108 0.0612989
0002e0 c4 55 41 3d 2b 44 cd 3a 64 f5 9d 3d e2 fd 25 3d
       0.047200933 0.0015660574 0.0771282 0.040525325
0002f0 47 c3 c3 3b 37 69 2e 3d 00 1b 25 3d 20 f8 fa 3b
       0.0059742066 0.04258081 0.040308952 0.0076589733
000300 82 6e cc 3c 8a 50 63 3d 8c f1 b5 bc 2a 2e 79 bc
       0.024955038 0.05549673 -0.022209905 -0.01520876
000310 38 0b a1 3c 84 a6 11 3c 18 c2 ab 3d d1 c5 c0 3c
       0.01965867 0.008889798 0.0838663 0.023531826
000320 36 81 9e 3d c5 78 97 3c c2 54 39 3d 36 39 1e 3b
       0.07739489 0.018490205 0.045246847 0.0024142987
000330 b8 2a 20 3d 48 48 8f 3c 11 67 40 ba 0c b5 1b bd
       0.03910324 0.017490521 -0.0007339577 -0.038014457
000340 a7 94 eb 3b a5 35 66 bd 77 d9 72 3d e6 d9 83 3d
       0.0071893516 -0.056203503 0.059289422 0.06438045
000350 38 2c b5 3c c3 9c a9 3c 24 6a 40 3d e2 62 96 3c
       0.022115812 0.020704633 0.046976224 0.018357698
000360 87 13 0d 3c 69 84 53 3d 6d f8 05 3c 0b 89 40 3c
       0.008610613 0.051639948 0.008176905 0.011751424
000370 22 20 d4 3d 02 62 91 3d ba a3 a8 3c 97 8e dd 3c
       0.10357691 0.07098772 0.020585883 0.027045531
000380 00 4f 67 3c c9 b1 a8 bc 38 3f ac 3b 32 97 0c bc
       0.014117956 -0.020592587 0.0052565597 -0.00858097
000390 6d 53 20 3c 6e 08 c5 3c 71 d7 0e 3d fd f2 82 3b
       0.009785515 0.024051871 0.03487343 0.0039962516
0003a0 35 80 f1 ba 80 8a 89 bb 3c fa 06 bd 49 eb f5 3c
       -0.001842505 -0.0041974187 -0.032953486 0.03001942
0003b0 27 b7 0d 3c ca 99 c0 3c 82 0c 2c 3d d9 8b a4 bc
       0.008649624 0.023510832 0.042004116 -0.020086216
0003c0 fe 34 7f bd 73 b1 d8 bc f0 9c b4 bc ea ec d8 3b
       -0.062306397 -0.026451802 -0.02204749 0.006620039
0003d0 8d cd 67 bc 4d f6 29 3c c0 e7 3d 3b 24 86 47 3c
       -0.014148128 0.010373664 0.0028977245 0.012177978
0003e0 db e8 61 bb b0 7a 0d 3d 8d 74 46 3c f0 00 b4 bb
       -0.0034471068 0.034540832 0.012112749 -0.005493276
0003f0 44 0b bb bb d0 7e 85 3c 47 56 61 3c 32 d2 3a 3d
       -0.00570813 0.01629582 0.01375348 0.045610614

conv2.bias f4 [32]
000000 1e 05 bc 3c 41 a3 33 bb d7 a0 67 3a ef e0 39 bd
       0.022951659 -0.002741054 0.00088359177 -0.04538053
000010 82 0e af bb 61 af 99 bc 00 e5 ce ba 57 13 9b bc
       -0.0053423056 -0.018760385 -0.00157848 -0.01893012
000020 d2 73 1d bd b7 2a 37 bd b9 c7 8d bc 68 c5 0c bd
       -0.038440533 -0.04471847 -0.01730715 -0.03436795
000030 15 a2 7f bc be bf 14 bd c8 cb 25 bd fa 33 ad 3a
       -0.015602608 -0.036315672 -0.040477544 0.0013214343
000040 f5 7d 1f bd 59 9f 8a 3d 3e 42 aa ba 75 66 3a bd
       -0.03893848 0.067686744 -0.0012989712 -0.045507867
000050 73 99 27 bd ed c0 88 3a d1 6d d0 bb 4e a6 87 bc
       -0.040917825 0.0010433473 -0.0063607474 -0.016558792
000060 4e da 8c bc 7f aa 39 bd cd 9b 21 bd ad 8a 92 39
       -0.01719394 -0.045328613 -0.039455224 0.00027950612
000070 d5 cf 07 bc 31 5b 1a ba b9 d8 ac 3d 5a 62 62 bb
       -0.008289297 -0.00058882224 0.08439774 -0.0034543485

conv3.weight f4 [12, 32, 3, 3]
000000 95 ab 44 bc 88 b3 96 3c c8 2b e9 3c fc 3b b6 b9
       -0.012003799 0.018396154 0.02846326 -0.00034758437
000010 13 58 28 bd e9 48 8f bc 1e 56 3b bc 85 2a a3 3c
       -0.04109962 -0.017490821 -0.011434106 0.019917736
000020 a7 10 9b 3c 5d b4 88 3c 47 8d 62 3c 5a 2f ee bb
       0.018928839 0.016687566 0.013827628 -0.0072688283
000030 ae 32 ec 39 99 5e 1b 3d 4d 24 77 bc ec 47 a4 bc
       0.00045051187 0.037932012 -0.015084338 -0.020053826
000040 0b d1 04 bd d9 84 1e bd e5 06 97 3c fd 75 cc bc
       -0.03242592 -0.038700912 0.018435905 -0.024958605
000050 0e 98 26 3c 3c 8a b5 bc fd ad 03 3c b7 dd 0a 3b
       0.010168089 -0.022160642 0.0080370875 0.0021189281
000060 f2 b4 2a 3c 93 5f d9 3c 7c 76 39 3d a7 8e 1e 3d
       0.010419117 0.026534831 0.04527901 0.038710263
000070 1b 64 89 3c 12 6d 23 bc 4f dd 09 3c 71 25 02 3d
       0.016771367 -0.009974735 0.0084145805 0.03177399
000080 57 97 41 3d 58 d1 ea bb e5 48 65 3b 00 ad dc bc
       0.04726347 -0.007166069 0.0034986075 -0.026937962
000090 10 42 97 3c 3c 56 11 bd 57 74 97 3c 02 d2 00 3d
       0.018464118 -0.03548263 0.018488092 0.03145028
0000a0 5a d9 14 bd 54 7d 5f 3b 4c 15 99 bc f1 cd 1d 3c
       -0.036340095 0.00341018 -0.018686913 0.00963162
0000b0 63 6b 2d 3d 16 ef 33 3d ab d5 b8 3c bf e1 79 3c
       0.04233874 0.043929182 0.022562822 0.015251576
0000c0 e9 8c 92 3b d2 9c 30 3c b6 64 15 bc 6f 3f ec 3a
       0.004472364 0.010779576 -0.00911825 0.0018024276
0000d0 be 38 3d 3d 9f 76 1d 3b 2f 36 df bc a2 27 c6 bc
       0.04619669 0.0024027003 -0.027247516 -0.02418882
0000e0 1b 56 91 bc 14 b4 58 3c aa c3 ee bb 34 30 42 ba
       -0.017741254 0.013226528 -0.0072865086 -0.00074076955
0000f0 ca 38 23 bc f9 5b ba 3c 9c e3 ba 3b 65 18 26 3b
       -0.00996227 0.022748934 0.0057034027 0.002534413
000100 68 f1 8c 3c 01 c2 0b 3c d9 cc c2 3b cf 3f 63 3d
       0.017204955 0.008530141 0.00594483 0.055480774
000110 af d3 9f bc a2 e4 ba 3c bf e0 1b 3d d3 88 37 3c
       -0.019510118 0.022814099 0.03805613 0.011202055
000120 58 5d 95 3c 88 6d 02 3c 6a 23 88 3c a0 2b 6b 3d
       0.018232986 0.007960685 0.01661845 0.05741465
000130 07 cf 89 bc 33 16 ea ba 6d ac cf 3c 62 ec 3e bb
       -0.016822351 -0.0017859399 0.025350774 -0.0029132594
000140 85 72 b9 bc c5 21 25 3c 8e 95 24 bb 54 9a a3 bc
       -0.022637615 0.010078852 -0.0025113556 -0.01997105
000150 68 9f 25 bc 48 ac 8e 3b 83 ac 54 3c 54 1a 13 bd
       -0.010108806 0.0043540336 0.012980583 -0.03591378
000160 46 41 28 bd 00 26 da bc 35 36 a2 3c db 0f b5 3b
       -0.041077875 -0.026629448 0.019801239 0.0055255718
000170 b2 41 2d 3d 59 6f 5a 3c 8a 2c 16 bc ee 84 8c bb
       0.04229898 0.013332211 -0.009165892 -0.0042883074
000180 ac 5a 27 3d 5f dd 43 bd 21 37 86 bc 4f b9 d4 bb
       0.040857956 -0.047818538 -0.01638371 -0.006491817
000190 a8 5c 35 3b 4a d6 8d 3c ad c2 30 3c db 04 b7 bc
       0.0027673636 0.017314095 0.010788602 -0.022341182
0001a0 e0 4e 15 bc 1c 5c 20 bc cf b0 1e 3b 54 18 85 3c
       -0.009113044 -0.009787586 0.0024214273 0.016246952
0001b0 9b 93 d0 3c 5e b1 da bc 5c 5a 52 bc c1 39 c4 3c
       0.025461009 -0.026695903 -0.012838926 0.02395332
0001c0 92 66 2e bd 90 4d 33 3c a8 17 33 3c eb d0 b4 3b
       -0.042578287 0.010943785 0.010930933 0.005518069
0001d0 d8 4a 4c 3d 51 8e 3b 3c cd cb 3d 3c 5f 7d 96 3c
       0.049876064 0.011447505 0.011584234 0.018370328
0001e0 ec 20 60 bc 30 f6 1d 3d 83 a9 7c 3c 43 34 90 3b
       -0.013679724 0.03856486 0.015421274 0.0044007613
0001f0 de e3 a9 bc 72 7b ca 3b c5 1c 4e 3c 50 07 cf 3b
       -0.020738538 0.0061792666 0.012580101 0.0063180104
000200 4d d9 37 3c c6 f6 a7 bc 5d 35 cc 3c c7 33 45 3d
       0.011221242 -0.020503413 0.02492779 0.04814508
000210 d0 93 dc 3c 4f bc 05 39 d8 e5 6e bd d2 54 10 bd
       0.026925951 0.00012754019 -0.058324665 -0.03523714
000220 dd 51 2c bb 30 7d e7 3c a7 ee e7 b9 bc 8a a8 bc
       -0.0026293912 0.028257936 -0.00044237563 -0.020573966
000230 39 ad b4 3c 4a ab 10 3b 32 cc f2 3b 3e 59 be 3b
       0.022055255 0.0022074752 0.007409596 0.0058089783
000240 2c db ee 3c f3 4e 85 bb a0 8a 35 bc 25 72 37 3c
       0.029157244 -0.0040682494 -0.011080414 0.011196648
000250 74 5d cb bc 04 aa 22 bb 1b 12 a7 b8 38 05 63 3a
       -0.024824835 -0.0024820575 -7.966553e-05 0.00086601404
000260 5c 25 93 bc e5 3f f5 bc 73 d6 bb 3b 05 c4 02 3d
       -0.01796215 -0.029937694 0.0057323514 0.03192522
000270 0d 79 09 bd a5 8a 29 bb 8f 23 19 bc 6b 29 84 bd
       -0.03356271 -0.0025869992 -0.009346857 -0.06453212
000280 9a f8 a2 bb fc 68 85 bc 87 f6 e3 bb 14 98 87 bd
       -0.0049734833 -0.016285412 -0.0069568786 -0.066208035
000290 0d 8d e6 bb bb 63 e2 3a e8 42 7e bd 38 25 d3 ba
       -0.0070358575 0.0017272154 -0.062075526 -0.0016109115
0002a0 d2 17 b3 3c a1 9d a7 bc 88 77 08 bd 2e 82 8d bc
       0.021861944 -0.020460906 -0.03331712 -0.017273989
0002b0 8a ef a7 3b e2 38 3a bc d6 4a 3d bb 45 22 80 3c
       0.005124991 -0.011366101 -0.0028883717 0.015641341
0002c0 4d ee 3c bc 90 22 09 3d f2 c0 4d 3a a4 03 95 3a
       -0.011531425 0.033480227 0.00078488805 0.0011368883
0002d0 74 ba db 3c a0 f5 72 3d 88 af 17 bc 52 d1 b5 3c
       0.026822306 0.059316278 -0.0092581585 0.022194538
0002e0 d1 ed 40 3c e1 b2 1a 3d 2d 57 0c bd 2a df be bc
       0.01177545 0.03776825 -0.034262825 -0.023299772
0002f0 23 5d 19 bd 10 35 c3 3c 81 35 6e 3c 73 93 05 bc
       -0.037442338 0.023829013 0.0145391235 -0.00815283
000300 6d 0c 50 3c 42 ef 04 bd dd 25 b9 bc 00 1a c2 3c
       0.012698275 -0.032454737 -0.022601062 0.023694038
000310 f0 4c 09 bb cb aa 81 3c 33 45 ef 3b 9c 09 df bb
       -0.00209504 0.01582851 0.0073019504 -0.0068065654
000320 80 b4 64 bc 4e aa e4 bc 8b fa 69 bc 9a 09 fb 3c
       -0.01395905 -0.027913239 -0.0142809255 0.030644227
000330 03 36 91 bb dc a7 e9 3c 18 21 c8 bb 4e 0d 8e bc
       -0.0044314875 0.028522424 -0.0061074607 -0.017340329
000340 ce f0 f1 3b 6a e0 a0 3c 7a e3 35 3d be 66 af 3b
       0.0073834425 0.019638259 0.04440639 0.005352824
000350 50 30 95 bc 12 6e 6f 3c 0c a9 74 bc 5c cc c8 3b
       -0.018211514 0.014613645 -0.014932882 0.006127877
000360 fd 80 26 3c 19 22 dd 3c 2c 99 12 3c b1 23 a7 3b
       0.010162589 0.026993798 0.008947652 0.0051006903
000370 4f 35 04 bd f2 b4 ed 3c b6 ea a2 bc 12 35 34 3b
       -0.0322774 0.029016946 -0.01988731 0.0027497453
000380 05 00 cf bc c2 19 64 3b d4 58 6a 3d 4f b3 b4 bc
       -0.025268564 0.0034805392 0.05721362 -0.022058157
000390 b7 60 1c bc 68 85 9c 3d a4 36 67 3c c1 97 a7 3c
       -0.009544543 0.07642633 0.014112148 0.020458104
0003a0 cc 76 85 3c 7e 2b 15 bd 75 27 0d 3d e4 ed d9 3b
       0.016291998 -0.03641843 0.034461457 0.006650673
0003b0 95 06 5a 3c 77 65 e0 3c 4b 54 12 3c c3 b8 a2 3b
       0.013307233 0.027392132 0.00893123 0.004965873
0003c0 81 87 7f 3c 6d ae 01 bc ab d3 57 3c f0 05 45 3c
       0.0155962715 -0.0079151215 0.013173024 0.012025341
0003d0 43 14 1c ba fe 9b 2f 3b 52 62 38 3c cf 81 14 bd
       -0.0005953947 0.002679586 0.01125391 -0.036256608
0003e0 dc 36 86 3c fa 84 65 3c 36 93 cc bc 8e b0 64 3d
       0.01638358 0.014008755 -0.02497254 0.05583244
0003f0 ab d6 10 bc e1 5b f8 3c f2 98 9d 3b 3c aa cd 3c
       -0.008840243 0.030317249 0.0048094923 0.025105588

conv3.bias f4 [12]
000000 4c 1b 51 bd 41 4f 0e bd 29 b2 01 3c a1 36 31 bd
       -0.051051423 -0.03474355 0.007916012 -0.04326499
000010 ef 3a cd bc cb 2a 0e bd 54 77 d4 bc 4b 2a 15 bd
       -0.025052516 -0.03470878 -0.025935806 -0.036417287
000020 8b 3b 8e 3c c7 a4 0f 3c 14 b8 5e 3c b7 75 a2 3c
       0.017362377 0.008767313 0.013593692 0.019831521

conv4.weight f4 [3, 3, 1, 1]
000000 02 d1 8f 3c c3 a5 44 3d 59 6d 10 3b d5 82 35 bc
       0.017555717 0.048009645 0.0022037833 -0.011078556
000010 94 89 ca 3c 47 4d 02 3d a8 40 1e bd 5f 44 83 3a
       0.024723805 0.03181198 -0.03863588 0.0010014883
000020 97 df 73 3d
       0.059539404

conv4.bias f4 [3]
000000 06 89 cb bc 8b 1b 37 3d ab 85 5e bc
       -0.024845611 0.044704 -0.013581674
