ESPCN_ONNX.onnx (onnx, 108538 bytes, 8 tensors)

conv1.weight f4 [64, 3, 5, 5]
00000000: 8ec1 853c 4398 e33b 5a86 3fbc 9fa3 433c
00000010: cb08 9bbc ca0a 5cbb 0c73 bd3c 9c0e 1a3a
00000020: adb7 2d3d 237b 9f3c d0d3 2d3d 33fb 22bc
00000030: 2be3 99bd ee8d 4a3c 4547 333c 2798 283d
00000040: 43bc 85bc 71f6 c8bc 9470 993a 1554 473a
00000050: 735b 3bbc 61a7 8cbc 8470 d43b 4951 693c
00000060: fd23 6fbc f410 f5ba d35b 123c 2a8b 57bc
00000070: c4a7 583c ae69 643b 9a33 403c 1504 003c
00000080: e30d 6f3a dc99 b83c 04a0 edb8 064a 2e3c
00000090: 85c5 0abb 18f3 99bd d79c 15bb eb0b f13b
000000a0: 9483 f73c fab4 b3bc 7277 0c3c f578 003d
000000b0: 2df6 51bc d0f3 7b3b cd99 b23c 6e77 b5bb
000000c0: 5e87 023d 6bf8 a0bc 3b65 b8bc 4b09 4f3d
000000d0: 668c e3bc ffd6 663c fb99 bfbb 1a94 7bbc
000000e0: d2a3 8cbc ae98 06bd 4112 303c a53a 553c
000000f0: 6718 40bd 3582 debc 516a 8abd 7493 68bc
00000100: 1095 f43c 5f91 03bb 2ade e3bc 42e2 993c
00000110: 850b 6b3c 8dfa 26bc bda2 583d 894f cbbc
00000120: b9d4 ad3c 5704 513c 81e7 e63c 7006 0e3d
00000130: c95a fc39 d066 d73b 7fb0 dc3c 3f63 1a3c
00000140: 2312 d23c 8c3e c83c 754c 523d 8ea8 1f3d
00000150: 7ec7 aa3c 12ed f13c 671a da3d 42f7 d83d
00000160: 7d81 6b39 8fe2 623c 4649 013d 8a21 ff3c
00000170: 2fff 773d 2c9a 963b 5a7a 133c 61bf 73bb
00000180: a324 9d3c bce7 283d b368 463c abfd 1e3c
00000190: f5e0 253c 12d1 9d3c 5bbb 33bd efce 48bd
000001a0: 0296 4cbb 041e a5bc 01c7 edbc 4c71 1a3d
000001b0: 5853 9c3b 0b7f 143b 4057 483c b3ab 223d
000001c0: 3b3f a23d eee5 b0bc 5c42 08bb 5ffd 3f3d
000001d0: d0d0 ff3c ac53 fa3c 505e 9a3b d048 003d
000001e0: ba2f 923c 7d7d a03d 4f9a d4bc 6bc1 7f3c
000001f0: d689 0e3d 50e8 acbc 114e 35bc a9a2 b4bb
00000200: 04be 36bd 38bf 63bc fc9c 46bd 01f7 2dbd
00000210: 88d8 9d3c 4574 e3bb e315 c53c 3d56 08bd
00000220: 0f37 2a3d 79e2 a33d ea5e 8dbc 872d cc3c
00000230: 7fef 3ebd 44ba 703d 777e b2bc ff7c bd3c
00000240: b3ac c13c 6917 af3b ff38 3f3b 38f1 e33c
00000250: 0e02 15bd 7ef7 89bb cba4 5d3c 992f fa3c
00000260: 74ef b1bc a948 30bd 363d 1d3d ad09 263c
00000270: c366 73bc ba70 353d 0ca5 113d 6ac0 85bc
00000280: a985 f83c 4e11 ddbd 97bf 093e 492a 103e
00000290: 7c9a 15bd 65c0 5f3d 8766 8ebd 5425 c7bc
000002a0: b415 533c 08d8 8abc 9811 733d 1ff5 d43c
000002b0: d926 1c3d 8236 273d 83df 183d 83f9 093b
000002c0: e476 2c3d b5f1 a33a 6454 24bc 4808 423d
000002d0: 8675 353d 10fc 0dbd 1c13 4d3d e870 163d
000002e0: efc6 18bd 18db 2f3d b0f0 d8bd ccf6 1c3e
000002f0: c65f 133e b8f0 60bc 11a4 043d fc50 8abd
00000300: 5c70 d8bc 7aae 293c 0b3a 23bc 41e5 c43c
00000310: 06fb 013d 7e19 303d 632d b83c 30cb 0e3d
00000320: ec02 2a3d 9b87 953d 8d19 1e3b a31f 99bc
00000330: 74a9 b33c a83f 6a3d a904 14bd 2ee1 e23d
00000340: 4530 733d d908 c2bb 6aa1 3c3d a800 d9bd
00000350: 41ae 473e 7f40 1e3e 21a4 c5bc 1fea b33d
00000360: d80b a5bd 43fe 633a 8b61 063d c663 d5bc
00000370: f98a e23b a826 e73c c911 1c3c 0caa 8b39
00000380: b439 1a3c efe4 303c 4c80 0b3b 1890 14ba
00000390: 8667 5bbc 1e99 e9b8 cde8 03bd 8986 abbb
000003a0: 7aa2 15bd 16c3 043d dcae bcbc d86e 0c3d
000003b0: 5329 4e3b 733b 14bb 5904 783c 0629 88ba
000003c0: 0e48 1bbd 510c a93c 68eb 52bb 603a 66bc
000003d0: afd8 1cbc 5437 0c3c 288e e7bc b553 303b
000003e0: 1c67 013a ba47 89bc c5f6 48bb a58e d23b
000003f0: 8b90 21bd c369 a2b9 9eaa 023a 448c e8bc
0.016327646 0.0069456412 -0.011689747 0.011940866 -0.018925091 -0.0033575767 0.023126148 0.0005876811
0.042411495 0.019467896 0.04243833 -0.009947586 -0.07514032 0.01236294 0.010942285 0.04116073
-0.016325122 -0.024531575 0.0011706525 0.0007603777 -0.011435377 -0.017169656 0.0064831395 0.014240571
-0.014595983 -0.0018697069 0.008933025 -0.013155738 0.013223592 0.003485303 0.011731053 0.007813473
0.0009119196 0.022534303 -0.00011330846 0.010637766 -0.002117486 -0.075170696 -0.002282908 0.007356157
0.030214109 -0.021936882 0.0085734 0.031365354 -0.012815041 0.0038444884 0.021801854 -0.005537919
0.031867377 -0.019649705 -0.022509208 0.05054597 -0.027776908 0.014089345 -0.0058472133 -0.015355134
-0.01716796 -0.03286045 0.01074654 0.01301447 -0.046898272 -0.027161697 -0.067585595 -0.014195312
0.029856235 -0.0020075662 -0.027815897 0.018784646 0.014346008 -0.010191572 0.052889574 -0.024818199
0.021219598 0.012757382 0.028186562 0.034674108 0.00048132826 0.0065735355 0.026939629 0.009423076
0.025643414 0.024443887 0.051342446 0.038979106 0.020847078 0.02953199 0.10649567 0.10594036
0.00022459585 0.013847961 0.03156402 0.031143922 0.060546096 0.0045960154 0.009001339 -0.0037192928
0.019182509 0.041236624 0.012109923 0.009704034 0.010124435 0.019264732 -0.043879848 -0.049025472
-0.0031217341 -0.020155914 -0.029025557 0.037705705 0.0047706775 0.0022658731 0.012227833 0.039714526
0.079222165 -0.021594014 -0.0020791506 0.046872493 0.0312275 0.030557476 0.00471095 0.03131944
0.017845023 0.07836435 -0.025952486 0.015610079 0.03479942 -0.021106869 -0.011065976 -0.0055125547
-0.044614807 -0.013900571 -0.048489556 -0.04247189 0.01926829 -0.0069413506 0.024058288 -0.03328537
0.041556414 0.080021806 -0.017257173 0.024924053 -0.04661512 0.058771387 -0.021788819 0.023130892
0.02364192 0.005343367 0.002917826 0.027824983 -0.036378913 -0.0042104116 0.013528059 0.030540274
-0.021720625 -0.043038044 0.038388453 0.010134143 -0.014856043 0.044296958 0.03555779 -0.016327102
0.030337172 -0.10794316 0.13451992 0.1407863 -0.03652428 0.05462684 -0.06953149 -0.024309792
0.012883592 -0.016948715 0.05934295 0.02599579 0.038122986 0.040823467 0.037322532 0.0021053262
0.04210557 0.0012507947 -0.010029886 0.04737118 0.044301532 -0.034664214 0.050067052 0.03672877
-0.037299093 0.042933553 -0.105927825 0.1532852 0.14392003 -0.013729267 0.03238303 -0.06753728
-0.026420765 0.01035654 -0.009962569 0.024035098 0.031733535 0.04299306 0.02248258 0.034861743
0.041506693 0.07301255 0.0024124116 -0.018691843 0.021931387 0.057189614 -0.036137257 0.11078106
0.059372205 -0.005921465 0.046052374 -0.10595828 0.19500066 0.15454291 -0.024126114 0.087848894
-0.080589 0.0008697251 0.032807868 -0.026048552 0.0069135395 0.028216675 0.009525725 0.0002663884
0.009413172 0.0107967695 0.0021286188 -0.00056672236 -0.013391381 -0.00011138826 -0.032204438 -0.0052345437
-0.036531903 0.03241261 -0.023032598 0.034285396 0.0031457737 -0.0022618442 0.015137755 -0.0010388202
-0.037910514 0.020635756 -0.003218377 -0.014052004 -0.009573146 0.008558113 -0.028266028 0.0026905362
0.0004936324 -0.016757835 -0.0030664664 0.006425696 -0.039444488 -0.00030977846 0.00049845304 -0.028387196

conv1.bias f4 [64]
00000000: a43d 013e 5516 1dbd ff40 4cbb 1ae9 86bc
00000010: 7883 133e a5d5 63bd 47d7 35bd c755 003e
00000020: 0a5e 0e3e 48f4 043e 75e5 93bc 2610 153e
00000030: ef21 f23d 595d f53e b291 133e 04f2 40bd
00000040: 73bf 85bd e92b 4abd a8d5 ee3d b217 033e
00000050: 9ec4 53bd bea9 003e 51b5 013e 3cb7 84bd
00000060: b720 8abd d266 cc3e 21d2 803e efc9 6d3e
00000070: 4e9f 013e 3caf b23e fb68 f63d ef35 3c3e
00000080: 70b9 63bd 869e a73e a4e5 ee3d 274e fd3d
00000090: 24e9 f63e 6e98 87bd 2e94 b33e 1ee6 31bd
000000a0: 3387 bebc bc53 263e aaeb b33e 1906 063e
000000b0: 0a3f 71bd 30fb 8cbd a484 6c3e c64d e7bc
000000c0: a2fe 063e 5d89 043e 106e 053e 280f 7bbd
000000d0: d239 82bd becd a23e bebb e03e 9266 79bd
000000e0: 4e73 6c3e 5940 d83d 3cc5 033e 2e6e 093e
000000f0: a60a d13d 588a 90bd 4b92 043e 4ba5 82bd
0.1262117 -0.038351376 -0.003116667 -0.016468573 0.1440562 -0.05562367 -0.044394758 0.12532721
0.1390306 0.12983811 -0.01805375 0.14556941 0.118228786 0.4792278 0.14411047 -0.047105804
-0.06530657 -0.049358282 0.116618454 0.12802008 -0.05170118 0.12564752 0.12666823 -0.06480262
-0.06744521 0.39922196 0.25160316 0.23221563 0.12658426 0.34899318 0.12031742 0.18379949
-0.05559677 0.3273813 0.11664894 0.12368422 0.48224747 -0.066208705 0.3507399 -0.043432347
-0.023257827 0.1624288 0.35140735 0.13088264 -0.05889801 -0.06883848 0.23097473 -0.028235327
0.13183072 0.12943025 0.13030267 -0.06129375 -0.063586846 0.31797594 0.43893236 -0.060888834
0.2309086 0.10559148 0.12868208 0.13420936 0.10207109 -0.07057637 0.12946431 -0.063791834

conv2.weight f4 [32, 64, 3, 3]
00000000: 340c 5abd d7f7 38bb 20b4 9a3c 82ff ccbc
00000010: 114d f43d f7a4 753d ed18 73bd 44f3 1d3d
00000020: 27ff 49bc c42d d8bb 6e44 ee3c 49f4 493a
00000030: 88ff 903c b43b a13c 504e 2c3b bfcc 89bc
00000040: f46d 7dbc 5c1f 963b 8e9d 65bd 3032 24bd
00000050: 4c5f 7f3d ae31 11be 2fc5 24be 8ffb 303b
00000060: 3f1b a9bd 75ad 0cbe 9e4b a5bc 491f 593d
00000070: 6149 a93b 1463 4f3c 4083 8f3c 0a1c 75bb
00000080: 0225 56bd 0f04 13bd fcda 793c 0e1a b03b
00000090: 6df1 373d e0b9 5c3d 829f 983c edb0 0d3d
000000a0: f085 8f3d 545c 313d 8d59 1a3d fac5 e63c
000000b0: 606f af3c c2b9 16bd 7d42 bfbc 729e 2cbd
000000c0: d78e 59bc 425f 0abd 40e9 363b f76a 2abd
000000d0: a9f2 41bd d3bc eabc ac42 ff3c 58dc 833c
000000e0: 12e9 733c 0416 3d3b 7b6a 82bb 1476 0abd
000000f0: ad37 ba3c d394 78bb fa2a cc3b b527 b23c
00000100: bfac d33c bfa3 afbd 1e21 803d 664a e23d
00000110: 18ea 873d 0732 9dbc 3552 25bd 61a8 debb
00000120: 727e 00be bbb6 9fbb cb6f b4bc 57d0 0cbd
00000130: 7b01 343e 1fcc 58bd 7a29 2dbd 1133 e6bc
00000140: 77d0 38bd 174d c83c 9b41 193e 1e0a a73d
00000150: 8385 d53d 8496 393e d7e4 8d3d f154 d23d
00000160: c76d 003e c41a 2d3c 23a0 b6bc 2eb4 943c
00000170: eebe 3f3c ed62 6b3c 0393 033c 1f1d 2a3d
00000180: 9dfb 0d3c 926c cdbc f34d b03c 6e6d 1c3e
00000190: c1ac 753e dbc1 ea3d c75e 823e 672c 6e3e
000001a0: b43c 1f3e 1619 4b3e 4f9b 1f3e 6889 143e
000001b0: 9946 cabd e610 f53c 6e47 febb a7b1 f6bc
000001c0: e4ad bc3d 7cfc 5e3c 2c08 acbd 0ad2 e73b
000001d0: 3196 bebd 8b59 ae3d 7291 ed3d af4e 013e
000001e0: fba5 a53d b10a f83d fa21 f13d 615c 923d
000001f0: 5a7a 003e 0ec4 f43d 7ba7 0f3e a8e2 1d3e
00000200: 9e2b fe3d f71a 233e d202 633e 8b7d c73d
00000210: 15d3 193e 1734 493e 5caf 113e 1575 143c
00000220: 8154 6a3c 03f0 0f3d adbd 43bc 94ee 1fbd
00000230: bed6 8ebb b930 173b 8597 85bc 19b8 c939
00000240: 762f 31bd 3afa 62bc 1299 26bd 410c c2bc
00000250: 27ec f3bc ee30 ebbc bfc6 b0bc 5396 83bc
00000260: 68ea 05bd bae8 4dbc ac77 ed3c 841f a638
00000270: d7b7 bbbc 916b 26bd 5911 adbc 3736 83bc
00000280: 3770 933c 4c5b 39bb d49a c4bd b074 10bd
00000290: d3d3 7bbd 3ac2 41bc 6b91 64bb 2044 77bd
000002a0: 4c66 95bd 1a84 bbbd 6ce4 50bd a1fc 4d3d
000002b0: 6dd8 813d a720 c13d ee23 4e3d d46e 353e
000002c0: 76e1 bf3d 7aa6 9ebc 863b db3d b90a 2e3d
000002d0: 15c6 553c db99 d5bb 07c5 d7bb d1c3 363d
000002e0: f873 a73c 7c33 e2bc cfa5 45bd 3f6b 3cbd
000002f0: b81c 7e3c 0660 923c 22c2 c83d 87b6 a4bc
00000300: 18a1 103e 2f67 2c3e ee90 ea3c ec26 483d
00000310: 0016 55bc ac77 33bc 0fba cebd 95ba 903c
00000320: 6655 96bd d8d8 26ba add5 2e3e 2232 ebbc
00000330: fbd9 04bd 02d2 883d 31df 9abd 1d9e 0cbc
00000340: 6d73 5bbd 66a0 db3b 6bd2 edbc e5f6 943b
00000350: c6a0 473c 24e7 3fbd 5660 ebbc 1783 22bd
00000360: fc10 9bbc 2d54 80bc 88cc 11bd f447 83bc
00000370: 6d52 e4bd 4678 01bd f6ac a1bd 6897 39bc
00000380: da67 94bd 7553 8e39 8b59 e33c 50a3 7f3c
00000390: 4119 a63d 8c35 7d3e 7622 8d3d 73e8 b83c
000003a0: 6488 503d 30be b5bc ae51 1a3d 4e93 dd3d
000003b0: e64b 4f3d 61c3 a63d 0b63 993d 6254 823d
000003c0: 8c33 983d b899 ab3c df77 953d 89ad 3bbe
000003d0: e314 7abd e077 97be 8812 cbbd e9ca 933c
000003e0: 40c2 9cbe 46ce 58be 6cde 9bbd fde1 98be
000003f0: dc1b 393d 68b2 dc3d f798 6ebc 1291 1b3c
-0.053234294 -0.0028223896 0.018884718 -0.02502418 0.11928762 0.059971776 -0.059349943 0.038562074
-0.012328899 -0.0065972526 0.029085364 0.0007703943 0.017699972 0.019681789 0.0026291795 -0.016821263
-0.015468109 0.004581375 -0.05605846 -0.040086925 0.06234674 -0.14179108 -0.16090845 0.002700541
-0.0825715 -0.13738044 -0.020177659 0.05300835 0.005166218 0.012657899 0.01751864 -0.0037400746
-0.052281387 -0.035892542 0.015249964 0.0053741997 0.044907976 0.0538882 0.018630747 0.034592558
0.070079684 0.04330094 0.03768306 0.028170574 0.021415412 -0.036798246 -0.023347134 -0.042143293
-0.013278685 -0.03378225 0.0027910024 -0.041605916 -0.04735056 -0.028654492 0.031159721 0.016096279
0.014887111 0.0028852234 -0.0039799786 -0.033804014 0.022731626 -0.0037930503 0.006230709 0.02174745
0.025839208 -0.08576154 0.062563166 0.110493466 0.06636447 -0.019188894 -0.0403616 -0.0067949747
-0.12548235 -0.004874078 -0.022025963 -0.034378376 0.1757869 -0.05292904 -0.042275883 -0.028100522
-0.045120683 0.024450822 0.14966433 0.081562266 0.10425856 0.18123823 0.06928413 0.102701075
0.12541877 0.010565463 -0.022293156 0.018152323 0.011703236 0.014366847 0.008030656 0.04153168
0.008665946 -0.025076184 0.021521544 0.15276119 0.23991682 0.11462756 0.25462934 0.23259126
0.155505 0.19833788 0.1558659 0.14505541 -0.09876747 0.029915284 -0.00775998 -0.030114008
0.092128545 0.013610002 -0.08399996 0.007074599 -0.093059905 0.08513173 0.11600007 0.12627672
0.08088299 0.12111414 0.11774059 0.07146526 0.12546673 0.11951457 0.14028732 0.15418494
0.12410663 0.15928255 0.22169045 0.09740742 0.15021928 0.19648777 0.1422705 0.009061118
0.014302374 0.035141002 -0.011947078 -0.039045885 -0.0043590954 0.0023069812 -0.016307602 0.0003847487
-0.043258153 -0.013853604 -0.040673323 -0.023687484 -0.029775692 -0.028709855 -0.021579145 -0.016062891
-0.03269425 -0.012567693 0.028987728 7.921367e-05 -0.02291481 -0.040629927 -0.021126436 -0.016017063
0.017997844 -0.0028283177 -0.095998436 -0.035267532 -0.06148131 -0.011826092 -0.0034876715 -0.060367703
-0.07294902 -0.09156056 -0.05099909 0.050289754 0.06340108 0.09430056 0.050327234 0.17718059
0.09369175 -0.019366492 0.107047126 0.042490695 0.013047715 -0.006518585 -0.006584767 0.04462034
0.02044104 -0.02761244 -0.04825383 -0.046000715 0.015509777 0.017868053 0.09802653 -0.020106567
0.14123952 0.16836236 0.028633561 0.048865244 -0.0130057335 -0.010953825 -0.100940816 0.017667094
-0.07340507 -0.00063647097 0.17073698 -0.028710429 -0.032434445 0.06680681 -0.07562102 -0.008582619
-0.053576875 0.0067024706 -0.029031 0.0045460337 0.0121843275 -0.046851292 -0.02873246 -0.0396758
-0.018928997 -0.015665138 -0.035595447 -0.01602552 -0.11148534 -0.031608842 -0.07894318 -0.011327602
-0.072463706 0.0002714653 0.027752658 0.015602902 0.081102856 0.24727458 0.068913385 0.022571778
0.050911322 -0.022185415 0.037675552 0.10819112 0.05060949 0.08142734 0.07489594 0.06363751
0.07431707 0.020947322 0.07298254 -0.18327917 -0.061055075 -0.29583645 -0.09915644 0.018041091
-0.3061695 -0.21172437 -0.07610783 -0.29859915 0.045192584 0.10776216 -0.014562837 0.009495037

conv2.bias f4 [32]
00000000: 65f4 bb3d 76b5 67bd 6789 f83d cbc0 47bd
00000010: 00bd be3d eab1 ef3d cd87 93bd 6d96 f73d
00000020: b011 f13d be12 263e 0ce7 e93d 32b3 94bd
00000030: c1d2 8bbd 62ad 8ebd 697a 69bd fef3 14bc
00000040: c1e3 66bb f6e0 ef3d a819 9dbd 3dbf 64bd
00000050: 5aef dd3d b278 a23c d185 003e a43a f83d
00000060: e521 8ebd cc8b c43d 41cf 53bd b57d 413e
00000070: 6a52 3f3e 0ad4 f13d b701 e2bc 5863 fa3d
0.09177474 -0.05656954 0.121355824 -0.048767846 0.09313393 0.11703856 -0.07203636 0.12089238
0.11770952 0.16218087 0.11421022 -0.07260741 -0.068273075 -0.06966664 -0.057001505 -0.009091375
-0.0035230967 0.1171283 -0.07670909 -0.05584644 0.10836668 0.019832943 0.12551047 0.1212056
-0.069400586 0.09596977 -0.051711325 0.1889561 0.18683782 0.11808021 -0.027588708 0.122259796

conv3.weight f4 [12, 32, 3, 3]
00000000: 05dc ea3c fa05 af3d a4f7 583d e81d a53d
00000010: 44bd 9d3d bc6f a93d abd0 a13c dd14 133d
00000020: 8889 6b3d ea1b c2bc 9dd0 ebbb b71a 063d
00000030: a0e2 a63c 047f fb3b 117b a43c a4b4 77bc
00000040: 7894 f03b 0563 943c 3b0d b33d 865d 103e
00000050: 016e 913d 9b0a 1d3e dd9d 503e 86a9 c93d
00000060: f46b 293d afc8 a13d 9b4b 993d 040c 11bd
00000070: 5b3f 81bd c179 79bd 7b54 2ebd 5c47 44bd
00000080: 9fcb 613d 6c6e 683b 941a 1d3c 574f 653c
00000090: 6c9c 893d 0afa a7bd 17b1 81be c63c d43d
000000a0: 53d3 20bc 8ce9 b5bd 3585 3cbd 4a24 82bc
000000b0: 2224 7ebd 7aec d73d b8e6 fb3d 5ab5 973d
000000c0: 9045 1f3e 80a4 6b3e 78b5 8b3d 34f5 1a3d
000000d0: a4e1 f53d c436 4c3d 1c1b 07bc 3546 f9bc
000000e0: 5dde 973b a25c bc3c e915 223c 85db 23bc
000000f0: b75b d0bb 5408 583c 3f37 093d 0f84 ae3d
00000100: b36a ee3d f641 433d d7c4 2b3e 84b1 353e
00000110: 4859 813d eb05 323d b36a 853d 668a 603d
00000120: 4473 f53d fc40 ee3d c542 ba3d 8d0e 343e
00000130: 77d2 2e3e 1b5c a63d f124 dd3c 0a78 9b3d
00000140: 80ed 813d a6b6 1a3d f5fc 933d 47a4 b33a
00000150: 672c 323d 1720 db3d 633b 973d e265 263d
00000160: 540d 833d 4449 513c aabf 423d 5d9b 223e
00000170: a7d5 253d 8df3 093e 9b91 4b3e 8484 043e
00000180: 2f70 683d c23f 3f3d 82c3 f23c 0d76 9cbb
00000190: 817f 48bd 70ed 003d 2bd4 63bd 089d b5bc
000001a0: 6c27 243d 51ee 553c dea4 c53b 3fb2 65bc
000001b0: 8d5d cbbc a886 1dbd 40f2 e93c 60e8 2abd
000001c0: b8b8 d5bc 284b 7c3c 6873 00bd 2db6 aebc
000001d0: 1729 c2bc d8cd 97bc 639a 73bb c5a3 eb3c
000001e0: 3f0e f6bc 1324 1f3d 9685 4a3c 27ab 28bd
000001f0: faf7 acbb 6644 0d3d 16eb fe3c 67f8 0ebc
00000200: 13e6 613c 08a8 fd3b 5901 d03a 125e 033d
00000210: 872a 5e3d 3efc a03c 0cdd 4a3c 84e1 053c
00000220: 7856 1b3b 6aad 983c 9ff8 a0bc 2d0f 1bbc
00000230: 3c37 143d 6ad3 d3bc 547a 0abc 042c 0b3d
00000240: 7ff8 613a 65f6 9d3c ad35 5ab9 1aa4 323b
00000250: a73e 313c f2b8 cbbc ce1d aebc 8667 4e3d
00000260: 5df5 123c c96d ad3d 07e5 0c3e 6b57 e53d
00000270: 1d58 143e b253 093e 7604 bd3d f0ca 213d
00000280: 4ee9 8c3d e77a 483d 2ae6 febc 2fdd e6bc
00000290: aceb 2f3d 810b 50bb ffd7 383c 9a3d 113d
000002a0: 883d e6bc 6be4 88bc 46c4 04bd 8992 09bd
000002b0: b777 703c a3fd ab3c a6d7 e93c db1c bbbc
000002c0: 148e 8c3c 956d eb3b cfe0 ab3b 9a35 fd3c
000002d0: c558 6d3d d001 f13d 6231 863d 0744 c93d
000002e0: 2de8 eb3d 87f4 303d 928a 1a3d c402 7b3d
000002f0: b0a7 923d be41 0d3e 1acd ba3d 45a9 2a3c
00000300: d38e 763d f02a 1fbe a0d5 f5bd d695 753d
00000310: 6441 0bbe fe9c efbc 9084 713d c981 b13d
00000320: 8a73 71bc db3d 1f3e 10ce 473e ea29 5f3d
00000330: 3527 df3b 6f09 6d3d 4403 053d c180 a13d
00000340: b7d6 083e 3d5d 833d c683 ec3d d4a2 4e3e
00000350: 4139 173d 1c10 933d 66c4 963d 6aad 8bbc
00000360: 4563 37bd 1aa3 f2bc 9567 3fbb e641 0d3c
00000370: a9a2 1ebd 49cb 153d 3667 9abc 0eb1 47bc
00000380: 6bef 183c 8ac8 183d 3a0c 99be b326 2fbc
00000390: 20f6 9d3d f244 e6bd c19e b1bb b1bc 193e
000003a0: f604 1b3e 38f6 6f3d e3c1 f7bc 5445 903c
000003b0: abd3 2b3c 0829 87bc ae0a 133d b39a 133d
000003c0: 670e 113d 4cf3 193d 2292 213a 03d8 453c
000003d0: 6fd9 453d 9faa 613d 169b 923d 838e d43d
000003e0: 6d58 773d 7edd 8c3b efba 563c 41c3 2c3d
000003f0: f5f8 f2bd b6a6 be3e 42df 1bbe 1a96 973e
0.028669367 0.08546062 0.052970544 0.08062345 0.07702115 0.08273265 0.019752821 0.03590857
0.057504207 -0.023694951 -0.0071964995 0.03274032 0.020371735 0.0076750536 0.020078214 -0.015118752
0.0073419176 0.018113622 0.08742758 0.14098176 0.0710106 0.15336077 0.2037272 0.09846787
0.041362718 0.078996055 0.07485124 -0.03541185 -0.06310912 -0.06090713 -0.042561036 -0.047919616
0.05512583 0.0035466207 0.009588856 0.013995967 0.06719288 -0.08201988 -0.2533042 0.10363154
-0.009816009 -0.08882436 -0.046025474 -0.015886445 -0.062046178 0.10543151 0.122998655 0.07407637
0.1555388 0.2301197 0.06821722 0.0378315 0.12005928 0.049856916 -0.0082462095 -0.030428985
0.004634662 0.02299339 0.009892919 -0.010001068 -0.0063585895 0.013185579 0.033499952 0.08521282
0.11641445 0.047670327 0.16774307 0.17743498 0.06315857 0.043462675 0.06514492 0.054819487
0.11984876 0.116334885 0.090947665 0.17583676 0.17072473 0.081230365 0.026995154 0.07591255
0.06344128 0.037771843 0.07225982 0.0013705575 0.043499377 0.1069948 0.07384374 0.040624507
0.063990265 0.012773816 0.047546066 0.15879579 0.040486958 0.13471813 0.19879763 0.12941176
0.05674761 0.046691664 0.029634241 -0.004774815 -0.048949722 0.031476438 -0.05562226 -0.022169605
0.040076658 0.013057307 0.0060316166 -0.014019548 -0.024824882 -0.038458496 0.028557897 -0.041725516
-0.026089057 0.015398778 -0.03136006 -0.021327103 -0.023701234 -0.018530771 -0.003717088 0.028764615
-0.03003609 0.038852762 0.012360951 -0.04117885 -0.0052785845 0.034489058 0.031117957 -0.008726216
0.013787764 0.007740978 0.0015869542 0.032072134 0.054239776 0.019651528 0.012381803 0.008171443
0.0023702662 0.018637378 -0.019649802 -0.009464067 0.036185488 -0.025857646 -0.008452017 0.033977523
0.00086200977 0.01928253 -0.00020810096 0.0027258457 0.01081816 -0.024868462 -0.021254446 0.050391696
0.008969632 0.084682055 0.13759242 0.11198314 0.14486738 0.13410833 0.092293665 0.039500177
0.06880437 0.048945334 -0.03111561 -0.02818164 0.042949364 -0.0031745138 0.011281966 0.03545914
-0.028105512 -0.01671048 -0.032413743 -0.033587012 0.01467698 0.020994967 0.028545212 -0.022840908
0.017157592 0.007184694 0.005245305 0.030909348 0.057945985 0.11767924 0.06552388 0.09827428
0.115188934 0.04320195 0.037729807 0.061281934 0.0716089 0.1379461 0.09121151 0.010416334
0.0601948 -0.15543723 -0.12003636 0.059957348 -0.13599163 -0.029249664 0.058964312 0.08667333
-0.014737019 0.1555094 0.195122 0.05448333 0.0068100938 0.057870325 0.032473817 0.07885886
0.13363157 0.06414268 0.11548571 0.20179302 0.036919836 0.07180807 0.07361679 -0.017050464
-0.044772405 -0.029618789 -0.0029206027 0.008621668 -0.038729344 0.03657082 -0.018848043 -0.012188209
0.009334425 0.037300624 -0.2989214 -0.010690379 0.0771296 -0.11243619 -0.0054205363 0.15013386
0.15138611 0.058584422 -0.03024382 0.017611183 0.010487477 -0.016499057 0.035898857 0.036036205
0.035414126 0.03758554 0.0006163438 0.012075427 0.048303064 0.055094358 0.071584865 0.103787445
0.060387064 0.004298865 0.013106092 0.042178396 -0.11863891 0.37236565 -0.15221885 0.29606706

conv3.bias f4 [12]
00000000: 5f7b 9e3d a5cd f33d ac16 933d a77e 8f3d
00000010: d67f f9bd 6d42 9bbd 07ee fabd c51a 12be
00000020: ca81 94bd 4f38 07be fdac a4bd 757d f2bd
0.07738375 0.11904458 0.07182059 0.07006579 -0.12182586 -0.07581029 -0.12252431 -0.14268024
-0.07251318 -0.13205074 -0.080408074 -0.11840335

conv4.weight f4 [3, 3, 1, 1]
00000000: 6dbd bebd 3f43 863d 247d 8d3d 2934 d8bd
00000010: ad12 6c3d 054f 7d3d 2048 03be d7ac 543d
00000020: 015e 6a3d
-0.09313474 0.06555795 0.06908634 -0.10556824 0.057634998 0.061842937 -0.12820482 0.051922645
0.057218555

conv4.bias f4 [3]
00000000: aa62 75bf 9a8c eb3b b2fe 5c3f
-0.95853674 0.007188392 0.86326134
