SRCNN_ONNX.onnx (onnx, 81149 bytes, 6 tensors)

conv1.weight f4 [64, 3, 9, 9]
000000 64 9f 31 3c 8d d5 90 bc 4c 4d be bc 04 d6 e6 bc
       0.010841224 -0.017679954 -0.023230217 -0.028178222
000010 82 01 82 3c 1d d3 0f 3b 0e 94 e8 bb 10 dd 86 3c
       0.01586986 0.0021945902 -0.0070977276 0.016462833
000020 d0 3c cd bc df 5a 37 bd aa 66 33 bd c8 31 3b 3b
       -0.025053412 -0.044764396 -0.04379908 0.0028563607
000030 9c d7 15 bd cd 26 2f 3c 0f 81 ac 3c ee 28 31 3c
       -0.036582574 0.010690403 0.021057634 0.010812981
000040 b3 57 e9 3c 4b 8b 0d bd 4b ea 12 bc 1f da 66 bc
       0.028484201 -0.03455667 -0.008966993 -0.01409009
000050 40 ca d5 3c 1f fb 03 3d 39 c0 aa 3c a7 ff 11 3d
       0.026097417 0.03222191 0.020843612 0.0356442
000060 8e 6c 48 bc f0 e5 87 bc 47 bd 65 bc 70 02 98 3c
       -0.012232913 -0.016589135 -0.014022178 0.01855585
000070 15 c4 b2 3a 85 86 62 3c 60 4d 19 3d 6f 5d 09 3d
       0.0013638759 0.013826017 0.037427306 0.03353637
000080 74 93 ff 3b 77 34 6d 3c 71 78 d2 3c 6c 93 a9 bb
       0.00779956 0.014477841 0.025692197 -0.0051750448
000090 67 be 40 bb 21 b2 31 3b ad fd 67 3c 03 74 a1 3d
       -0.0029410364 0.002711423 0.014159602 0.078834556
0000a0 eb a3 12 3d 57 e5 17 bd b2 84 6a 3c d6 71 bb 3c
       0.035800856 -0.03708395 0.014313864 0.02288143
0000b0 1a 37 b5 ba a5 ac de 3c ec af 23 3b 55 f4 1e 3c
       -0.0013825626 0.027181933 0.0024976684 0.009701808
0000c0 57 00 6a 3d 9a e8 a3 3c 3e 45 8f bc c4 b9 d6 3c
       0.05712923 0.020008374 -0.017489072 0.026211627
0000d0 fe 60 bd 3c 89 da 3c bc 71 29 f7 b9 90 ca 99 ba
       0.023117539 -0.011526712 -0.00047142387 -0.0011733342
0000e0 94 2f 9f bb 0a c9 33 3b a1 c3 e7 3c df 54 16 3b
       -0.0048579667 0.002743306 0.028291525 0.002293877
0000f0 f2 70 a7 3c ca 8c 0c bc eb 0b d0 bb ae e5 c5 bc
       0.020439599 -0.008578489 -0.006349077 -0.024157371
000100 cc 4f 89 3c 38 a7 73 bb eb 50 cc bb 04 22 5c 37
       0.016761683 -0.0037178528 -0.006235232 1.3120942e-05
000110 c9 df 82 3c 82 bf 4c bc d5 d7 09 3b b7 b4 ce 3c
       0.01597585 -0.012496831 0.0021033187 0.025232656
000120 10 89 35 bd dd 42 94 bc 18 40 56 bc 2c 53 d4 bb
       -0.044320166 -0.01809829 -0.013076805 -0.0064796414
000130 3d b7 09 3c 46 fe 60 3c f8 7d f2 3b 97 d3 50 bc
       0.008405504 0.0137324985 0.0074002706 -0.012745759
000140 7f 32 13 3d cb a7 d1 3c 7b 7e b0 bc 5b 37 70 3c
       0.03593683 0.025592705 -0.021544686 0.014661635
000150 b6 e6 ae 3c 7a d6 b5 ba c3 89 30 3c 01 61 de bb
       0.021350246 -0.0013873123 0.010775032 -0.006786466
000160 07 48 31 3c fc d0 72 bc 6d 82 9f bb 1d 46 84 b8
       0.010820395 -0.014820334 -0.004867843 -6.30731e-05
000170 02 59 33 bc f4 9c 94 bd 49 ac 0f bc d0 93 ab bc
       -0.010946514 -0.07256499 -0.008769103 -0.020944506
000180 6c 70 3b 3b d5 3c 6e 3b 14 ad c2 3c 40 05 63 bc
       0.0028600944 0.0036352177 0.02376417 -0.013856232
000190 24 84 84 3c c6 b8 3c bc df 7f b9 3c 35 23 cc bc
       0.01617629 -0.011518663 0.022643982 -0.024919132
0001a0 67 1b b5 ba 14 f4 17 3c 02 07 01 3c fa ed d7 bb
       -0.0013817371 0.009274501 0.007875206 -0.0065896483
0001b0 5b 7c 4d 3a 48 40 e8 ba e9 37 94 bc dc 98 e1 3c
       0.000783866 -0.0017719353 -0.018093066 0.02753871
0001c0 98 2f 18 3c b6 a5 ba bc 83 81 e7 bc 0d 41 c2 bc
       0.009288691 -0.022784095 -0.028259998 -0.02371266
0001d0 0c 4b 92 3c 79 da b2 bc fd 7d 88 3b 8b dc f6 3b
       0.01785805 -0.021832692 0.0041654096 0.007533615
0001e0 33 d3 a8 3c e7 08 6e bc 4a 8f 89 ba e8 0b 2e bd
       0.02060852 -0.01452849 -0.0010494974 -0.042491823
0001f0 07 5a 40 38 dd 79 22 bc e3 05 03 3b df 4b f4 39
       4.586021e-05 -0.00991675 0.0019992522 0.00046595835
000200 04 2b 0e bb f3 37 ef bc 1a 7a 78 bd b2 99 31 bd
       -0.002169312 -0.029201483 -0.06066332 -0.043359466
000210 59 db fc bb d2 47 74 3c 04 0f 46 3a 63 93 3d 3d
       -0.007716578 0.014909701 0.0007555338 0.046283137
000220 8e 92 01 3c b8 5a b9 bc 49 00 dd bc fe d6 37 bd
       0.0079084765 -0.022626266 -0.026977675 -0.044882767
000230 e1 eb 0b bd b3 3a 10 3a 13 c4 8b bc 46 48 56 3d
       -0.0341605 0.0005501911 -0.017061269 0.05231502
000240 2a fb 53 3c 61 f3 ab 3c 38 ed 38 3b fc 32 e3 3c
       0.0129383 0.020990076 0.0028217565 0.027734272
000250 58 ef f6 b9 b5 aa 38 3d 9a d2 4f 3c 21 eb db 3c
       -0.000470991 0.045084674 0.012684489 0.026845517
000260 21 ab a5 3c 8c 1f 30 bc ff 40 59 3c db f2 a4 3b
       0.020223202 -0.010749709 0.013260125 0.0050338334
000270 ef a3 9e 3c 5e 68 5e 3d 9c 27 1e bc 7a 8e 83 39
       0.019365279 0.05429875 -0.009652998 0.0002509242
000280 a9 21 60 bc 34 60 7a 3d 1c cd d5 bc 54 5d b0 3c
       -0.0136799 0.061126903 -0.02609878 0.021528877
000290 06 16 48 3c 47 90 b2 bc 62 1c a4 3b f7 f5 e7 bc
       0.012212282 -0.021797312 0.0050082663 -0.028315527
0002a0 27 9b b3 3c 2d 03 e1 3c 34 66 28 3c 75 82 94 bc
       0.021924568 0.027467335 0.010278273 -0.018128613
0002b0 72 cc ee 3c 09 d1 dc 3b 3e 48 15 bd d2 a6 28 3d
       0.029150221 0.006738786 -0.03644585 0.041174717
0002c0 64 d0 be bc d2 a8 01 3d b4 84 00 3d 7a d0 39 3c
       -0.023292728 0.03165514 0.031376556 0.011341209
0002d0 76 75 90 3c ee 3e dc 3c 06 1d 11 39 89 08 02 3d
       0.017634135 0.026885476 0.0001383909 0.03174642
0002e0 f8 9b 84 3b eb 28 dd bb 09 12 f1 3c dd 61 2a bc
       0.0040469132 -0.0067492626 0.029427545 -0.010399309
0002f0 de 33 b1 bb 25 5b 49 bb 2f 3b 30 bc 09 b4 b4 3c
       -0.0054077944 -0.0030724492 -0.010756298 0.022058504
000300 3b df a1 3c 0a 5e 9e bb 92 40 c2 bc 21 d7 2b bc
       0.019759765 -0.0048329877 -0.02371243 -0.010488302
000310 8c f6 26 3d e6 f2 0f 3d f9 ff f5 3a 28 00 6e 3c
       0.04076247 0.035143755 0.0018768302 0.014526404
000320 de 08 7f 3c ea be 3f 3c 3f 01 8d 3b 68 66 8d bd
       0.015566079 0.011703232 0.004303127 -0.06904298
000330 00 c1 53 bd cb 75 c0 bb ba 56 0a 3d a6 c8 f4 3b
       -0.05169773 -0.005873417 0.033774115 0.007470208
000340 e9 4d e5 3c 55 a7 02 3c 60 93 db bc 44 27 95 bd
       0.027991252 0.007974465 -0.026803672 -0.0728288
000350 c4 5d 58 bc 9b 6c 97 3c 21 26 68 bb c0 58 df 3c
       -0.013205949 0.018484404 -0.0035423117 0.027263999
000360 5e 65 d5 3c 7e c2 47 3c f2 bc 8c ba 01 03 a0 bc
       0.026049312 0.012192367 -0.0010737462 -0.019532682
000370 68 9c f1 bc f4 2f 9d bc 0f e0 dd 3b c0 75 24 3c
       -0.029493526 -0.019187905 0.0067710946 0.010037839
000380 c6 a0 98 bb cc 2e bd ba d5 ec 8c 3c 86 0d 97 3c
       -0.0046578376 -0.0014433502 0.017202774 0.018439066
000390 fb 4d d8 3b 18 99 7c ba 6a 5e 57 3c 67 a7 65 3d
       0.006601093 -0.000963585 0.013145069 0.05606785
0003a0 10 ce 67 3b 4c 07 db 3b 09 d9 1b 3d 75 f3 03 bd
       0.0035370626 0.0066842195 0.038048778 -0.0322146
0003b0 58 47 90 3c 02 6f 25 3c f6 8c d8 3b ea 9d d2 3c
       0.017612144 0.010097267 0.0066086007 0.025710065
0003c0 27 c9 a5 3b c4 1f b7 3c 71 74 b2 3c 65 24 bd bc
       0.0050593796 0.022354014 0.02178404 -0.023088643
0003d0 51 09 ef 3c 72 41 76 3c 31 73 22 3c f3 79 92 3b
       0.029179247 0.015030252 0.009915159 0.004470104
0003e0 d3 80 57 bc 71 09 09 3d fa d2 99 bc 63 b4 53 bd
       -0.013153273 0.03345627 -0.01877736 -0.051685702
0003f0 6f 4c 30 3d be 21 97 3c 04 00 eb 3c 44 15 5d 3c
       0.043041643 0.018448707 0.02868653 0.01349384

conv1.bias f4 [64]
000000 a3 85 24 3b 7f d5 0e 3c 45 4d 52 3d 4f ac b8 3b
       0.0025104068 0.008717894 0.05134322 0.005635775
000010 db 9e 8b 3b bd d5 53 3c 81 e3 b7 3b ad d1 0d 3c
       0.0042608804 0.012929377 0.0056118374 0.008655948
000020 89 4d 14 3d 14 93 b3 3b a7 f1 95 b9 05 27 49 3c
       0.036206756 0.0054801796 -0.0002859954 0.012277369
000030 c3 1c 1d 3c 7d 14 90 3c 94 69 6e bb 12 d5 c0 3c
       0.009589377 0.017587895 -0.0036378847 0.0235391
000040 85 fe b3 3c 7e 0f 94 3b 0b 5f f8 b9 ea ef 9c 3c
       0.02197195 0.0045184484 -0.0004737306 0.019157369
000050 27 df 92 3c 36 9f 68 3c 1b 44 be 3c 62 83 81 3c
       0.017928673 0.014198115 0.023225835 0.015809719
000060 b6 21 7c 3c 78 d1 00 3d d7 a0 9d 3b e2 e5 62 3b
       0.015388897 0.031449765 0.0048104334 0.0034621884
000070 45 a2 0c 3b 77 a3 ca 3c 82 ae 4b 3c af 34 1e 3c
       0.0021459025 0.02473615 0.012431743 0.009656115
000080 4a 81 5d 3c 48 f3 38 3c 6c 85 96 3c ec 15 99 3c
       0.013519594 0.0112884715 0.018374167 0.018687211
000090 3a 0b 23 3b 11 db ed 3b 82 54 91 3c 59 ea 69 3c
       0.0024878518 0.0072587808 0.017740492 0.014277064
0000a0 26 6d 9c 3c 98 a8 48 3c 0a 2d 04 3c b4 66 c6 3b
       0.019095015 0.012247227 0.008067379 0.0060547236
0000b0 d9 83 b9 3d 4b c4 b1 3c 55 a3 d0 3b f1 d4 cb 3c
       0.09058351 0.021700045 0.006367127 0.024881812
0000c0 55 cb 49 3c c4 4c 3f 3c 77 64 85 3c 83 b5 5d 3c
       0.012316545 0.011676017 0.016283257 0.013532045
0000d0 b1 67 04 3d 8b 81 db 3b 4d 46 f7 3b 34 63 ad ba
       0.03232545 0.0066987923 0.0075462223 -0.0013228417
0000e0 a5 bf fe 3c d1 19 60 3b 1b 58 b7 3c 62 77 3f 3c
       0.031097243 0.0034195075 0.02238088 0.011686178
0000f0 6d c4 b0 3c 49 c1 5e 3c 17 77 39 3b 2a 56 99 3c
       0.021578038 0.013595887 0.0028299743 0.018717844

conv2.weight f4 [32, 64, 1, 1]
000000 83 c2 02 3d f5 62 f8 3c f5 d7 59 3d 50 3d f0 3b
       0.031923782 0.030320624 0.05318447 0.007331528
000010 a7 21 6d bb 02 2f f9 3c 84 29 91 3c 80 eb 78 3c
       -0.0036183388 0.030417923 0.017719992 0.015192866
000020 fb fa df bc 88 70 2c 3d 45 f1 a6 3c 44 ea ae bb
       -0.027341357 0.042099506 0.020378718 -0.005337985
000030 50 e7 74 3b 64 ec 6f bb e2 54 17 bd 69 ac fc bc
       0.0037369318 -0.0036609406 -0.036946185 -0.03084393
000040 12 40 0f 3c 60 93 df 3b ac 14 01 3c 76 2a 3e bc
       0.008743303 0.0068229884 0.007878464 -0.011606803
000050 22 f7 c1 3c 68 94 62 3b de 35 db 3c 02 a8 e6 bc
       0.023677412 0.003457332 0.026759084 -0.028156284
000060 48 5f 62 3d ca d0 90 3c 59 bc da 3c 6b 60 2e 3d
       0.05526665 0.017677683 0.02670114 0.04257242
000070 55 bd 24 3d d8 41 7b bd 55 35 bf bc 94 e6 9a 3c
       0.040219624 -0.06134209 -0.02334086 0.018908776
000080 4c 1a 9c bc 26 ff 9d 3d cd c3 1e bc 55 7f 4f bc
       -0.019055508 0.07714681 -0.009690237 -0.012664636
000090 33 1d de 3c 48 97 b1 3c 76 d1 41 bc 51 d5 bd 3b
       0.027113533 0.021678582 -0.011829725 0.0057932516
0000a0 07 c1 a9 bb d8 d0 74 3c fe a8 8c 3c 65 10 8e bc
       -0.0051804814 0.01494237 0.017170426 -0.017341802
0000b0 58 dc 21 bd 72 09 9d 38 49 12 59 3c 03 4b a1 bc
       -0.039516777 7.488103e-05 0.013248988 -0.019689089
0000c0 10 46 e5 3a 2d 41 44 3c 2e 80 05 3d 42 99 7e bc
       0.0017492194 0.01197843 0.032592945 -0.015539469
0000d0 0e 4b f9 bb c7 03 02 3d 5a 4b 23 3d ba 18 40 3d
       -0.007607824 0.031741884 0.039866783 0.04689858
0000e0 39 60 40 bc ff a5 d7 3c 3e 6a 3c bc 0c 69 7f 3d
       -0.011741691 0.02632427 -0.0114999395 0.06235604
0000f0 fc 14 a3 b9 3e 2e 83 3b 46 ee 76 3c aa 2d 25 bb
       -0.00031105417 0.004003315 0.015071457 -0.002520422
000100 7e bc f0 b9 58 5f 18 39 e6 de 33 bd 98 70 23 3c
       -0.00045916805 0.00014531368 -0.043913744 0.009975575
000110 ac f2 fb bb 35 72 d5 3b 59 3b 2b 3d 8c c0 b7 3c
       -0.007688841 0.0065138587 0.041804645 0.02243068
000120 9d 63 13 3d fe e2 75 bd f7 53 87 3c 6c 24 46 bc
       0.03598367 -0.06003093 0.01651953 -0.012093645
000130 a3 3c f4 bc c9 f9 70 3c 86 a0 96 3d 1f 21 ae 3c
       -0.02981407 0.014707991 0.07354836 0.021256028
000140 32 7d 25 bc 49 8a d0 3c 78 69 17 bc d3 dc be 3c
       -0.01010065 0.025456565 -0.009241454 0.023298657
000150 4d de 9f bc 75 b9 6f 3c 80 92 56 3c 31 47 2e 3d
       -0.019515181 0.014631619 0.013096452 0.042548362
000160 8c c7 8d ba e4 92 ed 3b 3f 16 15 3c 4c 61 70 bc
       -0.0010816916 0.0072501767 0.009099542 -0.014671635
000170 8d 6a dc bb 93 6e f9 3c 72 79 18 bc fa 0d 8e 3c
       -0.006726569 0.030448234 -0.009306299 0.017340649
000180 5f cf a9 3d a0 ec e6 3b e2 fb 1f 3d d2 bc 8c 3c
       0.08291506 0.007047251 0.039058574 0.01717988
000190 af 70 83 3c 51 86 0a bd 05 6f 13 3c e3 43 c8 3d
       0.016044943 -0.0338195 0.008998637 0.09778573
0001a0 6c 7e 84 bc cd 4f ac bc 87 58 44 bd e8 55 7d bc
       -0.016173564 -0.021034146 -0.04793599 -0.015462376
0001b0 2d a7 bb 3d db fe 8c 3c 1f 64 8c bc b7 33 7d 3d
       0.091627456 0.017211368 -0.017137585 0.061816897
0001c0 bf bc 39 3c 95 80 9d 3c 1a 3b 73 3c 53 38 cb 3c
       0.0113365045 0.019226352 0.014845634 0.02480713
0001d0 5b 04 28 bc 69 00 f5 bb 96 79 1c bd d8 d2 25 3b
       -0.010254945 -0.0074768555 -0.03820189 0.0025302675
0001e0 3c 70 e8 3d 6a 52 76 bc b5 5b 74 bb d8 1e f3 bb
       0.11349532 -0.0150342975 -0.0037286107 -0.0074194483
0001f0 30 8a ff 3b 2a 04 62 3c 40 85 af bc 14 e3 92 bb
       0.0077984557 0.013794938 -0.021425843 -0.004482636
000200 41 46 a4 3b 11 d4 d8 3c 19 73 0f 3d cf 52 d1 bc
       0.0050132577 0.026468309 0.035021875 -0.025552182
000210 33 1d 56 bd 3e 92 4e 3c 92 90 89 3c 9a 98 09 3d
       -0.05227394 0.012608109 0.01679257 0.033592798
000220 74 4f e7 3d fb 64 df 3d 3c 22 dc 3d 6e 4b c8 bb
       0.11294451 0.10907932 0.10748717 -0.0061125075
000230 c6 55 f1 bc d5 34 28 bd 43 65 9e bd 6d d9 bc bb
       -0.029459845 -0.04106601 -0.07734158 -0.005763224
000240 b6 59 ca 3c d3 bf 10 3d f7 9c 86 3d 86 00 a2 3c
       0.02470098 0.035339188 0.065729074 0.01977564
000250 33 84 12 3d 49 c8 ad 3c db 88 b1 3d 29 6f 02 bd
       0.035770606 0.021213667 0.08668681 -0.03184429
000260 21 c1 0d 39 b5 6f c4 3d 53 b6 42 bb 61 db 77 bc
       0.00013518754 0.09591619 -0.0029710724 -0.015127988
000270 b1 fc 59 3d a4 ac d0 3c b0 70 ff 3c 81 25 54 3c
       0.0532195 0.025472946 0.031181663 0.012948395
000280 ce 6d 4d 3c 1b ed 3a 3c 79 56 b7 3c 7f 25 1f 3d
       0.0125383865 0.011409069 0.0223801 0.03885412
000290 ee 87 0b bd d4 a9 92 3d e7 64 bd 3c 19 a2 c8 bd
       -0.03406518 0.071612984 0.023119403 -0.09796543
0002a0 64 b2 37 3d 49 b1 1e 3c fb fe 40 3c 1e 8a 1f bd
       0.04484786 0.009685823 0.011779542 -0.03895008
0002b0 cd 81 4d be 72 cc af 3d 43 2c 80 3c a0 98 7e bb
       -0.20069046 0.08583917 0.015646106 -0.0038848296
0002c0 34 db d2 bc 01 89 97 3c 71 98 f5 3c 1a c0 84 3b
       -0.02573929 0.018497946 0.029979916 0.0040512206
0002d0 77 0a 0f 3d e0 e2 3f 3c 38 76 02 3d 2d fb c6 3d
       0.03492209 0.011711806 0.031851023 0.09715877
0002e0 03 67 75 3d 32 1f 50 3d 93 e1 8b bc 36 df 65 3d
       0.059912693 0.050811 -0.017075336 0.056121074
0002f0 52 b2 f5 3a 78 02 32 3b 6b 8a 00 3d 1c 7f 0e bb
       0.001874516 0.0027162116 0.031382006 -0.0021743244
000300 70 a3 02 be b2 09 b1 3c e0 50 1d 3c ac 08 10 3d
       -0.12757659 0.021611068 0.009601802 0.03516452
000310 51 24 23 3d 5f 44 30 bd b2 49 e1 bd 8b 8d b3 bc
       0.039829556 -0.043033954 -0.110003844 -0.021918079
000320 b8 28 53 bd 48 4e e4 bd 80 97 7a bd ab ef 7b 3d
       -0.051552504 -0.111477435 -0.061179638 0.061507862
000330 9f ce 0d bc 99 cb 38 3d 05 fb 2b 3e 2d 1b 90 bc
       -0.008655219 0.04511604 0.16794975 -0.017591083
000340 7e 09 09 3b 58 de eb bc 26 1b c7 bb f1 98 98 bd
       0.0020910199 -0.028792545 -0.0060762344 -0.07451046
000350 e6 cd 40 bb 46 a2 df 3c a9 25 e0 bc 8e bb 9b 3c
       -0.00294196 0.027299058 -0.027361708 0.019010331
000360 b5 e9 cc ba dd 51 98 bd 73 23 47 3b c3 b9 db 3b
       -0.0015633615 -0.07437489 0.003038612 0.006705494
000370 ae c4 4a 3d d1 ce 96 bb 64 f6 36 bd 58 a9 03 3d
       0.049503975 -0.004602291 -0.04466857 0.03214392
000380 22 c5 54 3d 19 48 28 3c 3b 6b ff 3b d5 e4 92 3d
       0.051945813 0.010271096 0.0077947653 0.071725525
000390 1b e2 88 3c b4 66 46 3b 4f dd b2 bc 3e 17 4a 3e
       0.016709378 0.0030273618 -0.021834044 0.19735429
0003a0 94 4e 03 3d 8b a9 1e 3d da 44 b4 3c 96 f0 00 bd
       0.03205736 0.038735908 0.022005487 -0.03147944
0003b0 79 43 b3 3e bd d3 0e b9 18 ab a8 3c 2f 7e 53 3d
       0.35012415 -0.00013621054 0.020589396 0.05163401
0003c0 63 73 d9 3c 6b d1 49 3c d8 61 a6 3b 20 5a 69 3d
       0.026544278 0.012317996 0.005077582 0.056970716
0003d0 5f ce a8 3d 2e 2f ff 3c 59 ac 25 bd bf bd 72 ba
       0.08242487 0.031150427 -0.040447567 -0.0009259842
0003e0 8f e4 bf 3d 42 fe 85 bd 17 52 e0 3c 07 b9 2e bd
       0.09369766 -0.065426365 0.027382893 -0.042656925
0003f0 e4 1a 5f 3c 0e 27 97 bc 1e ea ee 3b 79 0d 7a bc
       0.013617251 -0.01845124 0.0072910925 -0.015262001

conv2.bias f4 [32]
000000 11 2a 23 3b a7 b4 dc 3b 01 0a 9c 3c 29 8e 06 3d
       0.00248969 0.0067354026 0.019047739 0.03285042
000010 ef 6e 13 3a d3 5c 1a 3c 16 4a d6 bb a9 ef ba bb
       0.00056241354 0.009421545 -0.0065395935 -0.0057048392
000020 c3 a6 0d 3c c0 72 28 3c 39 17 84 3c cb 1a 87 3c
       0.008645716 0.010281265 0.016124355 0.016492268
000030 b6 8b fc bb 53 40 92 3c 32 13 d8 3a 42 e3 2d 3c
       -0.0077070845 0.017852938 0.0016485213 0.0106132645
000040 68 32 06 3c 29 6e 0c 3c 94 b1 ee 3b 24 df 05 3c
       0.008190729 0.008571186 0.0072843526 0.008170877
000050 9c 9f 8b ba 27 d7 5a 3c 1e 49 60 3c 4e a1 6c 3c
       -0.0010652426 0.01335696 0.0136893075 0.014442755
000060 a8 13 5b 3c 97 1b 76 3c 72 5f ff 3b 5a 45 67 3c
       0.013371386 0.015021226 0.0077933604 0.014115656
000070 e5 a5 9e 3a 7e a9 98 3b 6c 73 d2 3b a7 e1 c3 3c
       0.0012103884 0.004658877 0.0064224508 0.02391131

conv3.weight f4 [3, 32, 5, 5]
000000 42 ec 2b 3c fb 69 90 3c 3e 07 13 ba 88 98 99 3b
       0.01049334 0.01762866 -0.0005608684 0.0046873726
000010 b0 f1 a7 bb 30 11 4f 3b 8c 13 60 bc 55 a0 3b 3d
       -0.005125247 0.0031595938 -0.013676535 0.0458072
000020 05 7b 43 bc 0e 68 97 bc b0 a6 2f bd 9e de b2 3a
       -0.011931186 -0.018482234 -0.042883575 0.0013646667
000030 39 45 e2 3c ff 71 c7 3c 1e 31 d3 3b f1 d6 aa 3c
       0.027620899 0.02434635 0.006445064 0.020854445
000040 57 e3 93 3b 71 61 0e bd 74 83 3d 3d e9 56 04 3d
       0.004513185 -0.034760896 0.04626794 0.032309446
000050 a4 46 e2 3c 7f 16 13 3d 8d 59 23 bc de 9f c4 3b
       0.027621575 0.035910126 -0.009970081 0.006000503
000060 17 50 c6 39 d9 5a 89 bc c1 0b 8d 3c 69 9a db 3c
       0.00037825175 -0.016766952 0.017217519 0.026807027
000070 f2 3e 05 bd 6a 6b c7 3b e9 14 ce 3c 00 ed 96 39
       -0.032530732 0.006085803 0.025156455 0.00028786808
000080 2b c8 c2 bb 2c b7 76 bd a8 c9 04 bd f1 41 de 3c
       -0.005944272 -0.06023328 -0.032418877 0.027131053
000090 0e a0 44 3d 59 23 88 bc b9 2f 67 bc 74 03 47 bc
       0.048004203 -0.016618418 -0.014110499 -0.012146819
0000a0 af 8f 1f 3c 60 5a 04 3c 1e 6b 89 3b ef 61 87 3c
       0.009738847 0.008078188 0.0041936776 0.01652619
0000b0 cc 3b c2 bc 61 e0 8a bc c8 50 1d bc 02 c0 9c ba
       -0.023710154 -0.016952695 -0.009601779 -0.0011959078
0000c0 ae c7 82 3c dc 42 85 3c 4f 7f 29 3d 00 84 77 b9
       0.015964355 0.016267233 0.041381177 -0.0002360493
0000d0 13 fe 96 3c 36 fb e3 3c 2e 0d 56 bc b5 48 ca 3c
       0.018431699 0.027829748 -0.013064666 0.024692873
0000e0 63 f9 32 bd d2 e9 0d 3d df 3b 30 3d 21 ba b8 3c
       -0.043694865 0.034646817 0.043025848 0.02254969
0000f0 68 d5 fb bc 54 30 af bd 3b 62 22 bd 2f e6 da 3c
       -0.030741408 -0.0855414 -0.03964446 0.026721088
000100 e1 13 36 3d a6 11 c3 bc 95 6b a3 bd 32 e3 dd 3b
       0.04445255 -0.023812126 -0.07979504 0.0067714686
000110 ab 33 e4 3b 5f 19 05 3d a0 91 19 bd aa 65 9e bc
       0.006964167 0.0324949 -0.037492394 -0.019335587
000120 eb d2 82 bc fa 26 53 bd fb 66 5d bc 7c be 86 bb
       -0.015969714 -0.051550843 -0.013513322 -0.004112063
000130 a6 df 23 bd 3b 1e 7c bb 57 e8 04 bc a5 bc 3f bc
       -0.04000821 -0.0038470167 -0.008112035 -0.011702691
000140 12 7f a8 3c 9e f5 1d 3d 02 4f f0 bc 15 39 8c bd
       0.020568404 0.038564317 -0.029334549 -0.06846825
000150 e2 51 2c bd 24 70 98 3d 1b 5b 0c 3d d0 a2 2d 3c
       -0.042070277 0.07443264 0.034266572 0.0105979
000160 30 ae b1 bd 63 50 cf bc 6d 55 6c 3d 13 28 83 3d
       -0.08675802 -0.025306886 0.057698656 0.06404128
000170 a0 6f fa bb ce 20 58 bd 32 bc 5f bd 83 9b 43 3c
       -0.0076427013 -0.05276566 -0.054622836 0.011938932
000180 1a 16 0b bc 29 31 e7 bb f3 77 eb bc e5 79 c2 3c
       -0.008489156 -0.007055421 -0.02874372 0.023739764
000190 bd 05 db 3c 50 7d d8 3c 88 7d 9e bc 81 a4 94 bb
       0.026736135 0.026426941 -0.019346967 -0.004536212
0001a0 4b 64 39 3c f2 0a d5 3c b7 72 db 3a b9 82 f8 3c
       0.011315416 0.026006196 0.0016742562 0.03033577
0001b0 ab 46 a8 3c 40 d2 54 3c 7b 4f 45 3c 70 df 98 3c
       0.02054151 0.012989581 0.012042875 0.01866123
0001c0 e9 e0 37 3a a6 69 e1 3c b8 0a 88 3b 38 5b 47 3a
       0.000701441 0.027516197 0.0041516684 0.000760484
0001d0 e9 ae 98 3c a5 a4 e6 bc e4 0c ad bc 75 88 a4 bc
       0.018638091 -0.02815468 -0.02112431 -0.020084599
0001e0 e2 07 32 bb be 2b 93 bc 06 22 0f 3b a3 32 ac bc
       -0.0027165343 -0.017965194 0.0021840348 -0.02102024
0001f0 4d 20 9b 3c 4f 8f 87 bb 3d 1c 05 bd a0 38 a8 bc
       0.0189363 -0.0041369568 -0.032497633 -0.020534813
000200 b0 39 ad bb 5c c0 93 bb 5d 3b 03 bd bc 6d f4 bc
       -0.005286418 -0.004509015 -0.032039035 -0.029837482
000210 d2 37 3d bd 51 6d bd bb cf 63 d9 bc 5d 88 84 3b
       -0.046195813 -0.005780854 -0.02653685 0.004044576
000220 86 ea 47 bc ba 84 2a bb 7a 27 8e bc b2 d6 3b 3b
       -0.012201911 -0.0026019053 -0.017352808 0.0028661904
000230 95 3a 56 bd 02 c3 12 bd 04 44 08 bc 7b ad 97 3a
       -0.052301962 -0.035830505 -0.008316997 0.0011572087
000240 0b 44 1c bd 74 b1 68 bc 58 0f 3c bd e5 fd f5 bb
       -0.03815083 -0.014202464 -0.04591307 -0.007507073
000250 be c6 34 3c 53 3b c5 3c ee 39 06 3d 58 cb 23 3c
       0.011033712 0.02407614 0.03277009 0.009997211
000260 82 aa 77 bc 68 09 5c 3c 74 7c dc bc 26 50 ab 3b
       -0.015116336 0.013429977 -0.026914813 0.0052280603
000270 ff 8c 1d bd 82 95 20 bc 70 fb ab 3b 91 34 ae bc
       -0.038464542 -0.00980127 0.0052484795 -0.0212653
000280 53 fc 93 3c ff f4 f9 3a be ad 65 3c 0a 43 c1 bc
       0.018064654 0.0019070207 0.014018474 -0.023591537
000290 60 78 8e ba 5a ac c6 bb e1 1f d0 bb f5 a1 21 3c
       -0.0010869615 -0.0060630264 -0.0063514565 0.009865274
0002a0 35 98 85 3b c4 b4 c0 3c 80 05 c3 3c c2 99 c0 3c
       0.0040769824 0.023523696 0.023806334 0.023510817
0002b0 cc 0f ee 3b e1 ec 1b bd b8 77 e1 bc b8 f8 53 3b
       0.0072650667 -0.038067702 -0.027522907 0.0032344293
0002c0 b4 4c a1 3c 6e 80 93 3b b3 37 b3 bc d4 47 39 3d
       0.019689895 0.004501394 -0.021877145 0.045234516
0002d0 21 b5 58 3a a1 79 d3 3b 0d 30 57 3a 70 86 01 ba
       0.00082667364 0.0064537083 0.0008208759 -0.0004940992
0002e0 95 d8 01 bb e6 b0 12 bb f4 bb 6b bc c1 fd f2 bc
       -0.001981293 -0.0022383272 -0.014388073 -0.029662015
0002f0 9f d2 9a bc 89 f3 a4 3a 7b 6a 86 bc 83 07 0e bc
       -0.01889926 0.0012584786 -0.016408196 -0.008668783
000300 4b f8 88 3c 59 05 54 bc 9c 26 36 bc b6 91 98 3c
       0.016719958 -0.012940728 -0.011117604 0.018624168
000310 ee ab ad bc f6 26 bf bc 56 0a 0e bd 28 15 ca 3a
       -0.021200147 -0.023334008 -0.034677826 0.0015417682
000320 3b 72 01 3d 0a 0b e5 3c 0a 08 e4 3b 25 9c 34 3c
       0.03160308 0.027959365 0.006958966 0.011023556
000330 ec e8 a7 3c ed aa 39 3d 30 ac 51 bc 58 8e df 3c
       0.020496808 0.045329023 -0.0127974 0.027289554
000340 8c f5 50 3d ce f4 4d bd e3 e2 9d 3c 6e fd 2a 3c
       0.05101542 -0.050282292 0.019273227 0.010436399
000350 81 b8 83 bc d1 01 48 3c 98 19 69 3c 8f 59 cd 3c
       -0.01607919 0.012207464 0.014227293 0.025067119
000360 8f ba c5 3c c7 65 24 bb c8 f9 f1 bb bc 5f af bc
       0.02413681 -0.0025085078 -0.0073845126 -0.021407954
000370 ff e7 ab 3b d6 17 fc 3c 64 20 00 3d f1 e5 fc 3a
       0.005246162 0.030773085 0.03128089 0.0019294602
000380 e7 27 ec 3a 21 f3 01 3d de a8 85 3c e0 01 91 bc
       0.0018017263 0.031726006 0.016315874 -0.01770109
000390 9b 87 fc 3b 1d 15 55 bc 6a 8c 94 bc 28 f3 9e bc
       0.007706595 -0.013005522 -0.01813336 -0.019403055
0003a0 41 d0 70 bd e2 1e 84 3c 22 00 5f 3d 0c a5 eb bc
       -0.058792356 0.016128007 0.054443486 -0.028765224
0003b0 8a 93 80 3c ca ce ca bc 76 1e c2 bb 05 6a 08 3c
       0.015695352 -0.024756808 -0.0059240414 0.008326058
0003c0 bb b0 96 bb ec f4 90 bc 51 b6 60 3c 77 ce c1 bc
       -0.0045987046 -0.017694913 0.013715343 -0.02365802
0003d0 9a 65 97 3c 4a e2 f3 3b 99 d7 a5 bc 19 1c 03 3d
       0.018481065 0.0074427472 -0.020244407 0.032009218
0003e0 75 b4 11 3a 15 dd aa 3c 4a 90 62 3c 11 34 8e bc
       0.0005558201 0.020857373 0.0138283465 -0.017358812
0003f0 55 86 1f bd 7e f6 36 bc c4 eb 4d bc 99 7b 91 bc
       -0.03894647 -0.011167167 -0.012568418 -0.017759131

conv3.bias f4 [3]
000000 fa 25 39 3c 6a 7a 03 3a e1 62 12 3c
       0.011300558 0.00050154945 0.008934707
