trained_model/ESPCN_multiframe/model_demo.pkl (torch, 269403 bytes, 12 tensors)

weight f4 [64, 9, 5, 5]
0	0x3c36c598	0.011155508
1	0x3bb7c49c	0.0056081545
2	0x3cefb6b3	0.029261922
3	0xbae1f897	-0.0017240223
4	0x3ca16597	0.019701762
5	0xbc041508	-0.008061655
6	0xbba338c0	-0.0049811304
7	0xbc4b3091	-0.012401716
8	0x3a2cce10	0.0006591985
9	0xbca9a4c3	-0.020708447
10	0xbba6e303	-0.00509298
11	0xbccb4c73	-0.024816727
12	0xbc51dc4a	-0.012808869
13	0xbc819a6a	-0.0158207
14	0xbcc5547c	-0.024088137
15	0xbcf00d8b	-0.029303333
16	0xbc633e8c	-0.013869893
17	0xbd2979e3	-0.041376006
18	0x3c8cdf3c	0.01719629
19	0x3d0d8e7d	0.034559716
20	0xbd410c76	-0.047131024
21	0x3c58e6f5	0.013238658
22	0x3caea0f1	0.021316977
23	0xbaa65ba3	-0.0012692105
24	0x3ccd19e0	0.025036752
25	0x3d628bca	0.055309094
26	0x3c4a9e65	0.012366866
27	0xbd09c7b3	-0.033637714
28	0xbcc0d997	-0.023541255
29	0x3d0100a7	0.031494763
30	0x3b339e59	0.0027407615
31	0xbcc5631d	-0.024095112
32	0x3bec5a80	0.007212937
33	0x3ca69aa1	0.020337405
34	0xbc21df03	-0.00987983
35	0xbca13797	-0.019679828
36	0xbbffc4b8	-0.007805433
37	0x3ccc59fe	0.024945255
38	0xbc6dd0dd	-0.014515129
39	0x3b48efce	0.0030660513
40	0x3ca3acff	0.019979952
41	0x3cfa3437	0.030542476
42	0x3c959360	0.01825875
43	0xbc2dda47	-0.010611123
44	0x3d0f5f7c	0.03500317
45	0xbc6b2e03	-0.014354232
46	0xbd0bd5b0	-0.034139335
47	0x3cb0b453	0.02157036
48	0xbc5fdc13	-0.01366331
49	0xb985560f	-0.00025431855
50	0xbc80cd72	-0.015722964
51	0x3c2b03b3	0.010437894
52	0xbc6e843a	-0.014557892
53	0x3bfbc693	0.007683584
54	0xbc8742b9	-0.016511308
55	0x3c83308f	0.016014365
56	0xbc9000b4	-0.01757846
57	0xbbe55571	-0.006998711
58	0x3cdca0a4	0.026932068
59	0x3b41d9f7	0.002957938
60	0xbc7f84f1	-0.015595661
61	0xb9c78a4b	-0.00038059274
62	0x3b7892d1	0.0037929306
63	0xbcb00fc1	-0.021491887
64	0x3bb7ad36	0.005605365
65	0xbc85dc13	-0.016340291
66	0xbc47853e	-0.0121777635
67	0xbbf40b39	-0.007447627
68	0xbc054b11	-0.008135573
69	0xbb68ec64	-0.003554129
70	0x3c010b72	0.007876264
71	0x3c72aef0	0.014812216
72	0x3c9659ab	0.018353304
73	0x3be127e6	0.0068712113
74	0x3ca8acd0	0.020590216
75	0xbb80fdc2	-0.0039365003
76	0x3cd09967	0.025463773
77	0x3c8651da	0.016396452
78	0x3ceb127c	0.028695337
79	0xbc7a9a29	-0.015295544
80	0x3d23aff8	0.03996274
81	0x3bb5d5a8	0.0055491515
82	0x3c3b3270	0.011425599
83	0xba4a225a	-0.0007710807
84	0x3ca38385	0.019960174
85	0xbc28c26e	-0.010300262
86	0x3c8f48eb	0.017490825
87	0x3ca27331	0.019830318
88	0x3c596e6d	0.013270956
89	0x3c85207d	0.016250843
90	0x3d4273af	0.047473606
91	0xbcd9cd53	-0.026587164
92	0x39ca382b	0.0003857029
93	0xb80fd12e	-3.428867e-05
94	0x3c847239	0.016167747
95	0xbbc5991e	-0.006030216
96	0xbd0393eb	-0.032123487
97	0xbcff0b7f	-0.031133411
98	0x3b5dc5ac	0.0033839745
99	0xbc91cf95	-0.017799178
100	0x3d02b82f	0.031913932
101	0x3d034cd5	0.032055695
102	0xbcd3c558	-0.025850937
103	0x3c00b9fb	0.007856841
104	0x3b9d0f7d	0.004793106
105	0xbad9decb	-0.0016622184
106	0xbc8e4026	-0.017364573
107	0x3b45fec7	0.0030211674
108	0x3c8191d2	0.015816603
109	0xbcfecb3d	-0.031102771
110	0xbcd6b2ba	-0.02620827
111	0x3d26502f	0.040603813
112	0x3c95b04c	0.018272541
113	0xbaa74a55	-0.0012763242
114	0xbc6bc5b1	-0.014390395
115	0x3c3e2f83	0.011608007
116	0x3c4e84c9	0.012604901
117	0x38e4920a	0.00010899089
118	0xbc866e9c	-0.016410165
119	0xbb807d80	-0.0039212108
120	0x3abc8d52	0.0014385378
121	0xbbe1ff2b	-0.0068968735
122	0xbd3fccd0	-0.046826184
123	0x3cca741d	0.02471357
124	0xbb94f898	-0.0045462362
125	0xbc026a67	-0.007959939
126	0x3d143cfc	0.03619097
127	0x3cd62c91	0.026144298
128	0x3cdbd353	0.026834166
129	0x3cdf58a4	0.027263947
130	0x3cb2c3f1	0.021821948
131	0xbc2e6a7d	-0.010645506
132	0x3c2d3824	0.010572467
133	0xbb809965	-0.003924536
134	0xbc3ac3ae	-0.011399193
135	0x3be784ff	0.007065415
136	0xbc4531da	-0.012035811
137	0xbc6d0ff5	-0.0144691365
138	0x3d126a77	0.035746064
139	0x3b9bda09	0.0047562164
140	0x3c90a57c	0.017657034
141	0x3ca39064	0.019966312
142	0x3b66919e	0.003518201
143	0x3c3d60c7	0.011558718
144	0x3c999a50	0.01875034
145	0x3c8e07b6	0.017337661
146	0x3cdf1d5a	0.027235676
147	0xbb81860d	-0.0039527477
148	0xbbfbbd30	-0.007682465
149	0x3c3b9c4c	0.011450838
150	0xbbbc50be	-0.00574693
151	0x3c53f1a7	0.012936032
152	0x3cda1c17	0.026624722
153	0x3bcb1341	0.0061973636
154	0x3c3f58f6	0.011678925
155	0x3cdd4feb	0.027015647
156	0xbc33e535	-0.01097994
157	0x3ca8de8b	0.02061393
158	0xbc88ac24	-0.016683646
159	0x3d4e2977	0.050332513
160	0x3c21cdd4	0.009875733
161	0xbc9a023f	-0.0187999
162	0x3ad8864f	0.0016519519
163	0x3b9c820f	0.0047762464
164	0x394cee71	0.00019543782
165	0xbc12833c	-0.0089424215
166	0x3bd2366c	0.006415179
167	0xb905871b	-0.00012734199
168	0x3d03201c	0.032013044
169	0x3c04e66e	0.008111579
170	0xbc06e692	-0.008233683
171	0x3d010e7d	0.031507958
172	0xbc485e98	-0.012229584
173	0xbc8bb8c8	-0.017055884
174	0xbcbcf98e	-0.023068216
175	0x3c55545c	0.013020601
176	0x3b5df019	0.0033865033
177	0xbc8d44dc	-0.017244749
178	0xbc0032b9	-0.007824593
179	0x3c7c78a8	0.015409626
180	0x3c88dbec	0.01670643
181	0xbce8b016	-0.028404277
182	0x3cc5f038	0.024162397
183	0xbc44e0a7	-0.012016452
184	0x3d0122cb	0.03152732
185	0xbc46ba7e	-0.012129424
186	0x3ba9403a	0.005165127
187	0xbceb43fd	-0.028718943
188	0xbca3a573	-0.019976353
189	0xbcadd131	-0.021217914
190	0xb9993c46	-0.0002922734
191	0x3d7e54ec	0.062092707
192	0xbbc10f65	-0.0058917277
193	0xbd26c4e9	-0.040715132
194	0xba3855d7	-0.0007031834
195	0x3b9d6b58	0.004804056
196	0x3ced83e5	0.028993556
197	0xbcc8e146	-0.024521481
198	0xbd491d8d	-0.049100447
199	0x3c2bfef2	0.010497795
200	0x3caf257e	0.021380182
201	0x3c167ce0	0.009185046
202	0xbc38b3bb	-0.01127332
203	0x3b317cc3	0.002708242
204	0xbb923be1	-0.0044627045
205	0x3c5130fd	0.012768027
206	0x3ba4c6d7	0.0050285864
207	0xbc44b2ac	-0.012005489
208	0xbb91471a	-0.004433525
209	0x3c55d586	0.013051396
210	0x3ac4c9de	0.0015013774
211	0x3c4211f5	0.011845102
212	0xbc9c822a	-0.019105036
213	0xbb9520d6	-0.0045510335
214	0xb99db0c6	-0.0003007708
215	0x3c32a54d	0.010903669
216	0x3c92f99e	0.017941292
217	0xbcb99683	-0.022654777
218	0x3d5b5aec	0.053553507
219	0x3c343186	0.010998135
220	0x3c8ed2d0	0.017434508
221	0xbbaf8b11	-0.005357154
222	0xbc656b24	-0.014002595
223	0xbb929a2c	-0.004473945
224	0x3c3ca868	0.011514761
225	0x3d414fb2	0.047195144
226	0xb88e0e2d	-6.773728e-05
227	0x3b46774e	0.0030283513
228	0x3c4fec15	0.012690564
229	0xbd07b09f	-0.033127423
230	0x3c5425a3	0.012948426
231	0x3c276d14	0.010218877
232	0x3cdea404	0.027177818
233	0x3ca5bfff	0.020233152
234	0xbac41f93	-0.0014963023
235	0x3c526127	0.012840546
236	0x3cc0c6f5	0.02353237
237	0xbc36c822	-0.011156114
238	0xbb4c8bfd	-0.003121137
239	0x3c6f577c	0.01460826
240	0x3a083a19	0.00051966455
241	0x3d23be58	0.039976448
242	0x3c319b6a	0.010840276
243	0x3cac34bf	0.021021245
244	0x3c23ec85	0.010005121
245	0x3d10de8c	0.035368487
246	0xbc4da557	-0.012551627
247	0xbbdb652d	-0.0066954107
248	0x3bebfb6a	0.0072016018
249	0x3b29ce1c	0.0025910204
250	0x3d19248f	0.03738838
251	0x3c3dc2fb	0.0115821315
252	0x3cade68d	0.0212281
253	0x3d018e27	0.031629708
254	0xbb9e2a48	-0.0048268177
255	0x3c0986f5	0.008393993

bias f4 [64]
0	0x3b11ac6f	0.0022228023
1	0x3beb041a	0.00717212
2	0x3bf2cf4f	0.007409967
3	0xba7f72f8	-0.00097446097
4	0x3bfaf5ee	0.0076587116
5	0x3bedfc0e	0.0072627133
6	0xbb8e2123	-0.0043374463
7	0x3bef5ed1	0.007305004
8	0x3bc10afb	0.0058912016
9	0x3bfe41a0	0.007759288
10	0x3b528567	0.003212297
11	0x3add48cb	0.0016882656
12	0x3b8e7399	0.0043472764
13	0xbb1038a0	-0.0022006407
14	0xbacf513e	-0.0015817059
15	0x3bf814b9	0.0075708297
16	0x3b86fd56	0.0041195555
17	0x3afdd2df	0.0019365213
18	0x3ba29924	0.0049621034
19	0x3bfeb8f8	0.007773515
20	0x3bed2020	0.0072364956
21	0x3b5ceeb0	0.0033711605
22	0x3bf9c18e	0.0076219505
23	0x3bfe47d4	0.0077600274
24	0x3bdd398e	0.006751246
25	0x3a60794a	0.00085629954
26	0x3bfe342c	0.007757684
27	0xba94e7db	-0.0011360602
28	0x3b92b85c	0.0044775438
29	0x3bf6d817	0.007533084
30	0x3bfc7fb3	0.0077056526
31	0x3b469a69	0.0030304438
32	0x3bb49029	0.0055103493
33	0x3bf2f0a6	0.0074139414
34	0x3bffd119	0.007806909
35	0x3bdc6794	0.0067262147
36	0x3c00226d	0.007820708
37	0x3bbb20a0	0.0057106763
38	0xbb2fbb29	-0.0026814437
39	0x3b9ecd0e	0.004846222
40	0x3be278d4	0.0069113765
41	0x3c00b2b4	0.007855106
42	0x3bfb5f02	0.007671238
43	0x3b938aa2	0.0045026103
44	0xb8974333	-7.212758e-05
45	0x3beba356	0.007191102
46	0x3ba3cfc1	0.0049991314
47	0xba6bbb13	-0.0008992415
48	0x3be9ac2a	0.0071311193
49	0x3bfc81fc	0.007705925
50	0x3bcc388f	0.0062323282
51	0x3c005834	0.007833529
52	0x3bffa02d	0.007801077
53	0x3bcae6e2	0.006192074
54	0x3bd7e972	0.006589108
55	0x3bd4e797	0.006497334
56	0x39e49a4d	0.00043602512
57	0x3bf21a11	0.0073883613
58	0xbac50486	-0.0015031255
59	0x3bff15a0	0.0077845603
60	0x3be2d442	0.0069222758
61	0x3bf1fe5b	0.007385058
62	0x3bee1ccb	0.007266616
63	0x3c1ee940	0.009699166

weight f4 [48, 64, 3, 3]
0	0xbcd94f19	-0.026526975
1	0x3bf5f471	0.0075059463
2	0x3cbb67c2	0.022876624
3	0xbc6ea091	-0.014564649
4	0xbba447f2	-0.0050134594
5	0xbc17be84	-0.009261731
6	0x3cad114f	0.021126417
7	0x3cc156bf	0.023600934
8	0x3c6f2fe3	0.014598819
9	0x3c5c63e5	0.013451551
10	0x3b8db93d	0.0043250606
11	0xbcb91d4f	-0.022596983
12	0x3c0646fd	0.008195636
13	0x3c9e15cf	0.019297509
14	0x3bb81cab	0.005618652
15	0x3a929363	0.0011182841
16	0xbb9788f2	-0.0046244795
17	0xb95bd868	-0.00020966085
18	0xbc826641	-0.0159179
19	0xbbc33bdd	-0.005958064
20	0x3c6c2cfd	0.014415023
21	0xbb9c0a40	-0.004761964
22	0xbcd710c8	-0.02625312
23	0xbd1e6470	-0.038670003
24	0x3bedd219	0.0072577116
25	0xbcd36225	-0.025803635
26	0xbccdf640	-0.025141835
27	0x3c852d8e	0.016257074
28	0xbb598888	-0.0033192951
29	0xbb69781b	-0.0035624567
30	0x3c7d1559	0.015446984
31	0x3c8a7c9a	0.016905118
32	0xbcb1bc5c	-0.021696262
33	0xb9ea854e	-0.00044731278
34	0xba5af035	-0.00083518337
35	0xbaad9a04	-0.0013244753
36	0x3ce6bda8	0.028166607
37	0x3c71fed4	0.014770228
38	0xbd09cdf5	-0.03364368
39	0xbcadfc34	-0.021238424
40	0x3cfb3e9f	0.030669509
41	0xbcd9d4a4	-0.026590653
42	0xbbed3236	-0.0072386516
43	0xbcce4b80	-0.025182486
44	0x3cdca2cf	0.026933102
45	0xbb016b8f	-0.0019747948
46	0x39fa0b16	0.00047691975
47	0x3d0cae2d	0.034345794
48	0xbd008da1	-0.031385068
49	0x3cae3632	0.021266077
50	0x3c8572ad	0.016290033
51	0xbb875c3b	-0.004130868
52	0xbca1d6c6	-0.019755732
53	0x3cfb9b78	0.030713782
54	0xba3cbcac	-0.0007199745
55	0x3aa17045	0.0012316784
56	0xbc546caf	-0.012965365
57	0x3c5394a1	0.012913854
58	0x3cf7af15	0.030234853
59	0x3d197230	0.037462413
60	0x3d37649e	0.04477369
61	0x3d14565d	0.036215175
62	0x3c848431	0.016176315
63	0xbbe90db4	-0.0071122292
64	0x3b8b65df	0.0042540873
65	0xbaeee589	-0.0018226366
66	0x3b6e495f	0.003635965
67	0xbcb953ab	-0.022622904
68	0xbc88e97c	-0.016712897
69	0x3c7221cf	0.014778568
70	0xbc96d037	-0.018409831
71	0xbcca008e	-0.024658468
72	0x3cb9cd4d	0.022680903
73	0x3cc81754	0.024425186
74	0xbcf548b5	-0.029941896
75	0xbcc39fbc	-0.023879878
76	0xbb7de8aa	-0.0038743415
77	0x3c005006	0.007831579
78	0xbbcbb86c	-0.006217053
79	0xbd1a427f	-0.037661072
80	0x3cb12b1c	0.021627001
81	0x3b9faaef	0.004872672
82	0x3bf27596	0.0073992712
83	0xba4cc9d8	-0.00078120595
84	0x3c9281b1	0.017884107
85	0xbcb9ebdf	-0.02269548
86	0x3bd47169	0.006483246
87	0x3c76b41d	0.015057591
88	0x3c61ada0	0.013774306
89	0xbbd21f7b	-0.006412444
90	0x3c1ad022	0.009449037
91	0x3d4f6b36	0.050639354
92	0x3b00a269	0.0019628054
93	0x3ce2c28c	0.027680658
94	0xbbceb2ca	-0.0063079344
95	0xbcfdb780	-0.030971289
96	0x3cca489a	0.024692822
97	0xbb3c95bc	-0.0028775772
98	0x3c275f54	0.010215599
99	0xba940ba6	-0.0011294975
100	0x3cb8a9ff	0.022541998
101	0xbb8093cd	-0.003923869
102	0xbc1bfb8e	-0.0095204245
103	0xbb727c0e	-0.0037000212
104	0xbbf400ef	-0.0074464004
105	0x3cb2d735	0.021831134
106	0xbcc7eb14	-0.024404086
107	0xbc0fca0e	-0.008776201
108	0x3cd65100	0.02616167
109	0xbc8dceac	-0.017310463
110	0x3ca70d6b	0.02039214
111	0x3c948aab	0.018132528
112	0xbc48006c	-0.012207132
113	0x3d0cf3ae	0.03441208
114	0xbcfbe768	-0.030749992
115	0xbcb73014	-0.022361793
116	0xbcb3e717	-0.021960778
117	0x3cacaf35	0.021079639
118	0x3b18e057	0.0023327076
119	0xbccb106c	-0.024788104
120	0x3b9611e6	0.0045797704
121	0x3d5be0f6	0.053681336
122	0x3c54d3c3	0.012989941
123	0xbaf8cf6d	-0.0018982716
124	0xbc17cc3a	-0.009265
125	0xbc39936b	-0.011326651
126	0xbb61aa5a	-0.0034433813
127	0xbb1f6252	-0.0024320078
128	0xbcc9e0dc	-0.024643354
129	0xbcaf8684	-0.021426447
130	0x3c050679	0.008119219
131	0xbb9f397e	-0.0048591485
132	0x3cd6694a	0.026173253
133	0x3c8713a4	0.016488858
134	0x3c449ef4	0.012000788
135	0xbbce5668	-0.0062969215
136	0x3cefb95f	0.029263197
137	0xbc8dbd85	-0.017302284
138	0xbc8a3b1e	-0.016873892
139	0xbd14f06d	-0.0363621
140	0xbca94021	-0.020660462
141	0x3c51d6a4	0.012807522
142	0xbc76fad3	-0.01507445
143	0x3cc983c5	0.024598965
144	0xbcbb358e	-0.022852685
145	0x3bdbe408	0.006710533
146	0x3c0d317e	0.008617757
147	0xbc63ac83	-0.0138961105
148	0xbbe90192	-0.007110783
149	0x3cc66b6f	0.02422115
150	0x3c6e3b6a	0.014540533
151	0xbc212e30	-0.009837672
152	0x3c388be8	0.011263825
153	0x3c42cd6d	0.011889798
154	0x3c85281b	0.016254475
155	0xbc1dd9e5	-0.00963447
156	0x3c131dfe	0.008979319
157	0xbc26b173	-0.010174143
158	0xbc47599d	-0.012167362
159	0x3c96d9d1	0.01841441
160	0x3b9af357	0.0047287154
161	0x397e1002	0.00024229291
162	0xbaee658b	-0.0018188221
163	0xbcd47703	-0.025935655
164	0x3c5282e2	0.012848588
165	0xbc458696	-0.012056014
166	0xbcf8fd87	-0.030394329
167	0x3bfd698b	0.007733529
168	0x3cbd050d	0.023073697
169	0xbc90c328	-0.017671183
170	0xbb63f03f	-0.003478065
171	0xbb2694c2	-0.0025418256
172	0x39ff3f27	0.00048684442
173	0xba6f391f	-0.0009125638
174	0xbd0699f7	-0.032861676
175	0x3d044842	0.032295473
176	0x3b6360bb	0.0034695107
177	0xbc3fa3de	-0.011696784
178	0xbc19f967	-0.009397841
179	0xbc0accc5	-0.008471672
180	0xbc628623	-0.013825926
181	0xbbc2f496	-0.005949567
182	0xbc6d58dd	-0.014486519
183	0xbc4d3bb6	-0.012526443
184	0xbb87452b	-0.0041281185
185	0xbc84b80c	-0.016201042
186	0xbca8a9ec	-0.020588838
187	0xbd32d216	-0.043657385
188	0xbbca90b6	-0.0061818017
189	0xbb38bad3	-0.0028187528
190	0x3d082a7d	0.033243645
191	0x3c7b4fa4	0.015338812
192	0xb994f585	-0.00028411686
193	0xbc28b36a	-0.010296682
194	0xbc3e055f	-0.01159796
195	0x39a1fef0	0.00030898256
196	0xbc31ec58	-0.010859571
197	0xbcd63636	-0.026148897
198	0xbb5235d0	-0.0032075532
199	0xbc5f0aca	-0.013613412
200	0xbcb4f16b	-0.022087773
201	0xbcf005cf	-0.029299645
202	0x3ca04ce8	0.019567922
203	0x3d6897f5	0.056785543
204	0xbab98e6f	-0.0014156828
205	0x3d34591a	0.044030286
206	0xbcb4b283	-0.022057777
207	0x3b74adb0	0.003733497
208	0x3cb37467	0.02190609
209	0xbc377503	-0.011197331
210	0xbd01c51f	-0.03168213
211	0xbb4d0a1e	-0.0031286548
212	0x3a301989	0.0006717672
213	0xbc91117f	-0.017708538
214	0x3c872df3	0.016501402
215	0xbce33e22	-0.027739588
216	0xbcd33d47	-0.025786055
217	0x3c6f133b	0.014591987
218	0x3c01f7bb	0.007932599
219	0xbc015486	-0.007893687
220	0xbcbbdf9b	-0.022933772
221	0xbbceacd4	-0.006307224
222	0x3c949d52	0.018141422
223	0x3ba043ec	0.0048909094
224	0xbc2427fe	-0.0100193005
225	0x3cd069e6	0.025441121
226	0xbc3535e4	-0.011060212
227	0x3cd4a497	0.025957389
228	0xbc12550c	-0.00893141
229	0x3b533ef2	0.0032233563
230	0xbcaad795	-0.02085475
231	0xbc3e5bea	-0.011618594
232	0x3d062396	0.03274878
233	0x3d116392	0.03549535
234	0xbcfed607	-0.031107916
235	0xbca05ad8	-0.019574568
236	0xbc958956	-0.018253963
237	0xbd1c55c0	-0.038167715
238	0xbc6bc93a	-0.014391238
239	0x3bd143ab	0.0063862405
240	0x3d05bf84	0.032653347
241	0x3c1aee95	0.009456296
242	0x3c31a33e	0.010842143
243	0x3c0efb7c	0.008726951
244	0x3b98b9b8	0.0046608113
245	0xbb9ea5fa	-0.0048415633
246	0x3c692e4a	0.014232228
247	0x3c495fd9	0.012290918
248	0x3c6d41f6	0.014481058
249	0x3c0e2576	0.008675924
250	0x3ae7693b	0.0017655262
251	0xbd1343d7	-0.03595337
252	0x3c476c6e	0.012171848
253	0x3b80588b	0.003916805
254	0xbce63767	-0.02810259
255	0xbce19291	-0.027535709

bias f4 [48]
0	0xbab4b8c3	-0.0013787973
1	0x3ba0d15e	0.004907771
2	0x37999234	1.8307102e-05
3	0x3c012c0b	0.007884036
4	0x3ba27464	0.0049577225
5	0x3c034522	0.008012088
6	0x3bef6aed	0.0073064477
7	0x3c036126	0.008018767
8	0x3c03411e	0.008011131
9	0x3c00d718	0.007863782
10	0xbaa5cbd2	-0.0012649244
11	0x3bdf0504	0.006806018
12	0xba3a4244	-0.0007105211
13	0xba3855f8	-0.00070318533
14	0x3bdc1a47	0.0067169997
15	0x3c02712f	0.007961555
16	0x3c036fea	0.008022288
17	0xbad1243f	-0.0015956237
18	0x3c00077f	0.007814287
19	0x3b1f6949	0.002432423
20	0x3bc71ff4	0.006076807
21	0x3bb97fb7	0.0056609767
22	0x3bff60cb	0.007793521
23	0x3af808cf	0.0018923524
24	0x3c016bc9	0.007899233
25	0xb997259b	-0.00028828983
26	0x3c02813d	0.007965383
27	0x3c0353b2	0.00801556
28	0x3c02f250	0.007992342
29	0x3c0369cf	0.008020832
30	0x3c0c329b	0.008556987
31	0xbb67b176	-0.0035353578
32	0x3bf2a06c	0.0074043777
33	0xbaf633b4	-0.0018783719
34	0x3c00b64e	0.007855965
35	0x3bfd0fe6	0.0077228425
36	0xba8b77c9	-0.0010640557
37	0xb9a68fcb	-0.0003176912
38	0x3acfbff5	0.0015850054
39	0x3c000de5	0.007815813
40	0xbb1b940c	-0.0023739366
41	0x3be834d3	0.0070863753
42	0x3bdb8553	0.006699243
43	0x3c011775	0.007879128
44	0x3bc70bf0	0.006074421
45	0x3931131d	0.00016887156
46	0x3bf90707	0.0075997147
47	0x3c38a52a	0.011269847

weight f4 [32, 48, 3, 3]
0	0xbcb6fb47	-0.022336615
1	0xbbdd45cf	-0.0067527066
2	0x3b900b48	0.004395876
3	0x3c79a4fc	0.015237089
4	0x3ad88f38	0.0016522175
5	0x3bce600f	0.006298072
6	0x3d838732	0.06422271
7	0xbb80bb63	-0.0039285882
8	0x3cb31c8f	0.021864204
9	0x3d1765c0	0.03696227
10	0xbc4287b9	-0.011873179
11	0x3c1c59bc	0.009542879
12	0xbc52ed9f	-0.012874036
13	0xbbe397ef	-0.006945602
14	0x3d1b7bda	0.03795991
15	0xbc980121	-0.018555226
16	0xbd1675fd	-0.036733616
17	0x3c574d12	0.013140934
18	0x3c9dfd12	0.019285712
19	0x3c76cc19	0.015063309
20	0xb8a5bf26	-7.903417e-05
21	0xbb1fda5d	-0.002439163
22	0xbc99c452	-0.01877037
23	0x3c0e1d24	0.00867394
24	0x3cea10b0	0.02857241
25	0x3aea9889	0.0017898242
26	0x3bea6957	0.007153671
27	0x3c80ad4b	0.015707633
28	0x3c848cf5	0.016180495
29	0x3c11a9b1	0.008890555
30	0xbcb9bfa7	-0.022674395
31	0xbc1c5694	-0.009542126
32	0xbd3092d5	-0.04310878
33	0x3b5e73e1	0.003394358
34	0xba2db18a	-0.00066258817
35	0xbd05bba6	-0.03264966
36	0x3baa8a08	0.005204443
37	0xbccd609b	-0.02507048
38	0x3cab7cd2	0.020933542
39	0x3ce3c49b	0.02780371
40	0x3d307841	0.043083433
41	0x3975ffea	0.00023460356
42	0xbc82da2d	-0.015973175
43	0x3b6c901c	0.0036096638
44	0xbc7bbe0b	-0.015365134
45	0xbc91495e	-0.01773518
46	0xbcb5ea4a	-0.022206444
47	0x3c6af966	0.014341688
48	0x3b38d2bc	0.002820178
49	0x3c3eb8a2	0.0116407
50	0xbbeb194f	-0.007174648
51	0xbcb49de6	-0.022047948
52	0x3c8176cb	0.015803715
53	0xbc253063	-0.010082337
54	0x3cadca9c	0.021214776
55	0xbc7597e6	-0.014989829
56	0x3d2d456e	0.04230254
57	0xbb787ead	-0.0037917302
58	0x3cbcfae3	0.02306885
59	0xbc3187e0	-0.010835618
60	0x3d3844e6	0.04498758
61	0xbc2e08d4	-0.010622222
62	0x3c088439	0.008332306
63	0xbb74a569	-0.0037330037
64	0x3c296080	0.010337949
65	0x38b6bec3	8.7139684e-05
66	0xbb93fe98	-0.004516434
67	0x3c301101	0.010746242
68	0x3b107c3c	0.0022046706
69	0xbc6832cf	-0.01417227
70	0xbaba6025	-0.0014219327
71	0xbbccab66	-0.006246018
72	0x3c880ae1	0.01660675
73	0x3ce6ae94	0.028159417
74	0xbc5d231d	-0.013497141
75	0x3cc9aa8c	0.024617456
76	0xba88c8f3	-0.0010435864
77	0xbc81cf4e	-0.01584592
78	0x3bcd168c	0.0062587913
79	0x3c5797ab	0.013158719
80	0x3ab50399	0.0013810276
81	0xbbd1329f	-0.0063842083
82	0x3b69b685	0.0035661769
83	0xbbdbd900	-0.006709218
84	0xbb58607c	-0.0033016494
85	0x3bf6fac8	0.0075372197
86	0xbc491cc5	-0.012274926
87	0xbcca384f	-0.024685053
88	0xbc156d81	-0.009120346
89	0x3bedb1a8	0.0072538443
90	0x3bfe05b1	0.0077521433
91	0xbad563b2	-0.0016280322
92	0xbc2102c3	-0.009827319
93	0x3cb76078	0.022384867
94	0x3be7be26	0.007072228
95	0xbcb1fede	-0.021727975
96	0xbc917b39	-0.017758952
97	0xbc53f886	-0.012937671
98	0xbcd04ad2	-0.025426302
99	0x3b0b8d32	0.0021293876
100	0xbc2bc62d	-0.0104842605
101	0x3b932451	0.0044904132
102	0xbbe90c18	-0.0071120374
103	0xbc9cc538	-0.01913701
104	0xbbbcb102	-0.0057584057
105	0x3c6d0a35	0.014467766
106	0xbcdd2ccf	-0.026998905
107	0xbcae0a9d	-0.021245295
108	0x3bbf84d3	0.0058446913
109	0xbd1e2cd4	-0.03861697
110	0xbcd09f59	-0.025466608
111	0x3d45f974	0.0483336
112	0xbcaedbdd	-0.021345073
113	0xbb4d575e	-0.0031332592
114	0xbceb7260	-0.028741062
115	0xbc6b26a8	-0.014352478
116	0x3c617b88	0.013762362
117	0xbbbf8abf	-0.0058453972
118	0xbaf9523b	-0.0019021699
119	0x3cb7aca6	0.022421192
120	0xbc43925d	-0.011936751
121	0x3bb71212	0.005586871
122	0x3be58d3a	0.007005361
123	0xbcf709f9	-0.030156123
124	0xbd4da785	-0.050208587
125	0xbc835b71	-0.016034814
126	0xbca0b8ea	-0.019619424
127	0x3cba8fc9	0.02277364
128	0xbc074a81	-0.008257509
129	0x3c210b0e	0.009829296
130	0xbcf2a70b	-0.029620668
131	0xbbf26015	-0.007396708
132	0xbccabadc	-0.024747305
133	0xbc21a9c3	-0.0098671345
134	0xbc40504c	-0.011737894
135	0xbca066e4	-0.019580312
136	0x3a880369	0.0010376993
137	0x3c9787ec	0.01849743
138	0x3c39969f	0.011327415
139	0x3d27b1ba	0.040940978
140	0xbc3f36c8	-0.011670776
141	0xbc9b9a10	-0.018994361
142	0xbccfef07	-0.025382532
143	0xbc43df51	-0.011955098
144	0xbcf9fb94	-0.03051547
145	0xbcc9d984	-0.024639852
146	0xbc8b8a47	-0.01703371
147	0xbb3af2a5	-0.0028525975
148	0x3c6cbdf7	0.014449588
149	0xbbe92dce	-0.007116056
150	0x3c218471	0.009858237
151	0xbb0032fb	-0.0019561637
152	0x3ca69821	0.020336213
153	0xbcd92f67	-0.026511861
154	0xbad427da	-0.0016186193
155	0x3c4ade5c	0.012382116
156	0x3cddee2b	0.027091106
157	0x3c7c4378	0.015396945
158	0xbb448b65	-0.0029990312
159	0x3b0d0190	0.0021515824
160	0xbd0697ee	-0.032859735
161	0xbb7bf4c3	-0.003844545
162	0x3c97ec47	0.018545283
163	0x3cd47767	0.025935842
164	0xbb11c472	-0.0022242335
165	0x3cd592e3	0.026071018
166	0xbbabc273	-0.005241686
167	0x3b9b6300	0.0047420263
168	0x3a98c203	0.00116545
169	0x3d2497f0	0.04018396
170	0x3bf8ee86	0.0075967936
171	0xbc33a1cf	-0.010963871
172	0xbc29a372	-0.01035391
173	0x3c88f444	0.016718037
174	0xbb1252bf	-0.0022327153
175	0x3bec0d20	0.007203713
176	0xbca8ce58	-0.020606205
177	0x3be58208	0.0070040263
178	0x3b24029e	0.0025025974
179	0x3c6cf3aa	0.014462391
180	0xbccf87bc	-0.025333278
181	0xb9dbd4dc	-0.00041929528
182	0x3cef8b60	0.029241264
183	0xbc97eb40	-0.018544793
184	0xbcac121b	-0.021004727
185	0xbc592955	-0.013254483
186	0xbcb4d4be	-0.0220741
187	0x3c49e457	0.012322507
188	0x39f0dd77	0.0004594137
189	0xbc810cb9	-0.015753137
190	0x3cdac9bd	0.026707524
191	0x3b8468f4	0.0040408317
192	0x3c0bc123	0.008529934
193	0xbcea48b1	-0.028599115
194	0x3b01e830	0.0019822232
195	0xbc877f25	-0.01654012
196	0x3afc0cd5	0.0019229898
197	0xbbdf80e4	-0.006820785
198	0xbc353530	-0.011060044
199	0xbabe3147	-0.0014510535
200	0xbc9b832e	-0.01898345
201	0x3c592620	0.013253719
202	0xbb1e9ad0	-0.0024201162
203	0xbcd31e39	-0.025771247
204	0x3cfc4fc9	0.030799763
205	0xbccfd3a2	-0.02536947
206	0xbcf4c09f	-0.029877005
207	0xbaff8d18	-0.0019497005
208	0xbb58d7e8	-0.0033087675
209	0x3c27c4a2	0.010239752
210	0xbb78bdf3	-0.0037955015
211	0x3d0cc54a	0.034367837
212	0xbca2ae93	-0.019858634
213	0x3bd2ddf8	0.006435152
214	0xbceec683	-0.029147392
215	0xbb936793	-0.004498431
216	0xbc95d824	-0.01829154
217	0xb8aa38a8	-8.116785e-05
218	0xbd8d1c2d	-0.0689014
219	0xbce1a8b8	-0.027546272
220	0xbcc63fe2	-0.024200384
221	0xbb62ed23	-0.0034626208
222	0x3bf1b204	0.0073759574
223	0x3be677aa	0.007033308
224	0x3a8ddf30	0.0010823961
225	0xbc035634	-0.008016158
226	0xbcf1dfbf	-0.029525636
227	0xbd2a9104	-0.041642204
228	0x3c19d98c	0.009390246
229	0xbc4c0dc3	-0.012454453
230	0xbb23f215	-0.0025016118
231	0xbc85ef3b	-0.016349426
232	0x3c3b788c	0.011442315
233	0x3aeb8a17	0.0017970231
234	0xbca13f6b	-0.01968356
235	0x3aa4c98b	0.0012572272
236	0x3b72c661	0.0037044513
237	0xbc818c13	-0.015813863
238	0xbc89046c	-0.016725741
239	0xbc0d12cb	-0.008610438
240	0x3ac2a330	0.0014849659
241	0x3ceb06ec	0.028689824
242	0xbcf711e0	-0.03015989
243	0x3b3c44db	0.0028727564
244	0x3ab781f1	0.0014000518
245	0xbcc411ec	-0.023934327
246	0xbcd4e1e1	-0.025986614
247	0x3c86fabc	0.016476981
248	0x3a1ba94e	0.0005938009
249	0xbcdec72a	-0.027194578
250	0xbc54286c	-0.01294909
251	0xbc47929a	-0.012180949
252	0x3c58bfa9	0.013229289
253	0x3c53090a	0.012880573
254	0x3cb1892d	0.021671856
255	0x3b63ac46	0.0034740134

bias f4 [32]
0	0xbb06eef6	-0.002058921
1	0xb866f372	-5.5063e-05
2	0x3c0032fb	0.007824655
3	0x3c019d3c	0.007911023
4	0xba36c813	-0.00069725624
5	0xba99fe0a	-0.0011748683
6	0x3bff03ee	0.007782451
7	0x3b4d98f1	0.0031371678
8	0x3c012bb8	0.0078839585
9	0x3b97f6c8	0.004637573
10	0x3a825c5b	0.0009945737
11	0x3b9dcfc3	0.004816027
12	0x3bfd71a7	0.0077344957
13	0x3c05439f	0.008133798
14	0x38a248c6	7.738317e-05
15	0xbabff110	-0.0014643986
16	0x3c030f75	0.007999291
17	0xba7895a4	-0.00094827474
18	0x3bf605ba	0.007508007
19	0x3b961bba	0.004580942
20	0xbb382f8f	-0.002810452
21	0x3beeb25b	0.007284445
22	0xbb0ee4f5	-0.002180395
23	0x3c015931	0.0078948
24	0x3c026ab7	0.007960013
25	0xba83b44a	-0.0010048237
26	0x3bfd9cfc	0.0077396613
27	0xbb0776ae	-0.0020670104
28	0xbaf8fd62	-0.0018996412
29	0xba973c44	-0.0011538346
30	0xb9fc1218	-0.00048078666
31	0x3bf814ca	0.0075708376

weight f4 [24, 32, 3, 3]
0	0xbcbdb9b4	-0.02315984
1	0x3d073051	0.033005062
2	0xbc31aa14	-0.010843772
3	0xbc98376b	-0.018581113
4	0x3cb1de7b	0.021712532
5	0x3c38bbf4	0.01127528
6	0x3ca1e294	0.019761361
7	0xbb8940dc	-0.00418864
8	0xbcd794b1	-0.026316019
9	0xbc30f5c4	-0.010800783
10	0xbc41db9e	-0.011832146
11	0x3c0c4d11	0.008563296
12	0x39f577b5	0.0004681923
13	0xbcf9d66a	-0.030497748
14	0xbd2d965e	-0.04237973
15	0x3ca6ea1c	0.020375304
16	0xbd3dee47	-0.046369817
17	0xbb664297	-0.0035134905
18	0x3ae983e1	0.0017815792
19	0x3c34df63	0.011039588
20	0xbbcb579c	-0.006205512
21	0x3c0c64c2	0.008568944
22	0xbcec8ad9	-0.028874801
23	0x3b4cc9c7	0.0031248198
24	0xbca3c9a7	-0.019993616
25	0x3c856492	0.016283307
26	0xbccd6d20	-0.025076449
27	0x3c478ec0	0.01218003
28	0xbc1c27f9	-0.009531015
29	0x3cf33ded	0.029692614
30	0xbacf5d92	-0.0015820733
31	0xbd06bd9d	-0.032895673
32	0x3cfdf1d7	0.030999107
33	0x3c1f5294	0.009724278
34	0x3ccba62e	0.024859514
35	0xbc612611	-0.013741986
36	0x3af9b65b	0.0019051539
37	0x3d0456b1	0.032309238
38	0xbc340618	-0.010987781
39	0x3caff3d0	0.021478564
40	0xbcebb751	-0.028773936
41	0xbcc6c77f	-0.024265049
42	0xbc460f7e	-0.012088655
43	0xba48f36f	-0.0007665669
44	0x3b640270	0.0034791492
45	0xbc92b288	-0.017907396
46	0xbc5ac64c	-0.013352942
47	0xbc714ff1	-0.014728532
48	0x3d142a90	0.036173403
49	0x3cdbb2d7	0.026818676
50	0xba273404	-0.00063782954
51	0xbc2138f6	-0.009840241
52	0x3a3ef47b	0.0007284355
53	0x3cf01aa4	0.029309578
54	0xbc867dbe	-0.01641738
55	0xbcde8af1	-0.027165862
56	0xbba68169	-0.005081345
57	0x3d35aeb9	0.04435608
58	0xbaf22664	-0.0018474576
59	0x3cdff344	0.027337678
60	0x3c990068	0.018676952
61	0xbc363fcf	-0.011123612
62	0xbba56ea7	-0.005048591
63	0x3b601c0b	0.0034196402
64	0x3bbed86b	0.005824139
65	0xbcb03a43	-0.021512156
66	0x39a7de9c	0.0003201858
67	0x3d4cdd53	0.05001576
68	0x3be6e13a	0.007045892
69	0x3cb84cbf	0.022497533
70	0xbc855623	-0.016276425
71	0xbc9c76fe	-0.019099709
72	0xbb87f59c	-0.004149152
73	0xbcc76b2d	-0.024343098
74	0xbca2762f	-0.019831745
75	0xbcc78f0e	-0.024360206
76	0x3cabc288	0.020966783
77	0x3b34c577	0.0027583519
78	0xbc8dc48e	-0.017305639
79	0xbca22b3a	-0.019796003
80	0xbbe5dd15	-0.0070148804
81	0x3c8096d3	0.015696919
82	0xbbaeb674	-0.0053318087
83	0xbbfe765b	-0.007765574
84	0x3d21f61a	0.03954134
85	0xbc82898c	-0.015934728
86	0x3b037fe5	0.0020065245
87	0x3c8698df	0.016430316
88	0x3cc0c1e6	0.023529958
89	0x3c6f4c27	0.0146055585
90	0xbc035803	-0.008016589
91	0xbb4f59ef	-0.0031639298
92	0xbcd09b96	-0.025464814
93	0x3a27c2cf	0.0006399573
94	0xbbe12c11	-0.006871708
95	0x3a8014d1	0.0009771829
96	0x39e0a64c	0.0004284851
97	0xbc8f7ea4	-0.017516442
98	0xbc6db8bf	-0.014509379
99	0x3c7e68b0	0.015527889
100	0xbb038ac2	-0.002007172
101	0xbcbd228c	-0.023087762
102	0x3c017e6b	0.007903676
103	0x3bedabbb	0.007253138
104	0xbb815a79	-0.0039475528
105	0x3c03586c	0.008016687
106	0x3b404349	0.002933698
107	0x3c9b1d66	0.018934917
108	0x3c9ca4ea	0.019121606
109	0x3c300a0e	0.010744585
110	0xbcd987b0	-0.026553959
111	0x3b23ad25	0.0024975028
112	0xbbafc687	-0.0053642425
113	0x3b2ed3a5	0.0026676443
114	0xbd39ea4f	-0.04538947
115	0xbaa6c03e	-0.0012722088
116	0x3c5ac4b7	0.013352565
117	0x3cb5da49	0.022198813
118	0xbb5c1c5d	-0.0033586242
119	0x3d16fbb0	0.03686112
120	0x3cd6363e	0.026148912
121	0xbbe9c350	-0.007133879
122	0x3d563916	0.052300535
123	0x3d288b14	0.04114826
124	0xbd155637	-0.036459174
125	0xbc939040	-0.01801312
126	0x3b9cb87b	0.004782734
127	0x3b24f4b0	0.002517026
128	0xbcf6d9df	-0.030133186
129	0x3ce87591	0.028376373
130	0x3c7e018f	0.015503301
131	0xbc3057e7	-0.010763145
132	0x3ce1930e	0.027535941
133	0xbb84dcda	-0.004054648
134	0x395a51a8	0.0002082052
135	0xbc8f8f01	-0.017524244
136	0x3c1b0a22	0.009462865
137	0x3c6740cd	0.014114571
138	0xbca9e89a	-0.020740796
139	0xbcaf5ca2	-0.021406475
140	0x3cb98e7e	0.022650953
141	0x3c65f3a1	0.014035136
142	0x3c2561f5	0.010094156
143	0xbbf7f9a3	-0.007567601
144	0x3ca4d62d	0.020121658
145	0xbbfff13c	-0.00781074
146	0xbcfdb2d8	-0.030969068
147	0x3ccdf41a	0.02514081
148	0x3c9da42f	0.019243328
149	0xbbd02996	-0.0063526137
150	0xbc47b60d	-0.0121894
151	0x3c092430	0.008370444
152	0x3c1dc32c	0.009629052
153	0x3a607908	0.0008562957
154	0xbc004be3	-0.007830593
155	0x3c06400a	0.008193979
156	0xbcc8f1cf	-0.024529366
157	0xbca8540a	-0.020547885
158	0xbd036798	-0.032081217
159	0xbca152e6	-0.01969285
160	0xbbd96fba	-0.0066356333
161	0x3d0b369b	0.033987623
162	0xbd17608a	-0.0369573
163	0xbb8b7fee	-0.0042571938
164	0xbc49a9c5	-0.012308543
165	0xbca8c00a	-0.020599384
166	0xbc75f0b1	-0.015010999
167	0xbbd8e6fd	-0.006619333
168	0x3cc2f354	0.023797669
169	0xbb179411	-0.0023129026
170	0xbd4f4c8c	-0.05061011
171	0xbbd98d9e	-0.0066391965
172	0xbc439d9f	-0.011939435
173	0xbc459fbf	-0.012062012
174	0x3c99f708	0.018794551
175	0x3cc263c1	0.023729207
176	0xbcb8ce2a	-0.022559244
177	0x3ce47224	0.027886458
178	0xbbcc36b9	-0.0062321094
179	0xbca6b92b	-0.020351967
180	0x3c7ee5a1	0.0155576775
181	0x3b968b20	0.0045942217
182	0x3c381cb8	0.011237316
183	0x3bb5113f	0.0055257375
184	0x3bcebd44	0.0063091833
185	0x3cc93d3c	0.024565332
186	0x3cf6058b	0.03003194
187	0x3b85b415	0.0040803053
188	0x3a6653d3	0.00087862945
189	0xbd4bc04b	-0.04974393
190	0x3b98c3dd	0.0046620206
191	0x3bff8c0f	0.0077986787
192	0xbc9066ce	-0.017627146
193	0xbcd67c8c	-0.026182435
194	0xbc0304da	-0.007996762
195	0x3cb6fd99	0.022337722
196	0x3d02dc7d	0.031948555
197	0x3bb84928	0.0056239553
198	0xbaccd10d	-0.0015626267
199	0xbb276998	-0.0025545117
200	0x3c08b2cb	0.008343409
201	0x3c4cf023	0.012508425
202	0xbb939990	-0.00450439
203	0xbbdc6757	-0.0067261863
204	0xbcc767c4	-0.024341471
205	0xbb980f1d	-0.0046404735
206	0xbcaa7a6c	-0.020810328
207	0xbbb51096	-0.005525659
208	0x3b389801	0.0028166773
209	0xbc3bf2a7	-0.011471427
210	0x3c439bab	0.01193897
211	0x3c8ef80b	0.01745226
212	0x3b81a2fb	0.0039561964
213	0xbc4322a1	-0.011910112
214	0xbbf74cff	-0.0075470204
215	0xbc05a760	-0.008157581
216	0xbcc25820	-0.023723662
217	0x3cfdf6a3	0.031001395
218	0x3c8435e1	0.016138973
219	0x3c04bb40	0.0081012845
220	0xbd303d57	-0.04302725
221	0xbc4e2b9d	-0.01258364
222	0xbc2d15de	-0.010564296
223	0xba6bef97	-0.000900024
224	0x3c3747ee	0.011186583
225	0x3b8fef32	0.004392528
226	0xbbb3beaa	-0.0054853754
227	0x394c9895	0.00019511797
228	0x3b587abf	0.0033032147
229	0xbca6dc63	-0.02036876
230	0xbc641dc8	-0.013923116
231	0xbcd4028c	-0.02588012
232	0x3c88e1c2	0.016709212
233	0x3adb8fab	0.001675119
234	0x3c7e3959	0.015516602
235	0x3bb4aec2	0.005513997
236	0x3c8ad45f	0.01694697
237	0xbc9e5131	-0.019325824
238	0x3c031044	0.0079994835
239	0x3ce4139f	0.027841387
240	0xbbc741c6	-0.006080839
241	0xbaabfdec	-0.0013121939
242	0xbb928228	-0.0044710822
243	0xbca5fe57	-0.02026288
244	0x3c14def7	0.009086362
245	0xbc09c6df	-0.008409231
246	0x3c8971ec	0.016777955
247	0x3b81d32c	0.003961941
248	0x3cc470d9	0.023979591
249	0xb9faf968	-0.00047869538
250	0xbaa63995	-0.0012681956
251	0x3c212811	0.009836213
252	0xbbe548b2	-0.0069971913
253	0x3bcc7974	0.0062400643
254	0xbc1a3bb1	-0.009413646
255	0x3cc67fc9	0.024230855

bias f4 [24]
0	0x37f4542b	2.912626e-05
1	0x3becb467	0.007223654
2	0x394259d1	0.00018534741
3	0x3bf2611a	0.0073968293
4	0x3ab0d281	0.001349047
5	0x3c044449	0.008072921
6	0x3c04c864	0.0081044175
7	0x3b592cf1	0.003313836
8	0x3a2a24ab	0.00064904493
9	0x3ba403a1	0.0050053154
10	0x3b8f989c	0.004382206
11	0x3b243c36	0.0025060303
12	0x3ba6bef6	0.0050886823
13	0xbaff36b6	-0.0019471261
14	0x3bf41ea9	0.007449944
15	0x3bf21c85	0.0073886537
16	0x3bf04484	0.0073323864
17	0x3c00f28b	0.007870327
18	0x3bfb4804	0.007668497
19	0x3bb22236	0.005436207
20	0x3bf3b6a3	0.0074375435
21	0x3be8ac98	0.007100653
22	0x394ce00c	0.0001953842
23	0x3bcce628	0.0062530227

weight f4 [12, 24, 3, 3]
0	0xbcd86105	-0.02641345
1	0xbc108c84	-0.008822564
2	0xbc6de194	-0.014519114
3	0x3c31a864	0.01084337
4	0xbc62e0a3	-0.013847503
5	0x3cd8436b	0.026399335
6	0x3c04cf26	0.008106029
7	0xbc9e9431	-0.019357773
8	0x3c85b3eb	0.016321143
9	0x3ba382ed	0.004989973
10	0x3d180e10	0.037122786
11	0x3c83093b	0.015995612
12	0x3c50d9c6	0.012747234
13	0x3c83fbee	0.01611134
14	0xbb395f8f	-0.0028285717
15	0x3d67f0b4	0.056626037
16	0x3d088167	0.033326533
17	0x3c8b4ee7	0.017005397
18	0x3cb0e410	0.021593124
19	0xbd246966	-0.04013958
20	0x3bc3a2b4	0.0059703235
21	0x3ca2fd08	0.019896045
22	0xbd317788	-0.043326885
23	0x3bc551d8	0.0060217194
24	0xbc1e33d9	-0.009655916
25	0x3d2fae5d	0.042890895
26	0x3c701ac1	0.014654816
27	0x3ce43301	0.027856352
28	0x3be11a2e	0.006869576
29	0x3d44920c	0.047990844
30	0x3cb71f42	0.022353772
31	0x3c6e3446	0.01453883
32	0x3d15819f	0.03650057
33	0xbc333aa4	-0.010939274
34	0x3b8aa68c	0.0042312797
35	0xbd433133	-0.047654342
36	0x3be09df6	0.006854768
37	0x3c12320f	0.008923068
38	0x3c93cec8	0.018042937
39	0x3cba1a02	0.02271748
40	0xbabe85e4	-0.0014535752
41	0x3d0e04fa	0.034672715
42	0x3cddb1c3	0.027062302
43	0x3b111321	0.0022136646
44	0xbccaa758	-0.024737999
45	0x3ccaf89d	0.024776751
46	0x3d1cfee7	0.03832903
47	0xbbfe41bc	-0.007759301
48	0x3c5d9d67	0.013526297
49	0xbc386dc3	-0.011256638
50	0x3d76fd7f	0.060300346
51	0x3bde3d6c	0.0067822244
52	0xbb465881	-0.0030265155
53	0x3d412d73	0.047162484
54	0x3a2a42c7	0.0006494936
55	0x3d02d607	0.031942394
56	0x3d0b5f4c	0.03402643
57	0xbc500d64	-0.012698505
58	0xbca51580	-0.020151854
59	0x3bb4f449	0.005522285
60	0x3cb5d8ba	0.02219807
61	0xbc93e2a8	-0.018052414
62	0x3cb12087	0.021621956
63	0xbb8409f4	-0.004029507
64	0x3cad42ba	0.021149982
65	0x3bd3046b	0.0064397356
66	0xbba33a60	-0.004981324
67	0x3c0ca712	0.008584755
68	0xbca83934	-0.02053509
69	0xbcb89fd3	-0.022537148
70	0x3d0147cf	0.031562623
71	0x3ab608a5	0.0013888074
72	0xbcbcdb56	-0.023053806
73	0x3ceb3ebe	0.028716441
74	0x3ccd570a	0.025065918
75	0x3c9052b4	0.01761756
76	0x3bb59aa5	0.0055421167
77	0x3c4e5d25	0.01259545
78	0x3d0466d3	0.032324623
79	0xbcb39569	-0.02192183
80	0x3cf6be10	0.030119926
81	0xbb4a5bb9	-0.0030877425
82	0x3c5e74bc	0.013577636
83	0x3cb1f8bc	0.021725051
84	0x3c128df9	0.008944982
85	0x3bcb2b3b	0.006200222
86	0xbbde6815	-0.00678731
87	0xbccf4cf6	-0.025305253
88	0xbbe62cdd	-0.007024391
89	0xbb73dd76	-0.0037210858
90	0xbb0e05a7	-0.002167085
91	0x3c373677	0.011182419
92	0x3c0b5925	0.00850514
93	0x3bbcc507	0.005760792
94	0x3cd8a506	0.026445877
95	0xbbde4649	-0.006783281
96	0x3c66f058	0.014095388
97	0xbc981759	-0.01856582
98	0xbc81c3cd	-0.015840435
99	0x3cae69a5	0.02129061
100	0xbc9584f5	-0.018251875
101	0x3cab7735	0.020930866
102	0x3d309c9b	0.0431181
103	0xbce93ee9	-0.02847238
104	0xbc0b5815	-0.008504887
105	0xbc64a8d9	-0.013956272
106	0xbd0e10a0	-0.034683824
107	0x3b8b28c0	0.004246801
108	0x3cd3d979	0.025860535
109	0xbccdf311	-0.025140317
110	0xbc99e98d	-0.018788124
111	0x3d24f363	0.040271174
112	0x3c9bd26a	0.019021232
113	0x3be2ba3d	0.006919174
114	0x3c01c17e	0.007919667
115	0x3d18ff2c	0.037352726
116	0x3cb3d228	0.021950796
117	0xbc9bffbc	-0.019042842
118	0xbd055bf9	-0.032558415
119	0xbbda7838	-0.006667163
120	0x3cb9daad	0.02268728
121	0xbc908438	-0.017641172
122	0x3cfe6eef	0.031058757
123	0x3c274526	0.010209357
124	0xbc7cddcc	-0.01543374
125	0xbbe5d663	-0.0070140823
126	0x3c9738a0	0.018459618
127	0x3c768b53	0.015047866
128	0x3d279573	0.04091401
129	0xbc318dff	-0.010837077
130	0xbc84cfc5	-0.016212353
131	0x3c279f56	0.01023086
132	0xbca1f6b8	-0.019770965
133	0x3c6648a5	0.014055406
134	0x3ccd0e33	0.025031185
135	0xbb8591d8	-0.004076224
136	0x3b6185f3	0.0034412115
137	0x3d1927ab	0.037391346
138	0x3be53b21	0.006995574
139	0x3ccefeeb	0.025268039
140	0xbc0f2c81	-0.008738638
141	0x3cf28315	0.02960352
142	0x3ca076c8	0.01958789
143	0x3d65ad2f	0.056073364
144	0xbc5a088b	-0.013307701
145	0x3c87e439	0.016588317
146	0x3caecdb2	0.021338318
147	0xbc22dc8d	-0.009940279
148	0xbb852d60	-0.004064247
149	0x3d0f0fdc	0.034927234
150	0x3d1a0f8a	0.037612475
151	0x3d23dfeb	0.040008467
152	0xba27e6d3	-0.000640494
153	0x3c7d4f5c	0.015460815
154	0x3c0bb307	0.00852657
155	0x3cb051cf	0.021523384
156	0x3be90b9d	0.00711198
157	0xbc010773	-0.007875311
158	0x3cc3fd17	0.023924394
159	0x3c61906a	0.013767341
160	0x3d1166d3	0.03549845
161	0xbd012ed2	-0.031538792
162	0x3cd40c5a	0.025884796
163	0x3b1274d4	0.0022347467
164	0xbb887be8	-0.0041651614
165	0xbc68b30b	-0.014202843
166	0x3c8487bf	0.01617801
167	0xbcb9c27f	-0.02267575
168	0x3d0a7e9a	0.033812143
169	0x3c99626e	0.018723693
170	0x3cc1f925	0.023678372
171	0x3d44afec	0.048019335
172	0x3cc29614	0.023753203
173	0x3b416197	0.002950763
174	0x3d26c854	0.04071839
175	0x3c5ba39e	0.013405709
176	0x3b7ca7ac	0.0038552089
177	0xbc6b0419	-0.014344239
178	0xba506279	-0.0007949244
179	0x3be4e315	0.006985078
180	0x3cc5a05a	0.024124313
181	0xbb8a2c71	-0.0042167236
182	0x3b6e3f55	0.0036353667
183	0x3c8c981c	0.017162375
184	0x3c44bf6b	0.012008528
185	0xbc1c9660	-0.009557337
186	0x3c2c175f	0.010503619
187	0x3d1bc917	0.03803357
188	0x3c650f17	0.0139806485
189	0x3cc4618c	0.023972295
190	0x3bb76210	0.0055964068
191	0x3cc2f776	0.02379964
192	0x3c8d2754	0.017230667
193	0x3cb12da5	0.02162821
194	0x39e6cec4	0.0004402307
195	0x3bc46838	0.005993869
196	0xbc4751ae	-0.01216547
197	0x3ca120ff	0.019669054
198	0xbd1c3789	-0.0381389
199	0x3c085d63	0.008323046
200	0xbbac2cc2	-0.005254359
201	0x3c213f14	0.009841699
202	0x3a736362	0.00092845235
203	0x3ca40f42	0.020026807
204	0x3d307d64	0.04308833
205	0xbbd48acf	-0.006486274
206	0x3b353a03	0.0027652986
207	0x3ca54df6	0.020178776
208	0x3c4497b3	0.011999059
209	0xba5cc10e	-0.00084211014
210	0xbc54128a	-0.012943873
211	0x3cd453c3	0.025918847
212	0x3d075ecf	0.0330494
213	0x3ac4c72d	0.0015012972
214	0xbd17d551	-0.03706867
215	0x3d04224c	0.03225927
216	0xbc816cd2	-0.01579896
217	0x3c162042	0.009162964
218	0xbc8d3037	-0.017234905
219	0x3c85e659	0.01634519
220	0x3b5f096a	0.003403271
221	0x3c2d6128	0.010582246
222	0x3c60a496	0.013711115
223	0x3cc71738	0.024303064
224	0x3cae60bd	0.021286363
225	0x3be6c621	0.007042662
226	0x3c8423b4	0.016130306
227	0x3d173915	0.036919672
228	0x3c89b073	0.01680777
229	0x3d2b0fb5	0.041763026
230	0x3ce57919	0.028011845
231	0x3c88ad32	0.016684148
232	0x3c76bcfe	0.015059708
233	0xbcbfb3bd	-0.023401136
234	0x3d0e2866	0.034706496
235	0x3c4744e1	0.012162418
236	0x3c60e32a	0.013726035
237	0x3b7971cc	0.0038062213
238	0x3cc7e88e	0.024402883
239	0xbc1731e8	-0.009228207
240	0xbc511ba6	-0.01276294
241	0x3bc45c87	0.0059924754
242	0x3b695af8	0.00356072
243	0x3d089c84	0.03335239
244	0x3c8f87a8	0.01752074
245	0xbc8e46de	-0.017367776
246	0x3c2876a8	0.010282196
247	0xbc08c2b3	-0.008347201
248	0xbcc807cb	-0.024417778
249	0x3cd62d9e	0.026144799
250	0xbc4cc4d5	-0.0124981
251	0x3d169080	0.0367589
252	0xbcb7428f	-0.022370605
253	0x3c9a6d6b	0.018851003
254	0xbcd7da2f	-0.026349155
255	0x3cf6c5c5	0.0301236

bias f4 [12]
0	0x3bdc9a88	0.0067322887
1	0x3be3e481	0.00695473
2	0x3bdbfe2c	0.0067136493
3	0x3bedfc65	0.007262754
4	0xbb337ad7	-0.002738645
5	0xba31802f	-0.0006771115
6	0xbb772c1b	-0.0037715498
7	0xba63860e	-0.00086793385
8	0x3ba3f3ec	0.005003443
9	0x3bb109d8	0.005402785
10	0x3b99e8bf	0.004696935
11	0x3bbf85ae	0.0058447933

weight f4 [3, 3, 1, 1]
0	0x3cb1dff1	0.021713229
1	0x3bc13619	0.0058963415
2	0x3b9b973d	0.0047482536
3	0x3d2e4f3d	0.042556036
4	0x3befd000	0.0073184967
5	0x3d0ca9b8	0.034341544
6	0x3d0e4578	0.03473422
7	0xbcdcf6e7	-0.026973201
8	0x3bf012b4	0.0073264483

bias f4 [3]
0	0x3c143f89	0.009048351
1	0x3b9b66d9	0.004742485
2	0x3bf5c2ba	0.00750002
