trained_model/model_demo.pkl (torch, 111247 bytes, 8 tensors)

weight f4 [64, 3, 5, 5]
00000000: b497 b43c dc8a 3c3d bcd3 973c 52e0 e33c
00000010: ec4b 35bc 285b ca3c bdda ac3d 9ab0 c83d
00000020: 5d62 b93d 8410 e73b 252d ca3c 9e6a a43d
00000030: ab94 a93d 8db6 2d3d 398a 7a3c 093e 35bc
00000040: ed58 5c3d 226f 9abc a2ae 7fbb 0d6a ecbc
00000050: 5e7b 5c3d d847 683c 5eb6 fabb 6855 0fbc
00000060: 7b59 3fbb 9ee1 25bc 6b02 223d d41c 053d
00000070: feea 863c 6e98 51bb ff2c a73c 96aa 763d
00000080: 29ea ab3d 219c 683d c578 953c 9354 2f3d
00000090: 695d 8a3d cdf2 783d 82ac 7d3c c350 df3b
000000a0: e9c6 283d b977 713d e133 a23c 724a 8cbd
000000b0: 06e0 a5bc a5e5 0f3d 2161 e8bc 47f3 e2bc
000000c0: 4213 48ba 2fdf f9bc 7ca2 033d b05f 613d
000000d0: b008 033c 75d2 bf3c 8551 2a3c 78a4 f33c
000000e0: 6c20 a23d 42f5 5a3d 871e 8b3d 16a3 393d
000000f0: 5264 623d 0068 893d cdbc 963d 28d5 2a3d
00000100: 0c1f 203d 45f2 fc3c 2a15 e83c b4c3 75bc
00000110: 3f6f 913b fd5d 3abd e36f 5b3c 58d3 c33c
00000120: c70d f0bb 461a 0bbd 6056 c6bb c28f 68bd
00000130: dd2f 49bd fc4a 24bd 0213 13bd 70e4 27bd
00000140: 18d6 02bd 3519 2ebd 8d0b f5bc 9c55 82bd
00000150: a24d 56bd 99ae 5ebd 480c 23bd 7481 13bd
00000160: 243a d6bb d397 40bc 000c 4ebd 4685 093c
00000170: 7e4b c1bc 658d 25bd b402 a33b f6b8 92bc
00000180: 792a 8f3c d40a 8c3b 2d8f f1bc 6d60 14bd
00000190: 3437 16bd 9587 89bd 6ccd 62bd 2cbe 64bd
000001a0: acdc abbd 2a27 42bd d3c8 d3bc f186 e6bc
000001b0: ce2d 59bd 32ea 49bd e60d b1bc 0216 2bbd
000001c0: 575d f5bc 4bb1 0ebd ab5b 2abd 8edf 13bd
000001d0: 92fc cc3c e5ea 4ebb 7fdb e3bc 3ff9 16bd
000001e0: 7fa4 50bd 5e58 c93c 29cb e2bc 9025 183c
000001f0: cb6f a3bb 5577 dcbc 509a acbc 77b6 20bc
00000200: 88f9 543a 2940 e6bc a1ca 54bd ed87 9dbc
00000210: 6a72 82bd 1b36 23bd dc60 64bd d046 fdbc
00000220: b752 8dbd f0f6 edbc c591 cdbc d24d e2bc
00000230: 0fb7 cebc f455 3b3c a770 70bc 9952 50bd
00000240: fb4f 81bd d905 fcbc f5ab fa3b 232f 79bb
00000250: a36d 2fbc 0928 35bd b58a 4ebd fde4 c4bd
00000260: ea13 97bd 6f78 a7bd 9794 89bd 1fab b4bd
00000270: 6547 b5bd 253a 4bbd 7a59 a1bd f90e 63bd
00000280: a704 64bd 15a6 3bbd d299 87bd da90 43bd
00000290: 1057 60bd 8576 86bd 7c5c ae3b 8c83 f7bc
000002a0: 372c 49bd 814f 71bd 7277 9fbd 71ad 6ebd
000002b0: 1c71 8abd 355b 2dbd 2843 43bd 5b9d bfbd
000002c0: 31af 4fbd 2a84 9fbd ad5f 64bd b281 80bd
000002d0: abb4 96bd 0aaf 8abd f1ce 84bd 5c71 1dbd
000002e0: 6ca8 3fbd 2c31 b6bc cfb0 81bd 9605 68bd
000002f0: 8e5d 9cbd 0b5c 52bd 5745 abbd d943 8abd
00000300: 761b a7bc 98f4 2ebd 3e3a e9bc 2736 63bd
00000310: d2c3 2ebd e682 a4bd 9146 43bd 4a8e 44bd
00000320: f9c9 a0bd 6b1a 83bd 5005 18bd 59ef 34bd
00000330: 803e 17bd b068 8dbd 1807 07bc 75d2 38bd
00000340: c58b 72bd d881 42bd cba7 81bd 88ab dabd
00000350: 83c7 53bd 229d d3bd 386f a7bd e7c6 54bd
00000360: 9b2a 13bd a08e 7ebd 7abb 89bd 793f 97bd
00000370: 11fe 51bd e4e1 f6bc 05c3 6bbc 09b7 30bd
00000380: 786c 18bd 1697 9b3c 1f25 4f3d da5a 513c
00000390: 606f 573d 4ee2 673d 310c 1abb cb22 1dbd
000003a0: e8b0 1ebc af12 213d a0f4 d33d fadb b8bd
000003b0: beb6 73bd 0192 82bc c442 d03c 6a29 793d
000003c0: 2968 ffbb d59c e2bd bb81 81bd c7ca c0bb
000003d0: 70d1 bc3c 47d8 9d3c 4974 69bd c691 77b9
000003e0: 3133 b4bc e4a5 4b3c ce2b 243d e834 3d3c
000003f0: 6056 1b3d a0c9 293d 9135 873d 79b5 22bd
0.022044994 0.046030864 0.01853358 0.027816925 -0.0110654645 0.02470167 0.084401585 0.09799309
0.090519644 0.0070515294 0.02467973 0.08028148 0.08280309 0.042410422 0.015291744 -0.011062154
0.053795744 -0.01885182 -0.0039014001 -0.028859163 0.05382859 0.014177285 -0.0076511344 -0.00874839
-0.0029197622 -0.010124592 0.039553087 0.032498196 0.016469475 -0.0031981724 0.020407198 0.060221277
0.08394272 0.05678952 0.018246064 0.042805266 0.06756098 0.060778428 0.015483024 0.0068150475
0.04120532 0.058952067 0.019800128 -0.06850137 -0.020248424 0.035131115 -0.028366627 -0.027703894
-0.0007632264 -0.03050193 0.03213738 0.055022895 0.007997677 0.023415783 0.010395412 0.02974151
0.0791634 0.053456552 0.06792932 0.045321546 0.055271454 0.067092896 0.0736023 0.041707188
0.03909211 0.030877242 0.028330404 -0.015000273 0.0044383104 -0.04549979 0.013393375 0.023904487
-0.007325861 -0.033960603 -0.006052777 -0.056777723 -0.04911791 -0.040110573 -0.0359068 -0.04098934
-0.031942457 -0.042504508 -0.029912734 -0.06363985 -0.05232013 -0.054365728 -0.039806634 -0.036012128
-0.0065376926 -0.011754948 -0.050304413 0.008393591 -0.023595568 -0.040418047 0.0049746875 -0.017910462
0.017476307 0.0042737518 -0.029487217 -0.03622477 -0.03667374 -0.06715313 -0.055371687 -0.055845425
-0.08391699 -0.04740063 -0.025852596 -0.028140517 -0.0530222 -0.04929561 -0.021613073 -0.041769035
-0.029951734 -0.03483705 -0.041591328 -0.03610187 0.025022779 -0.0031573114 -0.027814625 -0.036858793
-0.050938126 0.02457827 -0.027684765 0.009286299 -0.004987692 -0.02691237 -0.021069676 -0.009809128
0.0008124341 -0.028106766 -0.051951054 -0.019229854 -0.06369479 -0.03984652 -0.055756435 -0.030917555
-0.06900542 -0.029048413 -0.025093922 -0.027624998 -0.025233774 0.011434067 -0.014675296 -0.05086002
-0.06314083 -0.030764507 0.0076498934 -0.003802248 -0.010707292 -0.044227634 -0.05042525 -0.096139885
-0.07376845 -0.08177268 -0.067177944 -0.08821701 -0.08851508 -0.049615998 -0.078783944 -0.0554342
-0.0556685 -0.045812685 -0.06621136 -0.047745563 -0.05477053 -0.065655746 0.0053210836 -0.030214094
-0.049114432 -0.05891371 -0.07786454 -0.058270875 -0.06759855 -0.04232331 -0.047671467 -0.09356185
-0.050704185 -0.0778888 -0.055755306 -0.062747374 -0.073586784 -0.06771667 -0.064847834 -0.038438186
-0.04679148 -0.022240244 -0.06332552 -0.056645952 -0.07635032 -0.05135731 -0.08362835 -0.06751222
-0.020398837 -0.04271373 -0.028470155 -0.055471566 -0.042667218 -0.080327794 -0.04767472 -0.04798726
-0.07851023 -0.06401523 -0.03711444 -0.044173572 -0.03692484 -0.06904733 -0.008241437 -0.045122582
-0.059215326 -0.04748711 -0.06330832 -0.10677248 -0.05170394 -0.10332705 -0.0817551 -0.0519475
-0.035929304 -0.062147737 -0.067252114 -0.07385153 -0.051267687 -0.03013701 -0.014389758 -0.043143306
-0.03721282 0.018992942 0.05057251 0.012778008 0.05259645 0.056612305 -0.0023505802 -0.03836326
-0.009685732 0.03932446 0.10349393 -0.09026332 -0.05950045 -0.01593876 0.025422461 0.06083051
-0.0077943993 -0.110650696 -0.06323572 -0.005883548 0.023049086 0.019268168 -0.056995664 -0.0002361006
-0.021997066 0.012429688 0.040080838 0.011548258 0.03792417 0.04145205 0.06602014 -0.039723847

bias f4 [64]
00000000: b3c2 43be ba7e 2abd b7e4 5f3d a1bc 7e3e
00000010: 20b7 3f3e ecff 873e 3e7d e1bd 6c93 793d
00000020: 947f 913e edea 733d 2a11 433e 1913 7a3e
00000030: 0b29 763d 521a 513e 497a 743d d6df 3fbd
00000040: 602f 87bd 3f04 5a3e f21a 733d 1a93 103e
00000050: 6f1b 573e 949e 713d 1323 75bd 8a19 47be
00000060: 1077 35be 9c86 bebd a713 f1bc 5b6e 11bd
00000070: 9346 733d 2151 72bd c6c1 493e edd0 163e
00000080: 6efb a13e cd30 74bd d94f 43bd efc1 d43d
00000090: 4f60 51bd e334 32bb 2b77 73bd 1e3d 853e
000000a0: 21f3 873e 2406 bd3d 7ae1 843d 76d0 39be
000000b0: 6c6a 753d c930 143e 8983 393e dcef 45be
000000c0: fd31 10bd 0929 4c3e e141 47be 4b2e 4fbe
000000d0: fc58 5f3d 1b40 753d 34ec 56be b3cd 743d
000000e0: 0f99 5f3e d576 4b3e 15ed a03e 2532 473e
000000f0: 0dad 47be dc3c 09bd bef5 57be 8d45 683e
-0.1911724 -0.041624762 0.05466148 0.24876644 0.187222 0.2656244 -0.11010216 0.060931608
0.28417647 0.059550215 0.19049516 0.24421348 0.060097735 0.20420197 0.059686933 -0.046844326
-0.06600833 0.21290682 0.05935187 0.14118615 0.21006559 0.058989123 -0.059847903 -0.19443336
-0.177212 -0.093030185 -0.029428316 -0.035505634 0.059393477 -0.0591594 0.19702825 0.14728136
0.31637138 -0.059616853 -0.04768357 0.103885524 -0.051117238 -0.0027192167 -0.05943982 0.2602319
0.2655268 0.09229687 0.06488319 -0.18145928 0.059915945 0.14471735 0.18116583 -0.1932978
-0.035203923 0.19937529 -0.19458725 -0.20232503 0.05452822 0.05987559 -0.20988542 0.059766483
0.21835731 0.1986955 0.3143088 0.19452722 -0.19499607 -0.033505306 -0.21089837 0.22682782

weight f4 [32, 64, 3, 3]
00000000: 7a5d 7ebc b311 1d3c 8f87 a7bc a7f9 19bd
00000010: 504d 3d3b b4e5 b4bc a272 56bc 3a23 8fbc
00000020: 5a42 55bd 3af8 ad3b 36f2 54bc 51cd bd3b
00000030: 77f1 f73c 4cee 3abc 471d cd3a 4c03 ac3c
00000040: 7ee9 98bc dc5f 13bc 3886 a0bb dadb 63bc
00000050: 3c11 853c fd0f 01bd a2a9 0cbd d3cc e7bc
00000060: aabf 54bc 4ab1 74bd 60a8 4fbd a73f 8cbc
00000070: ecea 2bbc 2b44 08bc 5592 a8bc 1806 023c
00000080: a5e1 ad3b 1bb2 54bd 02e1 dbbc 19e6 51bc
00000090: 30c4 01bd e12c 5d3c 5a3a e53b 9bfd cbba
000000a0: dd51 0dbc 4e0d b9bc 20a1 aebc ccfa 0dbd
000000b0: 252a 3abd 055b 39bd 9bfb 18bd 2752 bbbd
000000c0: ba0c dbbc 4481 bbba b5c0 48bd c99f 41bd
000000d0: ab97 03bd 73e9 34bd ddb2 a9bb e6e2 a9bc
000000e0: 4124 2dbc 2093 66bc 1d23 59b8 efaf 23bd
000000f0: 65d5 9b3c 8f56 c4bc ef2c d2bb 8517 8cbc
00000100: 6ba1 cbbb a432 79bd 9db3 68bd 1924 363b
00000110: 1f7e 36bd 1d28 febc 5935 cabc 6bc6 48bd
00000120: 2b42 6e3a cee7 c93c 872b 48bb a7a3 873c
00000130: fe1e 21bd 8dd6 bcbc ca4e 133d db91 ffbb
00000140: 19cf 0b3c 4879 8bbd 799a 19bd fe7c 92bc
00000150: af9b 533c de5e 46bd f2ed 6fbd 77b3 babc
00000160: a548 653c d4f2 cbbc 8b76 663c f056 14bc
00000170: cbea 20bd fb7a a5bc 8df0 093b ea9d 08bd
00000180: c166 0a3c 7749 bc3b 16ab 16bc 0b13 8abc
00000190: 088b ffbc ecde abbc 03dd 6ebc 5263 81bd
000001a0: 6478 d4b9 8704 28bd a491 e2bb 8163 00bd
000001b0: 1d8a 2739 a3ef afbc 7a37 adbc d6d6 04bd
000001c0: 229c 25bc 0c8d 6abd 3322 8fbc 2c20 1ebd
000001d0: 538d 55bd 29f0 dfbc f28d 7bbd c6f2 6bbd
000001e0: 6a1b 59bd f940 2dbd 8f8c 89bd c8c2 96bd
000001f0: e79f 08bd 6e31 ebbc 66e2 93bc b508 1c3b
00000200: 0dc4 0fbd 5ea4 fdbb 9283 8f3b a3a0 353b
00000210: 0a7c 2bbd cd93 c7bc d96b 12bd 4edf 363b
00000220: aa5b 00bc 3474 2d3c 4959 86bc d139 7cba
00000230: dbc8 bb3c 06fd 19bc 96d0 98bc b1ad 4bbc
00000240: 89b8 83bd 01d2 b2bc e70e 25bd a689 0fbd
00000250: f2ff 95bd f902 68bd fca3 e0bc 7919 6bbc
00000260: af23 3fbd 74f4 2bbd 2b72 44bd a26f 01bd
00000270: f5dd d2bc d7a0 e5bc a995 37bd d089 dfbc
00000280: 956a 60bd 3b2b f1bc dcb0 9ebc 7c6f 3abd
00000290: 544b 3bbd aad2 13bd 8544 9bbc 3000 5bbd
000002a0: c385 84bd 3b89 57bd a7c0 a8bd 3ff2 d93a
000002b0: e6fd ef3c b7e1 8bbb 07b1 023b d72d 493b
000002c0: 0f96 423b ba1f 2b3b 9f42 e73b 7296 47bc
000002d0: 6061 47bc 3633 27bd ace5 c4bc 0cbe 67bc
000002e0: addb 1fbd a406 a83c 42ca 3ebc 1b61 32bd
000002f0: b9aa c2bc 159d 5c3b 6274 723b b83c 34bd
00000300: 8340 a5bc 5085 c53c c3ad f2bc d6d7 8f3c
00000310: 0f65 5dbb 8881 eabc 0388 37bd 3ef3 fdbc
00000320: 308e 80bb 98cf 3e3a 3920 07bc 11db 22bc
00000330: cd79 ddbc b334 bcbc 2aab d0bc 3494 073d
00000340: 6b46 873c 61a9 4dbc aa9f 4abc 79e4 1a3a
00000350: c5e6 a63c d6d4 da3b 9b00 3e3c e56a 28bb
00000360: 5c40 4dbd 88d5 d0bb e769 28bd 16fa fcbc
00000370: 4c35 a5bc 7d2a 3abd d246 0dbd f407 e7bb
00000380: 93d4 08bd 891a 86bc 7554 ed3a 5d6a 03bc
00000390: 57ef 9ebc 9d7e 52bd b8f1 ebbb 8265 0cbd
000003a0: f9c9 23bd e16f 39bd d2d0 d13c 70fd 5f3c
000003b0: 3e88 443c 0d79 e1ba dd54 8d3c bf3c 07bc
000003c0: b4ef a53b c3d5 57bc 4f9f 1d3c 933e 7c3b
000003d0: d6fb d4bc 4d2e bd3c 53ee 2f3d b324 f93b
000003e0: 3103 63bd 4eee dbbc 449a 64bc 299b 5bbc
000003f0: 8b12 5db9 cb54 45bd 57dc 4cbc 0bb3 9dbc
-0.015525216 0.009586739 -0.020450382 -0.037591603 0.0028885193 -0.022082187 -0.013088854 -0.017472852
-0.05206523 0.005309132 -0.012997201 0.005792298 0.030266507 -0.011409353 0.0015648984 0.020997666
-0.018666025 -0.008995023 -0.0048988126 -0.013907397 0.01624357 -0.03150939 -0.034341462 -0.02829591
-0.012985149 -0.05973939 -0.050697684 -0.017120196 -0.010493021 -0.008317034 -0.020577589 0.007936023
0.00530644 -0.051927667 -0.02684069 -0.012811207 -0.03168124 0.0134994695 0.0069954814 -0.0015563251
-0.008625475 -0.022589352 -0.021317065 -0.034663007 -0.04545035 -0.04525282 -0.037349325 -0.09146529
-0.026739467 -0.0014305492 -0.049011905 -0.047271524 -0.032127064 -0.044167947 -0.005178793 -0.020738076
-0.010567726 -0.014073163 -5.1769533e-05 -0.039962705 0.019022653 -0.023967056 -0.006414048 -0.017101059
-0.006214311 -0.06083931 -0.056811918 0.0027792512 -0.044553872 -0.031024987 -0.024683641 -0.04901735
0.0009088839 0.024646666 -0.0030543522 0.016557528 -0.039336197 -0.023051525 0.03596381 -0.0077993697
0.008533263 -0.06810242 -0.037500832 -0.017881867 0.012915536 -0.048430316 -0.05857653 -0.022790654
0.013994371 -0.024896063 0.014066349 -0.009053931 -0.039286416 -0.020200243 0.002104792 -0.033353724
0.00844735 0.0057460624 -0.0091960635 -0.016854784 -0.031194225 -0.02098032 -0.0145790605 -0.06317772
-0.0004052549 -0.041019943 -0.0069143344 -0.031344894 0.00015977812 -0.021476572 -0.021144617 -0.032431446
-0.010108026 -0.05726342 -0.017472362 -0.0386049 -0.05213673 -0.027336197 -0.061414666 -0.057604574
-0.05300466 -0.04229829 -0.067162625 -0.0736137 -0.03335562 -0.028710093 -0.018052291 0.00238089
-0.035099078 -0.0077405414 0.004379698 0.0027714155 -0.04186634 -0.02436247 -0.035747383 0.0027904096
-0.007834354 0.010586787 -0.016399996 -0.00096216524 0.022922924 -0.009398704 -0.018654149 -0.012431548
-0.06431682 -0.021828653 -0.040297415 -0.03504338 -0.07324208 -0.05664346 -0.027421944 -0.014349335
-0.04666489 -0.041981176 -0.04796044 -0.031600602 -0.025740603 -0.028030796 -0.04482046 -0.027287394
-0.054789145 -0.02943956 -0.019371442 -0.045516476 -0.045726135 -0.036089577 -0.018953571 -0.053466976
-0.064708255 -0.052621108 -0.082398705 0.0016627981 0.029295873 -0.0042688507 0.0019941942 0.0030697489
0.0029691493 0.002611144 0.0070575024 -0.012181865 -0.012169212 -0.040820323 -0.024035297 -0.014144432
-0.03902786 0.020510979 -0.011644902 -0.04354964 -0.023763048 0.0033662964 0.003699564 -0.04400322
-0.020172363 0.02411142 -0.029623872 0.017558973 -0.003378216 -0.028626218 -0.044807445 -0.030999776
-0.0039232 0.00072788587 -0.008247429 -0.009939925 -0.027035618 -0.022974348 -0.025472242 0.033100322
0.01651307 -0.01255259 -0.012367168 0.0005908679 0.020373711 0.006678204 0.011596824 -0.002569848
-0.050110206 -0.006373111 -0.04111662 -0.030880969 -0.020167015 -0.045450676 -0.034491368 -0.0070505086
-0.03340585 -0.016370075 0.0018106835 -0.008020964 -0.019401236 -0.05139028 -0.007200446 -0.034276493
-0.039987538 -0.04527271 0.025612269 0.013671264 0.011995373 -0.0017202214 0.01725238 -0.008254229
0.005063975 -0.013173523 0.009620502 0.0038489446 -0.025998991 0.023093367 0.042951893 0.007603252
-0.055422965 -0.026847031 -0.013952795 -0.013403692 -0.0002108311 -0.048176568 -0.012503705 -0.019250413

bias f4 [32]
00000000: c147 70bd 8f7b 7c3e 6d20 973e a9cb 763d
00000010: af3f 753d 8898 0dbe 23c0 873e 20cb 723d
00000020: 7a28 69bd c5d6 543e 9e26 8d3e 8eae 8bbe
00000030: 736b 7f3e e177 8dbe bae9 8ebe 0ab9 c53d
00000040: 6b82 80be 7df3 3c3e 5bfb 73bd 51b6 753d
00000050: 6e6e 6f3d 7245 6b3e 9ddc 73bd 6aba b7bd
00000060: 897e 6abd c67c 953e 0531 37be 1fbe 8e3e
00000070: 05f3 64bd 1ae8 923e 2c0f 783e e994 5a3e
-0.05866218 0.24656509 0.29516926 0.06025282 0.059875187 -0.13827717 0.26513776 0.059275746
-0.056923367 0.20785053 0.27568525 -0.27281612 0.24943332 -0.27630523 -0.27912694 0.09654434
-0.250995 0.18452258 -0.059565883 0.059988324 0.058454923 0.2297571 -0.059536565 -0.089711025
-0.05724958 0.29196757 -0.17889793 0.27879426 -0.055895824 0.28692704 0.24224538 0.21345867

weight f4 [12, 32, 3, 3]
00000000: ea8a b7bb 8cfe bd3c 56ee e03c 3c96 98bc
00000010: 9bc8 73bc 6e35 883c bfa0 d63c cf84 463c
00000020: 0c3e a03a 2307 9a3d d185 943d bb07 473d
00000030: 649a 5f3d af72 a13d c76a 5d3d 8ec9 b03d
00000040: 3536 b83d e93a 103d abc4 d83c f6d0 7d3d
00000050: b8e6 5dbc 3183 f13d 7e41 0f3e 2b39 0b3d
00000060: fb71 783d abae cb3d ed70 34bb 927c ab3d
00000070: 1991 543d 4f1e 823d 9606 2a3d 30f3 633d
00000080: 6f71 293d 4262 8b3d eb9a 283d 9cee 213d
00000090: e7b3 7c3d c337 403d 04ba 7c3d 00ab 0f3c
000000a0: 9561 8b3d 646f 473d 600a 2b3d 7351 953d
000000b0: 91d6 5b3d 0fa3 23bd 61c4 22bd 6e0a f1bc
000000c0: 9283 1cbd f8d4 0cbc de7a 5dbd bd66 96bc
000000d0: 9b5e 0abd b0c4 dcbc 8ad5 bc3d 5c5c 063e
000000e0: ff00 713c e1eb 163e d854 0f3e d5da 443d
000000f0: 8b55 8f3d 68bb ab3d e95e 483d 4f75 ba3d
00000100: 9271 563d 9661 b13d d9fa 9e3d 6a31 853d
00000110: f408 193d 7a2c 0b3c 2eae b53d 1382 a63c
00000120: 700e e93c adac a9bb fc63 b03c 4ade 7f3d
00000130: 4923 a9bc 6ce2 cfbb f55c 8f3c 59b1 f73c
00000140: 760a f03c 9601 c23d 3cfb a53d 8525 863d
00000150: 847c b33d 8332 c63d 2ad8 293d f8b7 883d
00000160: b02b a33c 5a98 ee3c 6186 5b3d e2da de3d
00000170: 4e34 5f3d 3be2 b93d 88e9 f23d cc93 493d
00000180: ecbe e83c 0bb0 113c 7458 b33d 1144 c5bd
00000190: e3e9 dcbd 88ee 85bd fd8c e1bd e303 29be
000001a0: b0fa 75bd e23b e7bb 439e 42bd d1ae c4bb
000001b0: 97bc e43d 2820 043e 8951 d13d f62d d83d
000001c0: 6255 e93d 98a2 d53d 71f4 c93d 0972 ac3d
000001d0: a9a8 953d a6ae dabd 8f0d 08be 3a5b 18bd
000001e0: 2981 00be bb54 25be 3cdd d1bd 28c7 64bd
000001f0: 870b 5dbd 79e5 2a3c f277 fbbd 3268 14be
00000200: c070 a5bd 2bdb bfbd f0b1 c4bd 1091 1dbd
00000210: e29c 873d 2611 953b 96e0 fd3c 8206 f23d
00000220: f9f3 bd3d 4e9d d73d 8bb1 b73d 1ccf b73d
00000230: 327e bf3d ad46 793d 2f6b 783d d9e5 733d
00000240: 71b4 d3bd a5f4 a4bd 2ea5 83bc 0158 08be
00000250: 853c e8bd 78a6 3bba a838 2fbc 1ff0 41bd
00000260: 52da 8b3d fdeb 1d3d 6a67 0a3e 67b8 883c
00000270: b0fd 7b3d 5a3b 173e 8bef 063c 92af ebbb
00000280: b3b2 0b3d 8be7 38bd 7a7f 053d 9c77 9d3c
00000290: 1fa5 70bc 4fa6 373c 653f 833d 2331 c43b
000002a0: 9e53 8c3d 25b0 773d de69 d93c c1a6 9f3d
000002b0: 3070 613d daa8 a23d 3e23 133d a324 103d
000002c0: ce3e 5b3d 17b5 c03d 8582 703d 4297 5c3d
000002d0: ce01 5e3d a93b b53d 3d9d 963d da87 b03d
000002e0: 4786 a43d 1ee6 f43c 7627 933d 923a 3f3d
000002f0: 3f70 803d f7fb ae3d 86ff d53d 4625 943d
00000300: 18e3 a73d f45d c63d 9733 9d3d e564 5d3d
00000310: 5051 673d 52bc 853d 9ffe 943d 2317 563d
00000320: 743e 493d 6998 ae3d b5c9 5c3d 9c7c 733d
00000330: 2a6f a93d 2cc3 813d a1df 6f3d aad7 54bd
00000340: 4e87 a3bd 6d64 b4bd c04b adbd 7a7c e4bd
00000350: bf3c 32bd ae97 b1bd 08e4 97bd 140d a0bd
00000360: ba0b 83bc 970b f63b adc6 633c 14d8 b43c
00000370: 5e8b a63c 4d60 703c 82d2 18bd 4851 ec3b
00000380: 6f3a 59bc b0e0 ef3c 200e 353d d5ba 823c
00000390: 02ef bb3d cdb7 f23d f73a 573d 201e 713d
000003a0: c43d 833d 1b65 593d 723f d1bc f8ec 8ebd
000003b0: 45ad 1bbd 46fe 29bd 21d8 4bbd 9767 80bd
000003c0: 3caa 8a3c 7560 9abc 6c04 debc a5ba c33d
000003d0: 41b7 103e 11b1 f13c 72c1 f23d 07a6 1b3e
000003e0: 789c 873d 5d9e ad3d b8d4 da3d 0ceb 2a3d
000003f0: faf3 153b 5ae3 c13c 36d9 813c a551 acbc
-0.0056012766 0.023192666 0.027457397 -0.018626325 -0.014879371 0.01662704 0.026199697 0.012116625
0.0012225523 0.075208925 0.07252086 0.048591357 0.054590598 0.07883202 0.05405691 0.086321935
0.08994714 0.03521243 0.026460966 0.06196686 -0.013543777 0.11792601 0.13989827 0.033990066
0.060655575 0.09945425 -0.002753313 0.08373369 0.05189619 0.06353437 0.041510187 0.055651844
0.041367944 0.068058506 0.041163366 0.039534196 0.061695006 0.04692818 0.061700836 0.008768797
0.06805722 0.048690215 0.04175794 0.07290926 0.053671423 -0.039950427 -0.039738063 -0.029423919
-0.038211413 -0.008595698 -0.054072253 -0.018359536 -0.03378163 -0.026949257 0.09220417 0.1312117
0.01470971 0.14738418 0.13997209 0.048060257 0.06998738 0.08385354 0.04891864 0.09104406
0.052354403 0.08661191 0.07762689 0.065035656 0.037362054 0.008494491 0.08871113 0.020325696
0.028449267 -0.0051780553 0.021532051 0.06246785 -0.020646708 -0.0063441303 0.01750038 0.030235933
0.029301863 0.09472959 0.0810456 0.06550125 0.08763984 0.09677603 0.041465916 0.06675714
0.019918293 0.029125381 0.05359495 0.10881592 0.05449324 0.09076353 0.11860949 0.049213216
0.028411351 0.00889207 0.087571055 -0.09632123 -0.10786798 -0.06539637 -0.110132195 -0.16505389
-0.060053527 -0.007056699 -0.04751421 -0.006002285 0.11168783 0.12902892 0.1022063 0.10555641
0.113932386 0.10431403 0.098610766 0.08420188 0.0730756 -0.10677843 -0.13286422 -0.037196375
-0.1254927 -0.16145603 -0.10247275 -0.055853993 -0.05396607 0.010430687 -0.12278737 -0.14492872
-0.08078146 -0.09367975 -0.096042514 -0.03846842 0.0662172 0.0045491634 0.03099088 0.118176475
0.0927505 0.1052805 0.089694105 0.0897505 0.09350242 0.060858417 0.060649093 0.05954537
-0.10337151 -0.08054475 -0.016069975 -0.13314821 -0.11339668 -0.00071582897 -0.01069466 -0.047348138
0.06828751 0.038555134 0.13516012 0.016689492 0.061521232 0.14768735 0.008235822 -0.0071925605
0.034105968 -0.04514269 0.032592274 0.019222073 -0.014687805 0.011209085 0.06408576 0.005987303
0.06851886 0.06047072 0.02653974 0.07795478 0.05503863 0.07942362 0.03592228 0.03519119
0.053526692 0.0940954 0.058718223 0.05385519 0.05420094 0.0884927 0.073542096 0.08619662
0.08033424 0.029894885 0.07185261 0.046686716 0.06271409 0.08544152 0.10449128 0.07233672
0.081976116 0.09685889 0.076758556 0.0540513 0.05647403 0.0653006 0.072751276 0.05226816
0.049131826 0.08525164 0.0539033 0.05944501 0.08273156 0.06336054 0.05856288 -0.051963486
-0.07984792 -0.08808217 -0.08461714 -0.111565545 -0.043514963 -0.08671509 -0.074165404 -0.078149945
-0.015996803 0.007508706 0.0139023485 0.02207569 0.020330127 0.014671397 -0.03731013 0.007211838
-0.013258561 0.029281944 0.044202924 0.01595823 0.091764465 0.118514635 0.052546468 0.05886662
0.06408265 0.053074937 -0.025542948 -0.06978792 -0.03800704 -0.04150226 -0.049766663 -0.06269758
0.016926877 -0.018844822 -0.027101718 0.09557084 0.14132406 0.029503377 0.11853303 0.15200053
0.06621641 0.08477471 0.10685104 0.041728064 0.0022881017 0.02366798 0.015850645 -0.021035025

bias f4 [12]
00000000: 9d7a 9e3e 5a28 d53d f307 953e 34fe 9b3e
00000010: 479b 75bd 9d0d 48bd 2e09 85be c5ed 75bd
00000020: 4ccb 873e 389c 983e 6a89 8e3e a9c6 883e
0.30952922 0.10408087 0.29107627 0.3046738 -0.059962537 -0.048841108 -0.25983566 -0.060041208
0.2652229 0.29806685 0.27839214 0.26714066

weight f4 [3, 3, 1, 1]
00000000: 4de7 ccbd 231f 013e 9016 a2bd 2c76 c8bd
00000010: e08e 0f3e 4d46 9ebd d6bf c2bd 8647 303e
00000020: 75ba 99bd
-0.100050546 0.12609534 -0.0791446 -0.097881645 0.14019346 -0.077282526 -0.09509246 0.17214784
-0.07506267

bias f4 [3]
00000000: 7c49 143f c3bf d73e d59c 283f
0.5792463 0.4213849 0.65864307
