trained_model/model_demo.pkl (torch, 111247 bytes, 8 tensors)

weight f4 [64, 3, 5, 5]
-0.025760408 -0.028165547 0.015262747 0.01754818 0.02764298 -0.036736757 -0.011911206 -0.041282997
-0.024356423 -0.00843807 -0.048416775 -0.05884902 -0.02816241 0.015645195 -0.030138146 -0.047610044
-0.02740349 -0.04509006 0.016973276 0.0047987686 0.003621012 -0.014499736 0.021649504 -0.022262985
0.03350419 -0.0022102233 -0.05248823 0.007386696 -0.0012036667 -0.009487192 -0.024918368 -0.0044751833
-0.022893282 0.011283639 0.046743575 -0.028182914 -0.004306097 -0.03546349 -0.0006230178 -0.00929901
0.042340867 -0.044011965 -0.012019527 0.0059464364 0.02075195 0.021379946 -0.0195779 0.011368002
-0.017432999 0.0210775 0.012439824 -0.018871201 0.033827063 0.053216577 0.033485588 0.0135765625
0.02995804 0.010488715 0.0063229133 0.051771875 0.026515072 -0.014468051 -0.025706705 0.003359754
0.04358283 -0.009843462 -0.033216473 0.015199181 -0.0042643473 0.05433959 0.021173581 0.012000194
0.010046403 -0.012049625 0.05501245 0.05264319 0.0925533 0.0018672824 0.054534703 0.0016322079
0.065000296 0.08149853 0.04543744 0.04334897 0.041503467 0.043702014 0.057037245 0.015806697
0.04058479 0.052346554 0.034446184 0.041339234 0.02632566 0.011866762 0.06349279 0.024293933
0.037826788 0.028462816 0.0078014545 0.0133119365 0.078059725 0.05905231 0.015996726 0.033026334
0.055783078 0.04939454 0.07033429 0.03773248 0.055646174 0.051938485 0.0679606 0.038400482
-0.0005102724 0.014505993 0.034719415 0.03563123 0.023990288 -0.011991745 0.017720995 0.035520326
0.041888975 0.028656825 0.044387963 0.03717848 0.056949977 0.033870038 0.019714482 0.058324233
0.05195947 0.0481684 0.052917723 0.062362835 0.055088818 0.07910349 0.027865076 0.067233585
0.06682024 0.026620414 0.0663828 0.04591099 0.0510441 0.06922136 0.062687434 0.03725321
0.04130992 0.0030030792 0.074721284 0.009918006 0.0118272705 0.073513456 0.0028527637 0.0011055153
-0.0020264483 -0.0040500606 -0.007162376 0.0063393074 -0.020337785 0.006059323 0.030658487 -0.010139543
0.024958238 -0.018570703 -0.018010212 0.0040580286 -0.004413566 -0.034310605 -0.021738917 -0.013700743
-0.0047656866 0.018566983 0.019069323 -0.005902938 -0.014924339 0.005227176 -0.004352459 -0.014158548
-0.023635546 -0.006213963 -0.02665862 -0.023862176 -0.039282132 -0.035238143 -0.009259168 -0.011786879
0.0006951988 -0.012451942 0.012996385 -0.003713668 -0.014992158 0.0018896817 0.0030119452 -0.025933322
-0.05222498 -0.023305895 -0.017172333 0.018379966 -0.0045949304 0.016024442 -0.028476903 -0.013782743
-0.0072151083 -0.018605659 -0.032091834 -0.01129471 -0.008426285 0.009276239 0.021981435 0.01649796
-0.031877242 0.013223622 0.006900801 0.017559052 -0.024445852 -0.027594103 -0.010168752 -0.024941063
0.030721888 -0.01803159 0.013458396 -0.0005388222 -0.034183938 0.012667014 -0.001333282 -0.042434443
-0.018734392 -0.041973975 0.036426447 0.037533317 -0.024083676 0.02423738 -0.013480744 0.011107764
0.037495993 0.050353747 0.07958612 0.030367546 -0.0017849803 0.028029613 0.015050747 0.06412368
-0.007071195 0.02158655 0.03164906 0.047758903 0.04359965 0.021441344 0.000430858 0.005543434
-0.035931215 -0.0131751 -0.019909732 0.0006093073 -0.0058516394 0.024506912 0.005497949 -0.007783665
00000000: 7e07 d3bc 6fbb e6bc 9a10 7a3c 33c1 8f3c
00000010: 8873 e23c 4879 16bd 3827 43bc 5c18 29bd
00000020: 1f87 c7bc d53f 0abc ab50 46bd ac0b 71bd
00000030: dbb4 e6bc 5a2a 803c 46e4 f6bc c002 43bd
00000040: 497d e0bc 5bb0 38bd 8a0b 8b3c fd3e 9d3b
00000050: 804e 6d3b 4d90 6dbc 4d5a b13c dd60 b6bc
00000060: b13b 093d 65d9 10bb e6fd 56bd 190c f23b
00000070: 5ac4 9dba 2b70 1bbc 9b21 ccbc 8fa4 92bb
00000080: b18a bbbc 03df 383c 3176 3f3d dbdf e6bc
00000090: 291a 8dbb 2a42 11bd 0452 23ba e05a 18bc
000000a0: 9e6d 2d3d e445 34bd 8ded 44bc 53da c23b
000000b0: feff a93c ff24 af3c d561 a0bc db40 3a3c
000000c0: a6cf 8ebc b9aa ac3c 67d0 4b3c c797 9abc
000000d0: 3f8e 0a3d a0f9 593d 2f28 093d 3b70 5e3c
000000e0: 906a f53c dcd8 2b3c 7130 cf3b bf0e 543d
000000f0: 2336 d93c 670b 6dbc de96 d2bc 522f 5c3b
00000100: e983 323d 7946 21bc ff0d 08bd fc05 793c
00000110: f0bb 8bbb 3193 5e3d 3874 ad3c 769c 443c
00000120: ab99 243c ca6b 45bc bc54 613d 63a0 573d
00000130: 968c bd3d 9abf f43a c85f 5f3d cfef d53a
00000140: e01e 853d b4e8 a63d 9c1c 3a3d b18e 313d
00000150: 8aff 293d e200 333d e39f 693d 0c7d 813c
00000160: 3d3c 263d 5769 563d 7117 0d3d 5453 293d
00000170: e9a8 d73c cf6c 423c 8208 823d 1204 c73c
00000180: 43f0 1a3d da2a e93c 58a3 ff3b 4f1a 5a3c
00000190: c7dd 9f3d d6e0 713d 910b 833c 9f46 073d
000001a0: cc7c 643d ee51 4a3d 6d0b 903d 5f8d 1a3d
000001b0: 3eed 633d 73bd 543d ed2e 8b3d d349 1d3d
000001c0: cdc3 05ba 8baa 6d3c f235 0e3d 0df2 113d
000001d0: 4887 c43c 0679 44bc 9f2b 913c c37d 113d
000001e0: c693 2b3d b8c1 ea3c 27d0 353d 7648 183d
000001f0: 6144 693d 4fbb 0a3d 4480 a13c 64e5 6e3d
00000200: 74d3 543d 3a4c 453d 41c0 583d 2c70 7f3d
00000210: d0a4 613d 0301 a23d 4d45 e43c c3b1 893d
00000220: 0dd9 883d 0e13 da3c b5f3 873d 2a0d 3c3d
00000230: 9e13 513d eec3 8d3d 4562 803d d296 183d
00000240: 9734 293d 4fcf 443b 7907 993d 227f 223c
00000250: 2bc7 413c 398e 963d 6ff5 3a3b f0e6 903a
00000260: 29ce 04bb 5fb6 84bb 5db2 eabb f7b9 cf3b
00000270: 6d9b a6bc 498d c63b 8227 fb3c 5320 26bc
00000280: 3875 cc3c 9621 98bc 278a 93bc 36f9 843b
00000290: ad9f 90bb 4789 0cbd d015 b2bc 1579 60bc
000002a0: 7a29 9cbb c919 983c 4537 9c3c 6f6d c1bb
000002b0: 3785 74bc bb48 ab3b 139f 8ebb 41f9 67bc
000002c0: 559f c1bc 809e cbbb 2e63 dabc 9c7a c3bc
000002d0: 4de6 20bd df55 10bd c4b3 17bc c11d 41bc
000002e0: 003e 363a 3b03 4cbc caee 543c 0361 73bb
000002f0: aba1 75bc 32af f73a 0e64 453b 1e72 d4bc
00000300: dce9 55bd 01ec bebc feac 8cbc 9591 963c
00000310: 1291 96bb b145 833c 6548 e9bc 04d1 61bc
00000320: b76c ecbb e56a 98bc ba72 03bd 730d 39bc
00000330: 670e 0abc 5efb 173c 6912 b43c bb26 873c
00000340: b691 02bd e4a7 583c 1d20 e23b 00d8 8f3c
00000350: ab42 c8bc 070d e2bc d69a 26bc 3351 ccbc
00000360: 78ac fb3c fcb6 93bc 9b80 5c3c bf3f 0dba
00000370: 7504 0cbd 4f89 4f3c 85c1 aeba bdcf 2dbd
00000380: de78 99bc e7ec 2bbd e633 153d 89bc 193d
00000390: 214b c5bc 788d c63c 57de 5cbc 57fd 353c
000003a0: 6695 193d bb3f 4e3d 0cfe a23d 5cc5 f83c
000003b0: 00f6 e9ba 5c9e e53c 6997 763c 4753 833d
000003c0: 7cb5 e7bb 47d6 b03c 72a2 013d d79e 433d
000003d0: 8c95 323d c2a5 af3c c8e4 e139 b2a5 b53b
000003e0: 9c2c 13bd 60dc 57bc bc19 a3bc ecb9 1f3a
000003f0: 1cbf bfbb b8c2 c83c 2428 b43b 1d0e ffbb

bias f4 [64]
0.05538307 0.055954993 0.0 -0.058343958 -0.047969483 -0.0067162034 0.058790796 0.04908884
0.05770613 0.055846293 0.054322366 0.058887996 0.05855706 0.057626553 0.054957453 0.05632712
0.05841853 -0.048967324 -0.0063441647 0.056553103 0.05864934 -0.007283525 0.056187622 0.02020316
-0.058904547 0.051086273 0.046093218 0.040577587 -0.0566492 0.05875043 0.055863984 0.058061164
-0.005153551 -0.056060866 0.053152025 -0.055780493 0.057830974 0.020479118 0.05825384 -0.051822845
0.056362566 -0.02239959 -0.05729426 -0.0030827054 0.049294796 0.058283634 0.05999816 -0.054024898
-0.054096747 -0.0027664704 0.0038551374 0.042533502 -0.008727971 0.051796284 0.055890888 0.01665205
-0.05780311 0.052767284 0.04563665 0.056519464 0.058185585 -0.0063990303 0.05047174 0.050483704
00000000: 5cd9 623d 1031 653d 0000 0000 13fa 6ebd
00000010: a67b 44bd 9913 dcbb 9ece 703d 6111 493d
00000020: 435d 6c3d 15bf 643d 2181 5e3d 8a34 713d
00000030: 87d9 6f3d d209 6c3d 111b 613d 44b7 663d
00000040: 4548 6f3d f691 48bd b6e2 cfbb 3aa4 673d
00000050: 4a3a 703d a3aa eebb fe24 663d 1981 a53c
00000060: e545 71bd d73f 513d 3ecc 3c3d af34 263d
00000070: fe08 68bd 4aa4 703d a2d1 643d 8bd1 6d3d
00000080: 1fdf a8bb 14a0 65bd f0b5 593d 167a 64bd
00000090: 2ce0 6c3d d3c3 a73c 949b 6e3d 3144 54bd
000000a0: 6fdc 663d 587f b7bc 63ad 6abd 3707 4abb
000000b0: 57e9 493d d2ba 6e3d a1c0 753d 3649 5dbd
000000c0: 8d94 5dbd ac4d 35bb 79a6 7c3b 9c37 2e3d
000000d0: c4ff 0ebc 5728 543d d8ed 643d e169 883c
000000e0: f4c2 6cbd 8222 583d 7fed 3a3d f480 673d
000000f0: 0254 6e3d f5ae d1bb 75bb 4e3d 00c8 4e3d

weight f4 [32, 64, 3, 3]
0.057685327 0.03513932 0.08563362 0.05098638 0.055421073 0.048869956 0.056654878 0.038167372
0.06463103 0.04594102 0.06794897 0.065961756 0.034558687 0.030374555 0.05879394 0.07608264
0.029516784 0.05394192 0.009217771 -0.020379182 -0.028184043 0.035875827 0.012740806 -0.018019065
0.03487689 -0.03118605 -0.021543548 0.0035280567 0.03267373 0.017797409 0.026184466 0.010154256
0.015981263 0.032731544 0.09971124 0.082850024 0.028949335 0.02132853 0.012874886 -0.018806927
0.06086319 0.0041920673 0.049071737 0.03059916 0.05748178 -0.0147933215 0.0039341208 -0.0022718504
-0.0029072748 0.0008073459 -0.040249933 0.016348008 -0.007313843 -0.027542047 0.05177088 0.049514964
0.051521786 0.022278545 0.06184964 0.035001237 0.061030265 0.07577782 0.06356175 0.05243594
0.044976275 0.07430684 0.025252726 0.067490764 0.09486985 0.060932748 0.07009103 0.059951212
0.07219179 0.032734558 0.04977975 0.04458694 0.044375937 0.06247068 0.082509995 0.07224462
0.047436062 0.035721596 0.05876262 0.062152233 0.031508215 0.039878648 0.058260478 0.04763173
0.02388552 0.01281981 0.072013475 0.07764023 0.06574401 0.027568592 0.0656367 0.09912299
0.07481666 0.035060864 0.063942604 0.064945064 0.06530245 0.07423153 0.052619766 0.06309847
0.056172036 0.055539157 0.04476439 0.091809645 0.053574134 0.046659 0.08885084 0.08191992
0.058986258 0.048200384 0.12806857 0.07169162 0.014501321 0.09284036 0.05747005 0.058221884
0.06745674 0.031200506 0.07039325 0.056061666 0.069785535 0.07478681 0.053268433 0.039140645
0.030028682 0.08057806 0.0056804526 0.0335131 0.07399185 0.02934833 0.06296979 0.0431358
0.073314786 0.10043287 0.08978813 0.012657672 0.072115354 0.06259383 0.04948177 0.010289091
0.055584278 0.048733387 0.0313504 0.10367331 0.04671862 0.058206853 0.062254906 0.056253303
0.06192973 0.031911198 0.031297904 0.05310272 0.037659183 0.03781655 0.06546096 0.07362198
0.054700017 0.062066387 0.03307998 0.030591385 -0.031447515 -0.008356281 -0.0015028106 -0.016117547
0.0016844098 0.00466635 -0.025150653 0.062154382 0.067836136 0.046031684 0.100989215 0.06681286
0.0771676 0.0592803 0.053756267 0.033248805 0.03457964 0.03753728 0.065174 0.048356805
0.083769895 0.03210491 0.055533394 0.095916055 0.06299099 -0.035641614 -0.024093296 -0.0008403878
0.0035116312 -0.019814001 -0.031165428 0.005718508 0.02392299 0.03954996 0.04536301 0.060542427
0.048007548 0.04286301 0.065281466 0.040476315 0.06758557 0.07873766 0.052329857 0.060203444
0.0032269494 0.038132716 0.0039971974 0.055107825 0.046355866 0.02003558 0.06562442 0.03736852
0.026157591 0.027214099 0.0055376105 0.039389215 0.09924383 -0.0059605343 0.051152784 0.040929116
0.05866454 0.08768477 0.056270186 0.0245045 0.03870274 0.092975385 0.023449864 0.0706218
0.015586458 0.08912852 0.04152307 0.06339099 0.04324331 0.053941324 -0.00678193 0.00119575
0.032364264 0.04573869 0.04845029 0.02968163 0.015251181 0.030286402 0.037919454 0.086835645
0.04830913 0.05880647 0.05950786 0.03312293 0.023026593 0.048036676 0.041575205 0.05749615
00000000: 7347 6c3d 3fee 0f3d ae60 af3d 18d7 503d
00000010: 3501 633d dd2b 483d f20e 683d 6455 1c3d
00000020: 465d 843d a72c 3c3d d428 8b3d f516 873d
00000030: 698d 0d3d 0fd4 f83c ead1 703d 37d1 9b3d
00000040: 2fcd f13c 34f2 5c3d 2206 173c 3ef2 a6bc
00000050: 39e2 e6bc 88f2 123d d0be 503c b89c 93bc
00000060: 12db 0e3d e379 ffbc 187c b0bc f836 673b
00000070: e4d4 053d dfcb 913c ce80 d63c 095e 263c
00000080: 23eb 823c 8311 063d 6835 cc3d 46ad a93d
00000090: 2827 ed3c 2bb9 ae3c 30f1 523c fc10 9abc
000000a0: ae4b 793d 9c5d 893b 72ff 483d 17ab fa3c
000000b0: 0472 6b3d b05f 72bc cce9 803b 53e3 14bb
000000c0: fa87 3ebb 11a4 533a 1ddd 24bd 42ec 853c
000000d0: f6a8 efbb dc9f e1bc b40d 543d 34d0 4a3d
000000e0: 8208 533d 7f81 b63c 0c56 7d3d 755d 0f3d
000000f0: dffa 793d 6731 9b3d aa2c 823d 11c7 563d
00000100: 0b39 383d 2f2e 983d cede ce3c 9938 8a3d
00000110: 204b c23d 9e94 793d e38b 8f3d 678f 753d
00000120: 4ad9 933d ac14 063d dae5 4b3d cca0 363d
00000130: 8bc3 353d 41e1 7f3d 00fb a83d fdf4 933d
00000140: 514c 423d cf50 123d 13b1 703d 5793 7e3d
00000150: c20e 013d cb57 233d 8aa2 6e3d 7d19 433d
00000160: 91ab c33c 2e0a 523c cd7b 933d d701 9f3d
00000170: cca4 863d 87d7 e13c 896c 863d ff00 cb3d
00000180: 7a39 993d fb9b 0f3d 57f4 823d eb01 853d
00000190: 4abd 853d b306 983d d387 573d c539 813d
000001a0: a614 663d 077d 633d dd5a 373d b206 bc3d
000001b0: 8d70 5b3d 821d 3f3d 6ef7 b53d a2c5 a73d
000001c0: 939b 713d c46d 453d 6824 033e 0ed3 923d
000001d0: f396 6d3c 1623 be3d b765 6b3d 127a 6e3d
000001e0: c226 8a3d 3498 ff3c 562a 903d eba0 653d
000001f0: b8eb 8e3d d429 993d 0030 5a3d f151 203d
00000200: b6fe f53c 1c06 a53d 1723 ba3b 0845 093d
00000210: 0a89 973d e96b f03c 4ef6 803d 2aaf 303d
00000220: 1026 963d c0af cd3d d7e2 b73d 2062 4f3c
00000230: 37b1 933d 3231 803d 65ad 4a3d 9393 283c
00000240: 57ac 633d a99c 473d 4769 003d ac52 d43d
00000250: 065c 3f3d 4f6a 6e3d 00ff 7e3d dd69 663d
00000260: 07aa 7d3d 51b5 023d 3b32 003d 3d82 593d
00000270: 8440 1a3d 87e5 1a3d 6510 863d 1fc7 963d
00000280: 200d 603d 5339 7e3d e07e 073d c99a fa3c
00000290: 1ccf 00bd c8e8 08bc f5f9 c4ba f208 84bc
000002a0: 6ac7 dc3a 2ee8 983b be08 cebc 9895 7e3d
000002b0: aced 8a3d b88b 3c3d 6fd3 ce3d 2ed5 883d
000002c0: 0c0a 9e3d e6cf 723d 882f 5c3d e62f 083d
000002d0: 61a3 0d3d b1c0 193d f279 853d c911 463d
000002e0: 8d8f ab3d 7080 033d fc76 633d a36f c43d
000002f0: 6c01 813d f1fc 11bd 4e5f c5bc 784d 5cba
00000300: 6523 663b f950 a2bc a44e ffbc 5262 bb3b
00000310: 25fa c33c 24ff 213d 90ce 393d 56fb 773d
00000320: 90a3 443d 2091 2f3d 4ab2 853d 7eca 253d
00000330: 4e6a 8a3d 3641 a13d d557 563d e397 763d
00000340: 3a7b 533b 0d31 1c3d ecfa 823b beb8 613d
00000350: a6df 3d3d a821 a43c 1966 863d bc0f 193d
00000360: 7248 d63c 1af0 de3c d874 b53b 9656 213d
00000370: 5940 cb3d 9650 c3bb 9585 513d 4aa5 273d
00000380: 3b4a 703d 1394 b33d 917b 663d a9bd c83c
00000390: c486 1e3d e169 be3d ee19 c03c 2aa2 903d
000003a0: 585e 7f3c 0389 b63d 1814 2a3d 23d3 813d
000003b0: e61f 313d 94f1 5c3d f43a debb b6ba 9c3a
000003c0: 6490 043d 7e58 3b3d d073 463d e426 f33c
000003d0: 17e0 793c 301b f83c 6e51 1b3d e3d6 b13d
000003e0: cbdf 453d 0edf 703d 84be 733d e9ab 073d
000003f0: 44a2 bc3c 1bc2 443d c34a 2a3d 1581 6b3d

bias f4 [32]
0.059601087 0.057070304 -0.0072045857 0.058140166 -0.0059624924 0.05741647 0.05345247 -0.006365926
-0.057723224 -0.056109738 0.057489984 0.057436205 0.03404033 -0.053465772 -0.004097254 -0.0059404545
-0.056967936 0.043358 0.05695423 0.058073174 -0.0059725586 0.00016541268 -0.0060068727 -0.008456297
0.057898972 0.053045627 -0.007075783 0.0595246 0.008781013 0.057009716 -0.05576144 0.058813777
00000000: 4520 743d 8dc2 693d 7214 ecbb 6224 6e3d
00000010: 0361 c3bb 882d 6b3d faf0 5a3d 4299 d0bb
00000020: 306f 6cbd 53d3 65bd 9e7a 6b3d 3a42 6b3d
00000030: e06d 0b3d edfe 5abd 4242 86bb 25a8 c2bb
00000040: 3657 69bd 2998 313d d748 693d 23de 6d3d
00000050: 74b5 c3bb a172 2d39 4dd5 c4bb 488c 0abc
00000060: 7927 6d3d 5f46 593d f8db e7bb 11d0 733d
00000070: 3dde 0f3c 0583 693d 1c66 64bd b7e6 703d

weight f4 [12, 32, 3, 3]
0.07304229 0.02710178 0.01146889 0.047084365 0.042826727 0.005258205 -0.034248643 0.024483245
0.029559527 -0.052736994 -0.06079735 -0.040260747 -0.04235074 -0.06903143 -0.06421659 -0.027189136
-0.032157734 -0.038829822 0.011968164 0.038059413 0.0035493867 -0.022604879 -0.012007788 -0.014623836
0.006576823 -0.0037700452 0.0046837786 -0.09659507 -0.025220448 -0.041165773 -0.040115584 -0.074676126
-0.025647711 -0.05787493 -0.059133288 -0.050901253 -0.0137103 -0.021347295 0.02776629 -0.01038258
0.00072385557 -0.0026272074 -0.008801218 0.004865152 -0.007337842 -0.035490975 -0.056646172 -0.052553397
-0.043108247 -0.024413219 -0.051736813 -0.034079757 -0.00757392 -0.08041286 -0.0037999242 0.0051830234
-0.015059894 0.0125914095 0.019680748 -0.007416874 0.014717276 -0.011831746 -0.010592561 -0.021875609
0.030047096 -0.018353138 -0.002920959 -0.03236403 -0.008792799 -0.0027083498 0.007936402 0.013857112
0.056385595 0.077649936 0.09080327 0.056539148 0.08349786 0.06322883 0.023049569 0.038908876
0.0067438222 0.05127439 0.0685526 0.07357851 0.075185485 0.05265359 0.078070715 0.07091829
0.020631155 0.032906525 -0.058065463 -0.05549179 -0.032453988 -0.004447847 -0.018361375 -0.053479005
-0.050163414 -0.046339795 -0.08724161 -0.064731 -0.07447985 -0.062102433 -0.060871363 -0.04528806
-0.03910474 -0.04929857 -0.063446954 -0.05850006 -0.007570333 -0.014737091 -0.004698936 -0.023760615
-0.008508223 -0.045286234 0.00478425 0.00022053879 -0.0332454 0.09053006 0.030649956 0.057856135
0.05453865 0.06340782 0.0720367 0.08220168 0.028609766 0.04178551 -0.03664481 0.036529448
-0.003331255 0.007542534 -0.0021561654 0.012241988 -0.024476094 -0.007849223 0.02683488 0.0011614778
-0.042109493 -0.028036334 0.0050499947 -0.006740603 -0.016347876 -0.01416903 0.000783735 -0.014133512
0.043967385 0.06684215 0.091855876 0.018174075 0.06668499 0.08363601 0.04110656 0.06514383
0.037518524 -0.048114084 -0.016496161 -0.06291248 -0.0066394745 -0.03966918 -0.058014225 -0.04620926
-0.045279074 -0.04972996 -0.015626326 -0.051089924 -0.037374564 -0.05592817 -0.039666235 -0.022296615
-0.06229111 0.00021555768 -0.02172582 -0.04690312 -0.06325696 -0.035749882 -0.051152024 -0.045303382
-0.091499515 -0.059591077 -0.07000136 -0.05672523 -0.015598994 0.012138314 -0.022112457 -0.014336387
0.021790328 -0.015108172 -0.032518778 -0.010914157 0.01515421 -0.025160665 -0.0109644 -0.05096601
-0.03050324 0.0142539535 -0.0030315726 0.023111464 -0.05327608 0.0047502657 0.0031442097 -0.0058820248
0.013474798 -0.039877485 0.0055992063 -0.01617504 -0.021638095 -0.029506395 -0.021005068 -0.026495647
0.01836799 -0.019281613 -0.023497015 0.0376106 0.015321535 -0.00835593 -0.03758956 0.023391824
-0.039216164 -0.04989347 -0.03702222 -0.041263156 -0.033164598 -0.064493425 -0.038586713 -0.028503142
-0.05115416 -0.032755945 -0.042066656 -0.019665595 -0.044450346 -0.041462034 -0.05330268 -0.05902609
-0.030744987 -0.046172973 -0.002114842 -0.06296337 -0.006782196 0.025766114 0.008710867 0.047730736
0.019884288 -0.01788103 0.022518938 -0.05675163 -0.041479215 0.03266069 -0.041642442 -0.067905076
-0.017123362 -0.04743254 -0.039926536 -0.07694216 -0.011835766 0.0077490387 -0.03250068 0.0052299746
00000000: 3297 953d 8d04 de3c 03e8 3b3c 89db 403d
00000010: 146b 2f3d 054d ac3b 4e48 0cbd 1691 c83c
00000020: d226 f23c bf02 58bd a406 79bd 74e8 24bd
00000030: f877 2dbd 5a60 8dbd fd83 83bd c0bb debc
00000040: d4b7 03bd 050c 1fbd 1e16 443c 30e4 1b3d
00000050: d49c 683b de2d b9bc 50bc 44bc d098 6fbc
00000060: 6482 d73b dd12 77bb 627a 993b a3d3 c5bd
00000070: 1d9b cebc 719d 28bd 3d50 24bd ccef 98bd
00000080: 261b d2bc 430e 6dbd bf35 72bd d57d 50bd
00000090: 2ba1 60bc 86e0 aebc 2176 e33c b21b 2abc
000000a0: 20c1 3d3a 3a2d 2cbb fc32 10bc da6b 9f3b
000000b0: 4872 f0bb fc5e 11bd d105 68bd 3b42 57bd
000000c0: 4692 30bd 3bfe c7bc fbe9 53bd 3797 0bbd
000000d0: a52e f8bb 7faf a4bd 2608 79bb 5ad6 a93b
000000e0: c6bd 76bc 334c 4e3c 8539 a13c 4009 f3bb
000000f0: bb20 713c f1d9 41bc 6c8c 2dbc 7a34 b3bc
00000100: 5425 f63c 5259 96bc 8f6d 3fbb 2590 04bd
00000110: ac0f 10bc 927e 31bb af07 023c f108 633c
00000120: 95f4 663d ee06 9f3d 11f7 b93d 9895 673d
00000130: ed00 ab3d 1e7e 813d 73d2 bc3c ea5e 1f3d
00000140: 48fb dc3b 1805 523d 4e65 8c3d 54b0 963d
00000150: d9fa 993d 4aab 573d 8ae3 9f3d 9c3d 913d
00000160: ab02 a93c fec8 063d 0dd6 6dbd 5c4b 63bd
00000170: 79ee 04bd 3fbf 91bb 986a 96bc cd0c 5bbd
00000180: 2778 4dbd ccce 3dbd bbab b2bd b091 84bd
00000190: e488 98bd 1f5f 7ebd 4054 79bd f97f 39bd
000001a0: 4b2c 20bd 4ced 49bd 7af0 81bd c29d 6fbd
000001b0: 8e10 f8bb d773 71bc 88f9 99bb 9fa5 c2bc
000001c0: 1366 0bbc 0f7e 39bd 33c5 9c3b 6e40 6739
000001d0: 542c 08bd d367 b93d 9e15 fb3c 8efa 6c3d
000001e0: eb63 5f3d f6db 813d fa87 933d 5b59 a83d
000001f0: 075f ea3c 4827 2b3d de18 16bd e79f 153d
00000200: 2f51 5abb 5c27 f73b 744e 0dbb 9f92 483c
00000210: 1782 c8bc 079a 00bc d2d4 db3c ba3c 983a
00000220: 017b 2cbd 74ac e5bc 6d7a a53b 47e0 dcbb
00000230: fbeb 85bc 3825 68bc 9173 4d3a 3f90 67bc
00000240: 2517 343d 8ae4 883d ef1e bc3d cce1 943c
00000250: 2492 883d 5b49 ab3d 5a5f 283d 216a 853d
00000260: 06ad 193d 4613 45bd f522 87bc 42d8 80bd
00000270: f38f d9bb 267c 22bd 53a0 6dbd ec45 3dbd
00000280: 8d76 39bd a4b1 4bbd c802 80bc ab43 51bd
00000290: 1216 19bd f014 65bd 1079 22bd 64a7 b6bc
000002a0: f724 7fbd 5307 6239 59fa b1bc 7c1d 40bd
000002b0: dd8c 81bd 786e 12bd c984 51bd 0a90 39bd
000002c0: 1964 bbbd c615 74bd df5c 8fbd b758 68bd
000002d0: ec92 7fbc c7df 463c 2f25 b5bc 2ae3 6abc
000002e0: a181 b23c 4488 77bc 6932 05bd 4bd1 32bc
000002f0: 5d49 783c bd1d cebc 07a4 33bc bcc1 50bd
00000300: eee1 f9bc 6a89 693c 59ad 46bb 4154 bd3c
00000310: 0538 5abd 1ea8 9b3b 160f 4e3b 00be c0bb
00000320: 66c5 5c3c 9356 23bd 8c79 b73b 8481 84bc
00000330: 6042 b1bc 65b7 f1bc d212 acbc 660d d9bc
00000340: 7878 963c 79f4 9dbc d07c c0bc 930d 1a3d
00000350: 2d07 7b3c 50e7 08bc 83f7 19bd 36a0 bf3c
00000360: 21a1 20bd 185d 4cbd 9da4 17bd 8e03 29bd
00000370: 9ad7 07bd 2115 84bd 1a0d 1ebd 6c7f e9bc
00000380: 0687 51bd 192b 06bd 164e 2cbd be19 a1bc
00000390: 9111 36bd 18d4 29bd e953 5abd 57c5 71bd
000003a0: e9dc fbbc df1f 3dbd 2999 0abb f0f2 80bd
000003b0: 2f3d debb 7513 d33c 06b8 0e3c 4e81 433d
000003c0: 60e4 a23c 3d7b 92bc a379 b83c 6674 68bd
000003d0: 1ce6 29bd 37c7 053d 4491 2abd d111 8bbd
000003e0: 4b46 8cbc a048 42bd 028a 23bd da93 9dbd
000003f0: cdea 41bc a6eb fd3b 6f1f 05bd 3560 ab3b

bias f4 [12]
-0.04647739 -0.046851818 -0.044305414 -0.008428912 0.055639684 0.055202007 0.055535886 0.05540886
-0.042440884 -0.005977114 -0.043552883 -0.042462744
00000000: 135f 3ebd b1e7 3fbd 9879 35bd 6b19 0abc
00000010: 70e6 633d 801b 623d 9979 633d 67f4 623d
00000020: 7ed6 2dbd abdb c3bb 8264 32bd 6aed 2dbd

weight f4 [3, 3, 1, 1]
0.071784936 -0.07776417 0.064505376 0.053872526 -0.07153214 0.07376679 0.056806266 -0.07732498
0.07922107
00000000: fb03 933d d242 9fbd 651b 843d 70a9 5c3d
00000010: 717f 92bd 0b13 973d b0ad 683d 8f5c 9ebd
00000020: a83e a23d

bias f4 [3]
-0.04795041 -0.049413815 -0.047252726
00000000: a667 44bd 2466 4abd 138c 41bd
