trained_model/model_demo.pkl (torch, 111927 bytes, 8 tensors)

weight f4 [64, 3, 5, 5]
-0.01389037 -0.018173521 0.006542429 -0.013050547 0.015128561 -0.002393343 0.001191363 -0.0339196
0.008958583 0.0023224256 -0.019492434 0.014145094 0.003958958 0.00029746536 -0.01818927 0.0022191475
0.034598585 -0.0058479933 -0.024625205 0.016665054 -0.007708138 0.049298994 -0.010499682 -0.016693082
0.010233573 -0.01133139 0.043608867 0.0046573863 -0.024201741 -0.0061688027 0.025571663 -0.018484691
-0.0407965 0.0035294732 -0.03766696 0.031843357 0.027900105 -0.0019421354 0.014602361 -0.004464521
-0.01181374 0.028151698 -0.033267353 0.0010496512 0.014854829 0.0069787935 0.026213385 -0.004086806
0.0071254317 0.0027272732 0.016451903 -0.011564172 -0.051260926 0.035862833 0.025375158 -0.034830328
0.0077057057 -0.01847709 0.0041220444 -0.002222817 -0.007902187 0.0039353427 -0.00058656704 -0.021446327
0.02184341 0.0016727207 -0.020605974 -0.013970275 0.018136967 0.005934634 0.00651854 -0.011754259
-0.026884342 -0.0054035774 -0.012455794 -0.013608003 0.02581818 -0.023207288 -0.01920117 -0.008483865
0.010693592 0.007834174 -0.040107284 -0.027517745 0.01674617 -0.0026881099 0.010484825 -0.0066705644
-0.064858064 -0.00082331547 -0.025267225 -0.02509961 -0.019152543 -0.03347159 0.0043368554 0.011206647
0.037797436 0.029191181 -0.0040028603 0.002782203 0.003615441 0.036252625 -0.03172038 -0.009922586
0.0190165 -0.024641208 -0.0011560292 -0.007270758 0.0018857556 -0.0013200145 -0.0046926597 0.00040061024
0.030569742 0.0008207493 0.0034163247 0.01427881 -0.01369378 0.021754272 0.0023516398 0.034744557
-0.0008292424 -0.008335564 -0.02429898 0.017493574 0.026534105 0.028044753 0.028872166 0.009234957
0.029809786 0.022125727 0.011061967 0.009411403 -0.0063321223 0.013917175 0.021669528 0.022617204
0.004957885 0.02093057 -0.01968272 0.011804946 0.044617157 -0.025583223 0.008551764 -0.015813963
0.041489657 -0.015590711 0.003837945 -0.015862625 -0.015591438 0.014928895 0.01442526 0.020386439
0.036293734 0.0059138173 0.025212048 0.024066234 0.024500038 0.03002636 -7.327214e-05 0.023321668
0.011564825 0.041413646 0.059586506 0.035403814 -0.027957454 -0.007436998 0.050674785 0.026531521
0.03664215 0.025172034 0.033486232 -0.04441294 0.026270764 -0.01083262 0.0016827222 -0.0055398056
-0.0010307259 0.027424335 0.050256122 0.0132536 -0.018199233 0.024244232 -0.018758493 0.023996476
0.025633005 -0.013097237 0.012360918 0.033691842 0.0021552122 0.032191873 0.0322832 0.057339422
0.008473983 0.049527284 0.022235068 0.017580185 0.003215788 -0.00092864345 0.013746568 0.021158302
0.03627475 0.025288686 0.043430176 -0.0057204617 0.019703774 0.022075241 0.03363556 0.022747688
0.013980601 0.017059123 0.026450397 0.008832051 0.03955376 0.03449008 0.0046798396 0.0022905946
0.03811467 0.047162965 -0.02305602 0.0022127975 -0.005572228 0.032014832 0.0112608485 -0.027014306
-0.01672682 0.066105805 0.08615012 0.04046854 0.027722321 0.026987832 0.020768872 0.04242659
0.056307178 0.0635736 0.054413658 -0.039735265 0.045316514 0.077911556 0.03623504 0.04644835
-0.0061460873 0.03548098 0.08550927 0.04467554 0.043591514 0.05727025 -0.0046747886 0.009381545
0.0022193585 0.07937492 0.022426894 0.024061918 0.04404543 0.028079456 0.021151643 0.025104607
00000000: 6f94 63bc a3e0 94bc df61 d63b f6d1 55bc
00000010: c9dd 773c a2d9 1cbb 8227 9c3a 47ef 0abd
00000020: 05c7 123c d633 183b 99ae 9fbc d3c0 673c
00000030: 26ba 813b 20f5 9b39 aa01 95bc 1e6f 113b
00000040: 3fb7 0d3d 86a0 bfbb ccba c9bc 2785 883c
00000050: 8c94 fcbb beed 493d dc06 2cbc eebf 88bc
00000060: b7aa 273c 4ba7 39bc 369f 323d fd9c 983b
00000070: bb42 c6bc ab23 cabb aa7b d13c 356d 97bc
00000080: 3b1a 27bd bc4e 673b ac48 1abd 2e6e 023d
00000090: c38e e43c 408f feba be3e 6f3c 1e4b 92bb
000000a0: 6b8e 41bc 649e e63c 5943 08bd 7394 893a
000000b0: ab61 733c 5dae e43b 74bd d63c 9dea 85bb
000000c0: 747c e93b 0dbc 323b 24c6 863c a777 3dbc
000000d0: faf6 51bd e8e4 123d 90df cf3c 3faa 0ebd
000000e0: 2580 fc3b 445d 97bc 3712 873b aeac 11bb
000000f0: 2d78 01bc 0cf4 803b d9c3 19ba 35b0 afbc
00000100: f3f0 b23c 313f db3a dccd a8bc 95e3 64bc
00000110: fa93 943c 5177 c23b 7a99 d53b ef94 40bc
00000120: 8d3c dcbc 7e10 b1bb 6313 4cbc 1af4 5ebc
00000130: a680 d33c 361d bebc c64b 9dbc e9ff 0abc
00000140: 2d34 2f3c e85a 003c 8947 24bd e56c e1bc
00000150: 442f 893c 002b 30bb 8bc8 2b3c c094 dabb
00000160: 4ed4 84bd c4d3 57ba 36fd cebc b39d cdbc
00000170: cbe5 9cbc 8219 09bd 2e1c 8e3b 169c 373c
00000180: 7cd1 1a3d 5822 ef3c 6d2a 83bb 9f55 363b
00000190: 09f1 6c3b a27d 143d 3bed 01bd 5892 22bc
000001a0: 7ec8 9b3c 5cdc c9bc e785 97ba 8a3f eebb
000001b0: 752b f73a 5604 adba e2c4 99bb ff08 d239
000001c0: 656d fa3c 8e27 573a 6be4 5f3b abf1 693c
000001d0: e05b 60bc 0436 b23c f81d 1a3b 4f50 0e3d
000001e0: 8461 59ba e491 08bc a80e c7bc af4e 8f3c
000001f0: 0d5e d93c 1cbe e53c 5285 ec3c 384e 173c
00000200: a733 f43c 0341 b53c 413d 353c 4932 1a3c
00000210: b17d cfbb dd04 643c 4b84 b13c b747 b93c
00000220: c175 a23b 9676 ab3c a83d a1bc 8869 413c
00000230: 7bc0 363d e893 d1bc b31c 0c3c 498c 81bc
00000240: 0ff1 293d 2e70 7fbc 0886 7b3b 56f2 81bc
00000250: 3b73 7fbc 5398 743c ed57 6c3c 7601 a73c
00000260: bda8 143d b2c8 c13b 7f89 ce3c 8d26 c53c
00000270: 4eb4 c83c d7f9 f53c aea9 99b8 150d bf3c
00000280: 647a 3d3c 5ba1 293d fb10 743d 9703 113d
00000290: 0807 e5bc 10b2 f3bb 5d90 4f3d a258 d93c
000002a0: 1416 163d 9535 ce3c dc28 093d 58ea 35bd
000002b0: c935 d73c 4d7b 31bc ca8e dc3a 4287 b5bb
000002c0: 6c19 87ba 00a9 e03c 5dd9 4d3d a125 593c
000002d0: 8f16 95bc d79b c63c 69ab 99bc 4294 c43c
000002e0: 4ffc d13c cb95 56bc 7385 4a3c 7500 0a3d
000002f0: 763e 0d3b a0db 033d 643b 043d bedc 6a3d
00000300: 76d6 0a3c 1fdd 4a3d 5126 b63c 5204 903c
00000310: f8bf 523b 3570 73ba 4939 613c 2d54 ad3c
00000320: d594 143d 382a cf3c d7e3 313d b672 bbbb
00000330: cf69 a13c 23d7 b43c 71c5 093d 5c59 ba3c
00000340: e40e 653c 93bf 8b3c 81ae d83c 4fb4 103c
00000350: 2003 223d 7845 0d3d 5759 993b cd1d 163b
00000360: 211e 1c3d f42d 413d fadf bcbc 9504 113b
00000370: 3d97 b6bb fc21 033d 6c7f 383c 1b4d ddbc
00000380: af06 89bc 7b62 873d 796f b03d 57c2 253d
00000390: ec19 e33c 9615 dd3c 7b23 aa3c 81c7 2d3d
000003a0: 5ba2 663d e032 823d dbe0 5e3d 72c1 22bd
000003b0: cf9d 393d 1890 9f3d 316b 143d a040 3e3d
000003c0: 1e65 c9bb 8154 113d 7c1f af3d b3fd 363d
000003d0: 048d 323d 3694 6a3d f82e 99bb 0db5 193c
000003e0: a872 113b 518f a23d 9bb8 b73c 801d c53c
000003f0: fb68 343d e306 e63c 3646 ad3c 2da8 cd3c

bias f4 [64]
0.07743729 0.075431466 -0.06520058 -0.05542223 -0.06549933 0.0454768 0.07722483 -0.060909484
-0.06582475 -0.058362164 -0.06277911 0.07710143 0.080175705 -0.06493791 -0.06528638 0.076408446
0.074924506 -0.0659649 0.07758389 -0.061929386 0.07617512 0.061803274 -0.016821552 0.0760593
0.082644306 -0.06488643 0.078575276 -0.06270348 -0.06635382 0.078736894 -0.057364125 0.0772528
0.07915962 -0.06518694 0.08129005 0.076431826 0.080072396 0.07713825 0.078121126 0.06881086
-0.06313233 -0.067010574 -0.06272284 0.07652041 0.07360203 0.078592315 0.07914838 0.074042685
0.07993656 0.07231248 0.07716866 -0.06488162 -0.055398237 0.07805766 0.08033981 -0.01192154
0.07768398 -0.062277757 0.07573387 0.07875743 0.07730214 0.05856385 -0.055353254 0.07650974
00000000: 7197 9e3d d07b 9a3d e287 85bd 6c02 63bd
00000010: 8324 86bd e245 3a3d 0d28 9e3d 397c 79bd
00000020: 20cf 86bd 2a0d 6fbd 5692 80bd 5be7 9d3d
00000030: 2933 a43d 2bfe 84bd deb4 85bd 087c 9c3d
00000040: 0572 993d 9b18 87bd 4de4 9e3d aba9 7dbd
00000050: b401 9c3d 6e25 7d3d 5acd 89bc fac4 9b3d
00000060: 6b41 a93d 2de3 84bd 13ec a03d af6a 80bd
00000070: 83e4 87bd cf40 a13d a5f6 6abd b736 9e3d
00000080: 701e a23d bb80 85bd 667b a63d 4a88 9c3d
00000090: fffc a33d a9fa 9d3d f8fd 9f3d b5ec 8c3d
000000a0: 864b 81bd d73c 89bd d574 80bd bcb6 9c3d
000000b0: a9bc 963d 02f5 a03d 8c18 a23d b1a3 973d
000000c0: c7b5 a33d 9118 943d 9a0a 9e3d a8e0 84bd
000000d0: 43e9 62bd b2dc 9f3d 3389 a43d 9052 43bc
000000e0: c718 9f3d f616 7fbd 5c1a 9b3d 934b a13d
000000f0: 9650 9e3d a6e0 6f3d 18ba 62bd 23b1 9c3d

weight f4 [32, 64, 3, 3]
-0.024917955 0.00838663 -0.009116088 0.016853409 0.02357208 -0.016936665 0.0052830246 0.023086682
0.0032761062 0.0072809006 -0.015599562 0.026705816 0.01337481 0.0019322339 0.0329014 0.006788957
0.0018701595 -0.01074549 0.025538418 0.003699846 0.008352364 0.009622043 0.0015561052 -0.013793336
0.006673231 0.011130411 0.013078745 -0.012335872 0.021226447 -0.014473998 0.027199987 0.013011427
0.0023909966 -0.033644818 -0.016247384 -0.0033266658 0.017265046 -0.02947918 0.04178666 -0.01733862
0.0026847061 -0.023292044 -0.009242657 -0.0026898964 -0.011910505 0.0061773024 0.0179037 -0.0019133707
-0.0023893528 -0.008023374 -0.030591555 0.0011540449 0.002226308 0.0139684 -0.0068028322 -0.008521879
-0.050124805 0.0035146503 0.018424444 0.0055391192 -0.0014138203 -0.0025611827 -0.0124492375 -0.008430964
0.0026393496 -0.025419937 0.005423378 -0.00013375901 -0.015150672 -0.02308224 -0.036847934 -0.0022744664
0.013556953 0.014977096 -0.012737413 0.0076465313 0.00045133012 0.009203682 0.039276373 -0.013245652
-0.015771454 -0.015115818 -0.020170512 0.02938782 -0.0019977356 -0.020751836 -0.024408115 -0.00013628312
0.008743454 -0.01245756 0.028409047 -0.020058889 0.020048574 -0.038818322 -0.024267018 -0.004467087
-0.009580637 0.03249919 -0.020321364 0.015421551 0.0016076472 -0.0073306994 -0.013012147 -0.009850193
-0.03237978 -0.00016623561 0.0035174957 -0.022765016 0.012176952 -0.012076879 0.027310712 0.014433613
9.394317e-05 -0.045087107 0.02901124 -0.00022720113 0.03667181 0.017065225 -0.014063449 -0.014150673
-0.0013027265 -0.01598767 0.03330013 0.034858946 -0.008453072 -0.023526426 0.00952823 -0.016773568
0.034173306 -0.010317597 -0.011482624 0.016284592 0.008001562 -0.017454926 -0.022989737 0.004336528
-0.0026984944 0.021230018 -0.012783407 -0.010211078 0.00026950007 0.011752654 -0.019181494 0.0139278965
-0.015816934 -0.012009448 0.04045157 -0.0012021968 0.03774035 -0.036484346 -0.01576663 -0.009616147
0.025083132 -0.050116602 0.007880911 -0.01430496 0.017776145 0.019179145 -0.02159307 0.02563563
0.0075173667 -0.0119485 0.00039729194 0.037431866 0.017669804 0.014275443 0.006976149 0.02267433
-0.014296685 0.014788652 0.028035969 -0.0034738076 0.027855836 -0.0020226685 -0.017902317 -0.012669734
0.016152412 0.010716756 -0.011291618 0.01673212 0.004577922 0.009564024 -0.009445667 -0.019186001
-0.03428216 -0.0040497235 0.013447885 -0.004915129 -0.022099862 0.0012407589 0.006580458 -0.013856569
-0.000106498286 0.003341004 -0.004310428 0.026348824 -0.00097068667 0.003739615 -0.0019033994 0.0138652455
-0.0025677285 0.035697795 -0.028286915 0.022568893 0.0089735715 0.016166264 -0.0020434752 0.023332996
0.021529237 0.025799558 -0.025060022 -0.004682453 0.021321425 -0.014302957 -0.003460473 -0.015613419
-0.03909831 -0.021563793 0.012721235 -0.013653818 0.042589262 -0.009935608 -0.01606436 -0.015244493
-0.011830395 0.0018761591 -0.021201486 -7.1675655e-05 0.033310138 -0.008091169 -0.010910748 -0.05294551
-0.01629811 -0.019517377 0.028095206 0.011015057 0.014348517 -0.013796239 0.0027555954 0.011675217
0.03618976 -0.009802175 0.00310317 0.00794554 0.019670235 0.0035703245 -0.01633077 0.0120089725
-0.029328367 -0.02481591 -0.028632473 0.02473212 0.011159976 0.015697332 -0.02725865 -0.0036615678
00000000: bd20 ccbc 1368 093c a55b 15bc 2910 8a3c
00000010: 3c1a c13c c3be 8abc 391d ad3b 4820 bd3c
00000020: f1b3 563b 9f94 ee3b 4e95 7fbc 28c6 da3c
00000030: 0522 5b3c 0343 fd3a 9ec3 063d e675 de3b
00000040: 2420 f53a da0d 30bc f235 d13c 1e79 723b
00000050: 5bd8 083c c6a5 1d3c 3af6 cb3a 72fd 61bc
00000060: 1eab da3b 545c 363c 3c48 563c 661c 4abc
00000070: 16e3 ad3c 5924 6dbc 82d2 de3c e12d 553c
00000080: 44b2 1c3b 26cf 09bd 3c19 85bc 3104 5abb
00000090: 6d6f 8d3c 527e f1bc 7d28 2b3d b909 8ebc
000000a0: e5f1 2f3b f5ce bebc 836e 17bc f948 30bb
000000b0: 4724 43bc f86a ca3b c8aa 923c 11ca faba
000000c0: b096 1cbb 7874 03bc 249b fabc 5243 973a
000000d0: 40e7 113b b7db 643c 4bea debb 5a9f 0bbc
000000e0: ab4f 4dbd 0c56 663b dcee 963c 8081 b53b
000000f0: f04f b9ba 84d9 27bb e3f7 4bbc 0722 0abc
00000100: f0f8 2c3b 793d d0bc 98b6 b13b a941 0cb9
00000110: 863a 78bc f716 bdbc dced 16bd 370f 15bb
00000120: fb1d 5e3c 7e62 753c 95b0 50bc c18f fa3b
00000130: 81a0 ec39 0acb 163c 43e0 203d 4b04 59bc
00000140: 2333 81bc 56a8 77bc a13c a5bc babe f03c
00000150: 71ec 02bb c1ff a9bc 87f3 c7bc 39e7 0eb9
00000160: b440 0f3c cb1a 4cbc 17ba e83c 8a52 a4bc
00000170: e83c a43c f6ff 1ebd a0cb c6bc a460 92bb
00000180: 1bf8 1cbc df1d 053d fd78 a6bc acaa 7c3c
00000190: b0b7 d23a 5d36 f0bb e630 55bc b462 21bc
000001a0: a9a0 04bd 884f 2eb9 c985 663b b37d babc
000001b0: d781 473c 1ade 45bc b7ba df3c f67a 6c3c
000001c0: 5b03 c538 42ad 38bd fba8 ed3c d73c 6eb9
000001d0: 2e35 163d 5fcc 8b3c 616a 66bc 39d8 67bc
000001e0: 3fc0 aaba 93f8 82bc b865 083d 41c8 0e3d
000001f0: c17e 0abc 7eba c0bc 4b1c 1c3c b968 89bc
00000200: 4ff9 0b3d 230b 29bc 9e21 3cbc 4467 853c
00000210: fc18 033c a2fd 8ebc f954 bcbc 6f19 8e3b
00000220: 39d9 30bb 93ea ad3c 7f71 51bc 5e4c 27bc
00000230: b04b 8d39 348e 403c 8222 9dbc d531 643c
00000240: 8492 81bc 47c3 44bc 8cb0 253d 0893 9dba
00000250: a095 1a3d 9c70 15bd 0529 81bc 0b8d 1dbc
00000260: 247b cd3c 1147 4dbd f01e 013c 5a5f 6abc
00000270: 479f 913c 951d 9d3c f3e3 b0bc d001 d23c
00000280: 3e54 f63b a4c3 43bc 9f4b d039 2852 193d
00000290: 44c0 903c 8ce3 693c 2e98 e43b 84bf b93c
000002a0: a53c 6abc 1a4c 723c b0ab e53c d2a8 63bb
000002b0: ec31 e43c bf8e 04bb e1a7 92bc b794 4fbc
000002c0: 1052 843c 5595 2f3c 7b00 39bc cd11 893c
000002d0: 6502 963b 6db2 1c3c 00c2 1abc f62b 9dbc
000002e0: 736b 0cbd 8bb3 84bb 8554 5c3c 170f a1bb
000002f0: c50a b5bc f6a0 a23a e2a0 d73b aa06 63bc
00000300: d557 dfb8 bff4 5a3b 7e3e 8dbb 7dd9 d73c
00000310: ae75 7eba 5414 753b 7c7b f9ba 0e2b 633c
00000320: 5647 28bb da37 123d f6b9 e7bc 66e2 b83c
00000330: e305 133c 1d6f 843c d3eb 05bb d724 bf3c
00000340: 155e b03c 9859 d33c ad4a cdbc 436f 99bb
00000350: 45aa ae3c f356 6abc 1ac9 62bb 6dcf 7fbc
00000360: 8d25 20bd 8da6 b0bc ba6c 503c 43b4 5fbc
00000370: 1472 2e3d f6c8 22bc 6899 83bc 0ac4 79bc
00000380: 46d4 41bc 74e9 f53a bdae adbc 9350 96b8
00000390: 3670 083d d390 04bc fec2 32bc 64dd 58bd
000003a0: 9d83 85bc e8e2 9fbc eb27 e63c 7f78 343c
000003b0: 0b16 6b3c 9f09 62bc 3897 343b 6949 3f3c
000003c0: b73b 143d 4d99 20bc 8e5e 4b3b 032e 023c
000003d0: 7923 a13c 1bfc 693b 1bc8 85bc 48c1 443c
000003e0: 0b42 f0bc bc4a cbbc a68e eabc 049b ca3c
000003f0: 55d8 363c b197 803c 884d dfbc eaf6 6fbb

bias f4 [32]
-0.0017215849 0.067575455 -0.0488623 -0.03304557 -0.031189553 -0.043848626 0.067602426 0.067835204
0.063384466 -0.049327064 -0.04768362 0.0669278 0.067110606 -0.03959647 0.06527815 0.06749141
0.06693152 0.06809015 0.06786389 -0.023416685 0.06411175 0.06934727 0.0010386353 0.06779017
-0.05021268 0.06852959 -0.0014632377 0.069280066 -0.042470604 0.043678775 0.06795831 -0.03565205
00000000: cea6 e1ba 0065 8a3d d623 48bd cb5a 07bd
00000010: 3c81 ffbc 9e9a 33bd 2473 8a3d 2fed 8a3d
00000020: b7cf 813d 2d0b 4abd e64f 43bd 7111 893d
00000030: 4971 893d e82f 22bd 8db0 853d f038 8a3d
00000040: 6513 893d d972 8b3d 39fc 8a3d 59d4 bfbc
00000050: 054d 833d f105 8e3d d122 883a 93d5 8a3d
00000060: d0ab 4dbd 3e59 8c3d 1cca bfba b5e2 8d3d
00000070: a8f5 2dbd 84e8 323d ba2d 8b3d e207 12bd

weight f4 [12, 32, 3, 3]
-0.0073830374 -0.0006982945 0.055688184 -0.034240037 0.0052656373 0.0020816706 0.01682791 -0.024906382
-0.026517354 0.0875139 0.07186874 0.0728204 0.06715053 0.05891732 0.09288595 0.07065539
0.074512795 0.050434854 0.016023993 -0.016601915 -0.022353474 0.0012125899 -0.000868654 -0.04764411
-0.036722973 -0.020623548 -0.020757945 -0.029587956 0.011373234 0.007017321 -0.012677848 -0.015065259
-0.006766317 -0.032266594 8.501818e-05 0.004152578 -0.0046039238 -0.01461973 0.017263826 -0.0036673823
-0.036117364 0.033548236 -0.045785543 -0.006849859 -0.028297996 -0.025503209 -0.034531675 0.013186497
0.00881176 -0.022505417 -0.057553753 0.022382237 0.009921691 0.018493228 0.058501527 0.057658244
0.11977406 0.07366729 0.026169656 0.11989194 0.025881914 0.040870097 0.052500058 0.04846499
0.061509557 0.07999463 0.065192364 0.036599275 0.07843947 0.04639751 0.111605965 0.046137862
0.07501377 0.04258566 0.08949993 0.010817945 0.066566646 0.04040802 0.063003525 0.008396878
0.03515765 -0.020347182 -0.016227422 0.006038372 0.0064396653 0.02477657 -0.028615357 -0.014796731
0.0015857893 -0.007789228 -0.022021951 -0.047813065 0.00529319 -0.023831032 0.004263638 -0.008192007
-0.040397655 -0.01453563 -0.035851825 0.060824618 0.1057346 0.09227319 0.082072064 0.022351073
0.08908516 0.06548179 0.07492389 0.07171127 0.09653893 0.07473603 0.055000283 0.10059699
0.0743271 0.040942643 0.07245545 0.07633981 0.047185324 0.0075601577 -0.022484606 -0.0009886952
0.025841545 -0.021771397 -0.010578782 0.015793473 -0.007861044 0.008766754 0.075776376 0.065628275
0.08235202 0.07758957 0.053295515 0.05043043 0.075638995 0.1012654 0.0728919 0.04278079
0.06874638 0.048777558 0.05715879 0.065067865 0.02809433 0.026249439 0.026582163 0.054639116
0.086659014 0.06838966 0.08137719 0.055553533 0.062147614 0.082606815 0.067371495 0.08024761
0.030182641 0.07361117 0.11346059 0.09057581 0.087535605 0.09131512 0.068459235 0.083556145
0.06260402 0.06680584 0.08108158 0.057367567 0.07212644 0.092132166 0.04793587 0.05664552
0.07592228 0.083073415 0.03957468 0.005170447 -0.0154097 0.0005889778 -0.02536948 0.0027754859
-0.009940293 -0.0162503 -0.0024401112 0.027631043 0.018275259 0.024246646 0.056339983 0.08411508
0.02978436 0.023742918 -0.0042895055 0.023863487 0.03464149 0.0045971894 -0.002585472 -0.008273746
-0.00092419714 0.01331039 0.051800426 0.026030261 0.028151719 0.027003104 -0.011616097 -0.016797718
0.0021711143 -0.029518187 0.009343242 0.003259771 0.00088050176 0.023114122 0.023913369 0.083839774
0.08691042 0.078575104 0.054760862 0.076961055 0.08143359 0.084500566 0.08225047 0.057115436
-0.017347649 -0.03785659 0.007079893 0.00053058605 -0.034001384 -0.013041262 0.013942374 -0.038170002
-0.017666612 0.08654545 0.098485135 0.05639201 0.07442784 0.07457663 0.07714717 0.047806103
0.0835305 0.07694638 0.003468489 0.004584212 -0.005339039 0.008354328 0.008089619 -0.02211639
0.004701301 -0.02241829 -0.018910239 0.03440864 0.05963934 0.07437289 0.07506094 0.054508507
0.056960218 0.08133039 0.064166434 0.054323323 -0.001769838 -0.015504338 -0.020581594 -0.009770267
00000000: 68ed f1bb c00d 37ba 4b19 643d 483f 0cbd
00000010: 5e8b ac3b a36c 083b afda 893c 7808 ccbc
00000020: ec3a d9bc 7d3a b33d eb2f 933d dd22 953d
00000030: 3886 893d 4a53 713d fd3a be3d c6b3 903d
00000040: 2a9a 983d c794 4e3d c044 833c bd00 88bc
00000050: a21e b7bc c4ef 9e3a 62b6 63ba 7826 43bd
00000060: d46a 16bd b7f2 a8bc 910c aabc 7162 f2bc
00000070: cd56 3a3c 8ef1 e53b c0b6 4fbc 47d4 76bc
00000080: fbb7 ddbb fa29 04bd ca4b b238 5912 883b
00000090: 83dc 96bb 9887 6fbc de6c 8d3c 7758 70bb
000000a0: cdef 13bd e069 093d 9f89 3bbd c874 e0bb
000000b0: 33d1 e7bc 1bec d0bc 1671 0dbd 2d0c 583c
000000c0: 335f 103c 485d b8bc 7cbd 6bbd f45a b73c
000000d0: 978e 223c 1c7f 973c 4c9f 6f3d 0d2b 6c3d
000000e0: 1a4c f53d e0de 963d bf61 d63c e889 f53d
000000f0: 4f06 d43c 6767 273d 4d0a 573d 3a83 463d
00000100: 72f1 7b3d 39d4 a33d 9383 853d 1fe9 153d
00000110: dfa4 a03d 510b 3e3d ab91 e43d 0efb 3c3d
00000120: d2a0 993d 4d6e 2e3d bd4b b73d c03d 313c
00000130: 1854 883d e182 253d fe07 813d 0f93 093c
00000140: 7801 103d 22af a6bc 5fef 84bc 89dd c53b
00000150: d403 d33b 3cf8 ca3c c16a eabc fd6d 72bc
00000160: 42da cf3a c83c ffbb 6167 b4bc a2d7 43bd
00000170: 7f72 ad3b 4c39 c3bc fdb5 8b3b c537 06bc
00000180: 0378 25bd da26 6ebc 5dd9 12bd 3c23 793d
00000190: 628b d83d baf9 bc3d 6615 a83d 9919 b73c
000001a0: 4872 b63d 511b 863d b271 993d 5cdd 923d
000001b0: 34b6 c53d 340f 993d fa47 613d cb05 ce3d
000001c0: ce38 983d 79b3 273d 8663 943d 0c58 9c3d
000001d0: 6645 413d 33bb f73b a331 b8bc 1b97 81ba
000001e0: a6b1 d33c ee59 b2bc a152 2dbc 5061 813c
000001f0: 9ccb 00bc 6ea2 0f3c a530 9b3d 1e68 863d
00000200: 2da8 a83d 48e7 9e3d 664c 5a3d 2390 4e3d
00000210: 9ee8 9a3d 3c64 cf3d 5948 953d e93a 2f3d
00000220: e7ca 8c3d faca 473d 561f 6a3d 4d42 853d
00000230: 1526 e63c 1009 d73c d6c2 d93c 44cd 5f3d
00000240: 487a b13d e10f 8c3d 16a9 a63d 1a8c 633d
00000250: 7f8e 7e3d c32d a93d 11fa 893d dc58 a43d
00000260: 9641 f73c 74c1 963d 075e e83d cf7f b93d
00000270: de45 b33d 6c03 bb3d 5b34 8c3d 7c1f ab3d
00000280: 8936 803d 80d1 883d 190e a63d 41fa 6a3d
00000290: 07b7 933d caaf bc3d 6758 443d 2205 683d
000002a0: 247d 9b3d 6522 aa3d 0f19 223d da6c a93b
000002b0: f778 7cbc a265 1a3a a8d3 cfbc ede4 353b
000002c0: 9cdc 22bc 591f 85bc 46ea 1fbb 7f5a e23c
000002d0: ffb5 953c e7a0 c63c c1c4 663d 8744 ac3d
000002e0: 55fe f33c 8280 c23c fb8e 8cbb 5c7d c33c
000002f0: 3ce4 0d3d 05a4 963b 0671 29bb 9b8e 07bc
00000300: d245 72ba d213 5a3c af2c 543d 6a3d d53c
00000310: 6f9e e63c 9d35 dd3c 7151 3ebc 5e9b 89bc
00000320: 4149 0e3b 20d0 f1bc 6614 193c e2a1 553b
00000330: 79d1 663a d459 bd3c f8e5 c33c 30b4 ab3d
00000340: 17fe b13d fceb a03d ed4c 603d c29d 9d3d
00000350: a7c6 a63d a20e ad3d ef72 a83d e0f1 693d
00000360: a81c 8ebc 830f 1bbd 72fe e73b 0717 0b3a
00000370: 0945 0bbd 04ab 55bc 8e6e 643c 2658 1cbd
00000380: 92b9 90bc be3e b13d 93b2 c93d 4ffb 663d
00000390: a06d 983d a2bb 983d 56ff 9d3d 55d0 433d
000003a0: 0a12 ab3d 1096 9d3d 974f 633b 2837 963b
000003b0: 1bf3 aebb 97e0 083c 528a 043c 6e2d b5bc
000003c0: 5f0d 9a3b 90a6 b7bc a5e9 9abc 13f0 0c3d
000003d0: 6148 743d d050 983d 8db9 993d 5044 5f3d
000003e0: 1e4f 693d 8c90 a63d b169 833d 2282 5e3d
000003f0: e9f9 e7ba e805 7ebc bb9a a8bc 7813 20bc

bias f4 [12]
0.0467863 0.04547406 0.0416716 0.04447623 -0.026149586 -0.023211291 -0.025653768 -0.00090436946
0.053478308 0.053991467 0.052276816 0.05124259
00000000: fea2 3f3d 0243 3a3d d7af 2a3d b52c 363d
00000010: a837 d6bc 9b25 bebc da27 d2bc 3513 6dba
00000020: 120c 5b3d 2826 5d3d 3720 563d c0e3 513d

weight f4 [3, 3, 1, 1]
-0.037101217 0.047716454 -0.05563922 -0.047269978 0.057003453 -0.08003814 -0.07913662 0.047462784
-0.07040093
00000000: 72f7 17bd 5472 433d f3e5 63bd 2a9e 41bd
00000010: 747c 693d 09eb a3bd 6112 a2bd 5668 423d
00000020: 5d2e 90bd

bias f4 [3]
-0.02529843 -0.020848658 -0.0048797275
00000000: a73e cfbc ceca aabc 1fe6 9fbb
